benchmarks/nd/dim_2/width_16/deg_8_seed_987.pt (torch, 1191 bytes, 2 tensors)

net.centers f4 [16, 2]
000000 1e fb 8b be 2b 96 ed bf d9 9a c2 3f 8c 0a f5 be
       -0.27340025 -1.8561453 1.5203506 -0.4785961
000010 16 25 1d c0 8c 59 83 bf d8 a5 ec bf 79 8e 1c 40
       -2.4553885 -1.0261703 -1.8488111 2.4461958
000020 24 f7 90 3f 7b e9 90 3f e3 3d 6d 3f da af e1 bf
       1.1325421 1.1321253 0.92672557 -1.7631791
000030 84 5a 18 40 a5 78 11 bf 30 b8 6e 3f 5e ff 01 c0
       2.3805246 -0.56824714 0.932498 -2.0312114
000040 cd 64 2a bf 1e 75 ad be e6 a5 09 c0 8e 57 e2 be
       -0.6656006 -0.33878416 -2.1507506 -0.44207424
000050 7d 9a 5d bf aa b9 1b 3f 68 53 64 be c6 bc a6 3f
       -0.86563855 0.60830176 -0.22297442 1.3026359
000060 ea b8 96 3f 28 8a 81 bf 12 8f ec bf 46 0b 10 bf
       1.1775181 -1.0120287 -1.8481162 -0.562672
000070 a7 67 2a bf c5 b1 5d 3f cc 6c f5 bf c8 eb be bf
       -0.6656441 0.8659938 -1.9173827 -1.4915705

net.bias f4 [16]
000000 50 85 51 3e a2 17 7a bd db 7e 8e bd c6 af 3c 3c
       0.20461011 -0.061057694 -0.069577895 0.011516517
000010 a7 66 16 bc ef 4b 16 3d e7 8e 37 3e 2b 1b c3 3d
       -0.009179748 0.03669351 0.17925607 0.09526666
000020 1e 56 05 bc a0 ea 63 3d 6f fa 49 be 9b ad a2 bb
       -0.008138208 0.055643678 -0.19724439 -0.004964543
000030 bc 47 cc bd 90 07 35 be e5 41 6f bd c1 8b c8 bc
       -0.0997462 -0.17678666 -0.05841245 -0.024480702
