benchmarks/nd/dim_4/width_16/deg_8_seed_987.pt (torch, 1319 bytes, 2 tensors)

net.centers f4 [16, 4]
00000000: f05b f13f 14fb 86bf 622e f83f 527e 1dc0
00000010: a10e 07bf cc9a c23f e6c5 d33f 9313 15bf
00000020: b2f9 1d40 4e8e 16bf 1fea 7a3f 6b45 0b40
00000030: f2a6 963f 81d8 b43f e8f4 0f40 9530 1340
00000040: 6eb1 abbf 9fed 07c0 b4c7 eabf 082a 0840
00000050: 4569 a1bf 2298 333f a57e 07c0 c8ad a23d
00000060: e2d8 73bf 781a 293e 3e3c d0bf f61e b0bf
00000070: 829c 423f 3abb 11bf 17c8 d9bf d2a2 fa3f
00000080: 0bbb 1440 6059 963f c49b d83f badc 89bf
00000090: 6ec3 d2bf 8cab 4cbe 07e3 923f e7d8 f3bf
000000a0: 6c73 593f a3a6 a6bf 1c54 6e3e 70ee 25be
000000b0: 4207 b8bf 98a7 5d3e c48b e6be 0005 52bf
000000c0: 268a 8bbe de6c eebf 5461 a9bf 2ab7 eb3e
000000d0: 8c0e 443f c925 fcbf 8098 af3c 7293 cebf
000000e0: 1a29 d53f f65c c23f 507e cc3d f695 75bf
000000f0: 6d1c 73bf f4c0 0240 ec59 703e 0e3d bebf
1.8856182 -1.0545373 1.9389155 -2.460835 -0.52756697 1.520349 1.6544769 -0.5823299
2.4683652 -0.5881089 0.9801349 2.176112 1.1769698 1.4128572 2.249323 2.2998402
-1.3413522 -2.1238782 -1.8342195 2.1275654 -1.2610251 0.7015401 -2.1171048 0.079433024
-0.9525281 0.16514003 -1.6268384 -1.3759449 0.7602006 -0.5692631 -1.7014188 1.9580939
2.3239162 1.1746025 1.6922536 -1.0770485 -1.646589 -0.19987315 1.1475533 -1.9050568
0.84941745 -1.3019603 0.23274273 -0.16204238 -1.4377215 0.21645963 -0.45028508 -0.8203888
-0.27253836 -1.8626974 -1.3232827 0.4603818 0.76584697 -1.9699031 0.021435022 -1.6138747
1.6653168 1.518462 0.0998503 -0.9593195 -0.9496525 2.043027 0.23471802 -1.4862382

net.bias f4 [16]
00000000: e348 c73d 4702 85bc 03e5 78bc ca2e 58ba
00000010: 9387 653c 1f9f 053e a773 053e 6848 04be
00000020: 1825 653d 14a7 90be 6fd8 17bd ab9f c6bd
00000030: 6716 c83d 5077 58bc 4dec f5bd 9599 d5bd
0.09730699 -0.016236437 -0.015191319 -0.0008246718 0.014009374 0.13048981 0.13032399 -0.12918246
0.05594358 -0.2825247 -0.03707164 -0.09698423 0.09769898 -0.01321204 -0.120079614 -0.10429684
