benchmarks/celeba/width_16/deg_100_seed_295.pt (torch, 787559 bytes, 2 tensors)

net.centers f4 [16, 12288]
0.665982 0.27374136 -0.14200485 0.40428185 0.6387037 -0.1344955 -0.6113825 -0.13137972
-0.97860897 -0.03696382 -0.8413019 -0.63339376 -0.84488046 0.93605256 0.9347757 -0.2839607
0.40348363 0.5789187 0.8217187 -0.64410543 -0.6296294 -0.77177274 0.6086371 0.5175332
0.85095596 -0.16420531 -0.17250073 -0.791602 0.21145773 0.18747652 -0.55908453 -0.12364936
0.7266221 0.6017728 -0.23324645 -0.05097294 -0.18531775 0.06833637 -0.08058798 0.12573946
0.17569017 -0.34609616 0.10162091 -0.214594 -0.89314246 -0.08783996 -0.7369437 0.009567499
-0.5080954 -0.77336335 -0.9414855 0.16297662 0.35435104 0.799811 0.48444188 0.78290033
0.02210319 0.4581728 0.56887627 0.81315553 0.52578354 -0.41140687 -0.11858511 -0.374995
-0.5474559 -0.18670058 0.6688243 -0.11934054 -0.0642817 -0.4449525 -0.013240576 0.35784638
0.036320806 0.014576435 0.2610469 -0.79450524 0.04771018 0.9352182 -0.2760905 -0.52555084
-0.0536561 0.73152375 0.69226754 0.6088886 0.12289536 -0.72107494 0.42494512 -0.2136786
0.85301626 0.6006366 0.87120974 0.21573985 0.0019409657 -0.92641103 0.5057937 -0.3333702
0.68713355 -0.86143243 -0.8439541 -0.11552358 -0.9943521 -0.5751579 0.3595364 -0.8575108
0.8711374 0.9033085 -0.95574796 -0.7628782 -0.43565142 -0.022363067 0.54542446 0.84773266
0.92896605 -0.325534 0.9944625 -0.88427305 -0.94390786 -0.295305 -0.1413604 -0.7451378
-0.8102397 0.578655 -0.7695737 0.4111297 -0.32566524 -0.1820811 0.7284175 0.024776697
0.18084109 -0.22924697 0.6498009 0.007312417 -0.14160168 -0.63116515 0.2941805 -0.25655723
-0.96681 0.7232437 0.68617713 0.5517386 0.5599103 0.18335187 0.29437172 -0.5288907
0.6085975 0.87592244 0.90146303 -0.13478613 0.60819066 -0.06257689 0.71070623 0.83338034
0.057509422 0.6499485 -0.7054434 0.16749465 -0.8664079 0.25547206 0.87881947 -0.009431124
-0.7238041 0.8409964 0.14995432 0.99154925 -0.5222864 0.5830902 -0.12037206 0.80163527
-0.5206225 -0.67274666 0.04566157 0.5694084 -0.72485375 0.64390004 -0.52115965 0.9582355
-0.20553946 0.28170347 -0.98920846 0.28457856 0.80852854 -0.88571453 -0.9946333 0.00559783
-0.38748336 0.53645694 0.81807077 0.79835725 0.9199109 0.9357151 0.57554877 -0.053432822
-0.40518808 0.53552043 -0.5745692 -0.6658547 0.9849582 0.76097417 -0.29118645 0.23224437
-0.88065064 0.63553655 -0.8607122 0.2452836 0.5874375 0.8175192 -0.36232412 0.8135772
0.0015455484 -0.050786257 -0.22921526 -0.89813066 0.661656 -0.10088205 0.26151502 -0.2389952
-0.4413886 -0.2552091 0.8011106 -0.37115884 -0.32278395 -0.21451497 -0.8517828 -0.04265833
-0.22826445 -0.5007043 -0.4861616 0.6059935 0.27741492 0.7250736 -0.520944 -0.123270154
-0.9787754 0.077827215 0.8977165 0.45386302 -0.96745706 -0.06352484 -0.30920243 -0.64636743
0.93704164 0.32658815 0.9205431 0.2686144 -0.9399215 -0.9573153 -0.7757666 -0.53222656
-0.3874694 0.85821176 0.54574645 0.7719418 -0.2436235 0.6520486 -0.21107769 0.9042934
00000000: cc7d 2a3f d427 8c3e b869 11be 08fe ce3e
00000010: 1682 233f 30b9 09be 9083 1cbf 6888 06be
00000020: 1e86 7abf 6067 17bd 905f 57bf 1826 22bf
00000030: 164a 58bf 24a1 6f3f 764d 6f3f 4c63 91be
00000040: 6895 ce3e 0434 143f 285c 523f 18e4 24bf
00000050: 642f 21bf e692 45bf a4cf 1b3f 0e7d 043f
00000060: 40d8 593f 7025 28be 08a4 30be 6ea6 4abf
00000070: 6088 583e d8f9 3f3e 2a20 0fbf e03b fdbd
00000080: e803 3a3f c80d 1a3f 28d8 6ebe 00c9 50bd
00000090: f0c3 3dbe f0f3 8b3d 500b a5bd d8c1 003e
000000a0: 20e8 333e 8433 b1be a01e d03d 88be 5bbe
000000b0: fca4 64bf 70e5 b3bd 58a8 3cbf 00c1 1c3c
000000c0: 8a12 02bf 24fb 45bf 3205 71bf 58e3 263e
000000d0: 806d b53e 6ac0 4c3f c408 f83e 286c 483f
000000e0: c011 b53c a095 ea3e e0a1 113f f62a 503f
000000f0: c099 063f eca3 d2be c0dc f2bd 58ff bfbe
00000100: 1226 0cbf 702e 3fbe 1238 2b3f d068 f4bd
00000110: 20a6 83bd d0d0 e3be 00ef 58bc a437 b73e
00000120: 20c5 143d 00d2 6e3c f0a7 853e b264 4bbf
00000130: c06b 433d 766a 6f3f bc5b 8dbe 808a 06bf
00000140: 80c6 5bbd 2445 3b3f 7238 313f 20e0 1b3f
00000150: 90b0 fb3d 5e98 38bf 6892 d93e 90ce 5abe
00000160: 465f 5a3f 52c3 193f 9a07 5f3f e8ea 5c3e
00000170: 0068 fe3a 4629 6dbf b27b 013f 80af aabe
00000180: fce7 2f3f d686 5cbf 600d 58bf a097 ecbd
00000190: dc8d 7ebf 8c3d 13bf 2815 b83e d485 5bbf
000001a0: dc02 5f3f 3a3f 673f e6ab 74bf fc4b 43bf
000001b0: b40d dfbe c032 b7bc f0a0 0b3f 0205 593f
000001c0: b8d0 6d3f 64ac a6be 1895 7e3f b85f 62bf
000001d0: f2a3 71bf 3832 97be c8c0 10be 5ac1 3ebf
000001e0: de6b 4fbf bc22 143f c802 45bf 987f d23e
000001f0: 98bd a6be 7873 3abe 9279 3a3f 80f8 ca3c
00000200: 682e 393e b8bf 6abe 5a59 263f 009d ef3b
00000210: 0800 11be 0a94 21bf d49e 963e 785b 83be
00000220: dc80 77bf 8026 393f 4ea9 2f3f be3e 0d3f
00000230: 4856 0f3f 98c0 3b3e e4b7 963e 6265 07bf
00000240: 0ccd 1b3f 743c 603f 48c6 663f 6005 0abe
00000250: 62b2 1b3f 5028 80bd d8f0 353f 6a58 553f
00000260: 008f 6b3d 0663 263f f097 34bf b883 2b3e
00000270: e8cc 5dbf 3ccd 823e 50fa 603f 0085 1abc
00000280: 3a4b 39bf 8a4b 573f a08d 193e 2cd6 7d3f
00000290: 90b4 05bf 6645 153f a085 f6bd f837 4d3f
000002a0: 8447 05bf 2039 2cbf a007 3b3d c0c4 113f
000002b0: 0490 39bf a2d6 243f b86a 05bf ec4e 753f
000002c0: f078 52be 703b 903e c43c 7dbf 48b4 913e
000002d0: bafb 4e3f 30be 62bf 4aa0 7ebf 006e b73b
000002e0: 3864 c6be 3e55 093f 166d 513f 2461 4c3f
000002f0: 487f 6b3f 068b 6f3f 2a57 133f 60dc 5abd
00000300: d074 cfbe de17 093f f816 13bf 7475 2abf
00000310: 3826 7c3f 34cf 423f 6416 95be 78d1 6d3e
00000320: 5272 61bf 86b2 223f a257 5cbf a02b 7b3e
00000330: 4e62 163f f048 513f 8c82 b9be 9846 503f
00000340: 0094 ca3a 4005 50bd 68b7 6abe e4eb 65bf
00000350: 4a62 293f 409b cebd 4ce5 853e 28bb 74be
00000360: b0fd e1be c4aa 82be 9615 4d3f 8808 bebe
00000370: f043 a5be d0a9 5bbe 700e 5abf 80ba 2ebd
00000380: 28be 69be 282e 00bf 2cea f8be 6422 1b3f
00000390: 5409 8e3e 6c9e 393f 965c 05bf 1075 fcbd
000003a0: 0691 7abf e063 9f3d c0d0 653f bc60 e83e
000003b0: 44ab 77bf 5019 82bd c84f 9ebe 5678 25bf
000003c0: f6e1 6f3f 9036 a73e b6a8 6b3f d487 893e
000003d0: b29e 70bf 9e12 75bf a498 46bf 0040 08bf
000003e0: 6462 c6be c4b3 5b3f 0ab6 0b3f fa9d 453f
000003f0: 7078 79be a8ec 263f c024 58be c67f 673f

net.bias f4 [16]
-0.039866503 -0.07324966 -0.13661338 -0.16610812 0.11295729 -0.12107505 0.11591846 -0.10731798
-0.17549025 -1.7225986e-05 -0.082618065 0.039425522 0.11573497 -0.1739373 0.053512085 0.16405162
00000000: 0f4b 23bd eb03 96bd 61e4 0bbe 3f18 2abe
00000010: 2756 e73d 32f6 f7bd a866 ed3d 87c9 dbbd
00000020: b7b3 33be 8680 90b7 a933 a9bd a87c 213d
00000030: 7506 ed3d 9f1c 32be 7d2f 5b3d 26fd 273e
