checkpoints/nd/dim_2/width_64/method_cowgan.pt (torch, 69975 bytes, 5 tensors)

net.0.weight f4 [128, 2]
0.67256004 -0.24483173 -0.2641567 0.67952985 -0.31917727 -0.26771912 -0.22559713 0.15738948
0.62506205 0.5767633 0.6719873 0.6407595 0.012882353 0.07402234 0.417855 -0.064228386
0.5464145 0.5995194 0.7969733 -0.3540102 0.31492463 0.17697513 -0.56800956 -0.5747712
-0.7061473 0.6030084 0.49135053 0.4950079 -0.5878976 -0.54730266 0.017495459 -0.55053556
0.62024635 0.68765885 0.20601615 0.7800487 0.08950343 -0.4969707 0.5725845 0.020233626
-0.030883128 -0.28101245 -0.47803247 0.30865842 -0.7261792 0.28162628 0.15450218 0.14720117
0.48645818 0.059527837 -0.56532985 -0.07841265 0.5468298 -0.39661962 0.00045834068 0.7013982
-0.124455996 -0.46923348 0.35417354 -0.4365977 -0.53369415 0.0445037 -0.19159603 -0.15176359
0.26670098 -0.42150724 0.3999683 -0.4860487 -0.4429382 -0.44243312 -0.1674353 -0.56738096
0.5304431 0.123863846 0.37924072 0.28722158 -0.5674712 -0.10480891 0.24903236 -0.07776156
-0.5003104 0.56129503 -0.4080354 0.6370832 0.13163035 -0.7984062 0.073453635 0.5797535
0.41644505 -0.21965584 -0.35074762 -0.74693906 -0.07352125 0.60751414 0.48091227 0.17327785
-0.042962648 0.53819114 -0.21938884 -0.1482885 -0.5563151 -0.3510705 0.48998368 0.41450912
-0.05923121 0.11640089 -0.36268905 -0.08343376 0.3518809 0.77809113 0.3804016 0.3576801
-0.78518164 -0.5691568 -0.05570585 0.17540145 0.42659935 0.23309247 -0.26397073 -0.41875076
-0.45276088 0.08332504 0.77250654 -0.20511578 0.04522776 0.061406292 -0.5665648 0.58676106
-0.76433426 0.29649675 -0.3180789 -0.114858516 0.622966 0.14834636 0.45439333 0.59941536
-0.074966624 -0.51973975 -0.045102727 0.503951 -0.08541394 -0.21808055 -0.13478646 -0.066622026
0.22245578 -0.41213065 0.17106763 -0.5365134 0.46726933 0.26745096 -0.21804939 -0.07951918
0.7450429 -0.3759853 -0.63450354 -0.5152367 -0.62561834 -0.490548 0.8321766 0.0765962
0.30645213 -0.476126 -0.43595368 -0.45778528 -0.3302427 0.66858596 -0.54464525 0.5459142
-0.24863178 -0.21473268 -0.2657659 0.3598073 0.59574187 -0.4512875 0.046163525 -0.36265665
-0.5495227 0.34615263 0.53871536 0.6902028 -0.6999861 0.3177565 0.5328262 -0.43777776
0.6421838 0.17857161 -0.73989666 0.52252865 -0.44602495 -0.57970226 -0.4335148 0.2328097
-0.10160489 -0.34142083 0.6283649 0.36450765 -0.31443906 0.2591291 -0.07052686 0.69075143
0.03794034 -0.06556937 0.63992894 0.5871446 -0.50687075 -0.42571685 -0.057319384 -0.5807165
0.8425353 -0.56453323 0.13663325 -0.69600993 0.11918353 -0.5848399 -0.40681607 -0.11702331
0.15537274 -0.79042244 -0.5473675 -0.17900698 -0.3072732 -0.0647735 0.2826708 0.04991307
-0.22134155 0.07627802 -0.6618479 0.18480133 0.61088294 0.61502236 0.5325086 -0.6441951
0.73314446 -0.3703766 0.7134728 -0.026404487 0.3595814 -0.5149068 0.2562274 -0.45232496
0.63239336 0.15658905 0.26236448 0.6258019 0.44289926 -0.48635584 0.22397624 -0.5120829
0.069682024 0.47378585 0.37253585 0.40553954 -0.5483903 -0.23749729 -0.26071435 0.21528742
00000000: e52c 2c3f 2bb5 7abe 8c3f 87be abf5 2d3f
00000010: 346b a3be 7b12 89be ef02 67be b52a 213e
00000020: 1104 203f c2a6 133f 5c07 2c3f d108 243f
00000030: 8110 533c 0699 973d 17f1 d53e 2c8a 83bd
00000040: d2e1 0b3f 1a7a 193f 7106 4c3f d340 b5be
00000050: cd3d a13e f838 353e 1369 11bf 3524 13bf
00000060: 12c6 34bf c25e 1a3f 4c92 fb3e ad71 fd3e
00000070: 7580 16bf 071c 0cbf a352 8f3c e6ef 0cbf
00000080: 77c8 1e3f 690a 303f e6f5 523e 46b1 473f
00000090: 934d b73d f272 febe e694 123f fdc0 a53c
000000a0: 9dfe fcbc dde0 8fbe acc0 f4be 7a08 9e3e
000000b0: e1e6 39bf 5231 903e d235 1e3e e7bb 163e
000000c0: 0c11 f93e 76d3 733d 75b9 10bf d096 a0bd
000000d0: 0afd 0b3f ba11 cbbe 724d f039 d58e 333f
000000e0: c9e2 febd 5f3f f0be 3c56 b53e bc89 dfbe
000000f0: 2ea0 08bf 8349 363d c031 44be ea67 1bbe
00000100: 088d 883e cccf d7be a5c8 cc3e 60db f8be
00000110: ccc8 e2be 9886 e2be 2974 2bbe e13f 11bf
00000120: 1ecb 073f 54ac fd3d d72b c23e b50e 933e
00000130: cb45 11bf 0ea6 d6bd 5702 7f3e 7441 9fbd
00000140: 5814 00bf 08b1 0f3f 04ea d0be e217 233f
00000150: 1bca 063e 5964 4cbf dc6e 963d ba6a 143f
00000160: 4938 d53e 76ed 60be 3195 b3be 6637 3fbf
00000170: 4f92 96bd 0c86 1b3f 223a f63e c06f 313e
00000180: 9af9 2fbd e5c6 093f 78a7 60be f1d8 17be
00000190: ab6a 0ebf 83bf b3be 24df fa3e 8a3a d43e
000001a0: 6d9c 72bd 9763 ee3d 61b2 b9be 52df aabd
000001b0: bc29 b43e fb30 473f 00c4 c23e d921 b73e
000001c0: aa01 49bf 43b4 11bf d12b 64bd 709c 333e
000001d0: 3b6b da3e cbaf 6e3e 2c27 87be 8066 d6be
000001e0: 46d0 e7be 52a6 aa3d fdc2 453f df09 52be
000001f0: be40 393d 2a85 7b3d 640a 11bf f935 163f
00000200: 69ab 43bf 6cce 973e 3ddb a2be f13a ebbd
00000210: b37a 1f3f 1ce8 173e 3ea6 e83e 4973 193f
00000220: 1a88 99bd aa0d 05bf a3bd 38bd ef02 013f
00000230: 81ed aebd 8250 5fbe 7605 0abe 2171 88bd
00000240: 73cb 633e ca02 d3be 5a2c 2f3e f158 09bf
00000250: ed3d ef3e 55ef 883e 5748 5fbe f4da a2bd
00000260: 22bb 3e3f 2581 c0be d36e 22bf 8de6 03bf
00000270: 8628 20bf 1c29 fbbe 8709 553f 78de 9c3d
00000280: 4be7 9c3e c9c6 f3be 5235 dfbe d562 eabe
00000290: 9215 a9be 7328 2b3f df6d 0bbf 08c1 0b3f
000002a0: 5499 7ebe e2e2 5bbe 7812 88be aa38 b83e
000002b0: 8a82 183f 280f e7be f715 3d3d 22ae b9be
000002c0: 85ad 0cbf eb3a b13e 40e9 093f 21b1 303f
000002d0: 4a32 33bf fbb0 a23e 4c67 083f 6824 e0be
000002e0: 2866 243f 7adb 363e de69 3dbf 70c4 053f
000002f0: 625d e4be 5e67 14bf a7f5 ddbe aa65 6e3e
00000300: 3916 d0bd b6ce aebe 86dc 203f bfa0 ba3e
00000310: 28fe a0be 92ac 843e 6370 90bd 16d5 303f
00000320: 5467 1b3d 3c49 86bd 62d2 233f 1c4f 163f
00000330: 48c2 01bf 8ff7 d9be bbc7 6abd d6a9 14bf
00000340: 65b0 573f 4085 10bf 96e9 0b3e b52d 32bf
00000350: 7f16 f43d 11b8 15bf 324a d0be eba9 efbd
00000360: 081a 1f3e 2059 4abf 4720 0cbf 9b4d 37be
00000370: ea52 9dbe f8a7 84bd 3aba 903e a671 4c3d
00000380: 5ca7 62be a737 9c3d dd6e 29bf 8f3c 3d3e
00000390: d362 1c3f 1b72 1d3f 7c52 083f f8e9 24bf
000003a0: 5baf 3b3f 00a2 bdbe 27a6 363f 394e d8bc
000003b0: 0e1b b83e efd0 03bf 3d30 833e 2397 e7be
000003c0: 88e4 213f e158 203e a354 863e 8e34 203f
000003d0: b1c3 e23e a203 f9be 075a 653e dd17 03bf
000003e0: 73b5 8e3d 0f94 f23e 05bd be3e e1a2 cf3e
000003f0: 4f63 0cbf 7d32 73be 5a7c 85be 4e74 5c3e

net.0.bias f4 [128]
0.915259 -0.5868701 0.34947282 -0.23266856 0.18379636 -0.3413108 -0.65499175 -0.119903564
-0.44932947 -0.66728044 0.016234051 -0.580035 0.5683312 0.5271251 0.04418737 0.23117328
0.6179439 -0.570434 -0.33510062 -0.2985954 -0.5559927 0.5469159 -0.36039296 0.6986306
0.5859431 -0.1714221 -0.20597404 -0.892324 -0.16326773 0.4261366 0.5084778 -0.533249
-0.6426281 0.52078575 0.70219016 -0.68127906 -0.3734408 -0.23634005 -0.22594154 -0.0070591974
0.14773501 0.67696524 -0.012189187 0.051839337 -0.4269112 0.5985935 0.68285626 0.484387
0.39979112 0.5455696 0.12095268 0.72768754 0.6557528 0.28218773 0.6143921 0.4248398
0.38353366 0.0037763547 -0.024084931 -0.51372015 0.8642846 0.25706828 0.33795315 -0.13176897
-0.37870055 0.2366481 0.01578141 -0.70581675 -0.2976804 -0.15510918 0.45404914 -0.63732517
-0.26614514 0.45424175 -0.37688336 0.11167164 -0.18346135 0.37663493 -0.6409158 0.40946314
0.6354299 0.11603149 0.17635147 -0.28914127 0.55691856 -0.44183594 -0.5747501 0.8300206
-0.13034815 0.18194747 -0.41964722 0.3012948 -0.77181643 -0.24602765 -0.1778376 -0.5282244
-0.5931388 -0.80761033 -0.117646076 -0.22955216 -0.26574945 0.5553039 0.5847676 0.46759862
-0.5227013 0.6488864 -0.8278304 0.6957629 -0.643907 0.07190368 0.8273195 -0.6107551
0.2949925 0.36240894 0.09136288 -0.53890973 0.2658558 -0.7611637 0.22802663 -0.5175597
0.89856493 0.4122376 0.5486831 -0.5591082 0.34689775 0.43962026 -0.60918856 0.42680922
00000000: 6a4e 6a3f 1e3d 16bf 1aee b23e ab40 6ebe
00000010: 1d35 3c3e 4ac0 aebe 8aad 27bf 0090 f5bd
00000020: 830e e6be e4d2 2abf 46fd 843c 2c7d 14bf
00000030: 277e 113f acf1 063f d1fd 343d b0b8 6c3e
00000040: 9231 1e3f f607 12bf 4f92 abbe 7fe1 98be
00000050: 8a55 0ebf ae02 0c3f 6d85 b8be 74d9 323f
00000060: 5e00 163f 4689 2fbe dcea 52be 586f 64bf
00000070: a82f 27be 942e da3e 9a2b 023f 0283 08bf
00000080: 4683 24bf 3752 053f bcc2 333f 4e68 2ebf
00000090: a233 bfbe 2003 72be 385d 67be d750 e7bb
000000a0: d947 173e 984d 2d3f 28b5 47bc 7c55 543d
000000b0: 1b94 dabe 6c3d 193f abcf 2e3f 9301 f83e
000000c0: 6cb1 cc3e 73aa 0b3f 0ab6 f73d bb49 3a3f
000000d0: 6adf 273f e97a 903e cd48 1d3f 9a84 d93e
000000e0: 865e c43e b87c 773b c34d c5bc 2a83 03bf
000000f0: c141 5d3f 749e 833e 3208 ad3e 72ee 06be
00000100: 0ae5 c1be e153 723e 0448 813c 68b0 34bf
00000110: 9169 98be f1d4 1ebe 2179 e83e be27 23bf
00000120: 2d44 88be 6092 e83e dbf6 c0be 1ab4 e43d
00000130: 4bdd 3bbe 4bd6 c03e 0f13 24bf 27a5 d13e
00000140: 89ab 223f eba1 ed3d 7b95 343e 530a 94be
00000150: 3792 0e3f 5238 e2be d322 13bf 3b7c 543f
00000160: fc79 05be 7050 3a3e 00dc d6be 5043 9a3e
00000170: c395 45bf acee 7bbe 0f1b 36be b739 07bf
00000180: f2d7 17bf 8dbf 4ebf 6df0 f0bd b90f 6bbe
00000190: 5010 88be 6528 0e3f 54b3 153f 1669 ef3e
000001a0: c1cf 05bf 6b1d 263f b1ec 53bf 841d 323f
000001b0: 17d7 24bf 3d42 933d 36cb 533f 725a 1cbf
000001c0: 4209 973e aa8d b93e 761c bb3d fdf5 09bf
000001d0: 401e 883e a0db 42bf d07f 693e cb7e 04bf
000001e0: 5a08 663f cf10 d33e 7f76 0c3f b721 0fbf
000001f0: 959c b13e e815 e13e c8f3 1bbf bd86 da3e

net.2.weight f4 [128, 128]
-0.007867025 0.07611269 0.072313525 -0.040529072 -0.07962975 0.083638005 0.010865362 0.07932055
-0.017174367 0.06391727 0.03647576 0.023302423 -0.033578552 -0.040636104 -0.08569951 0.010980265
0.06397333 0.0025643723 -0.073850706 -0.03383768 0.013808508 0.08495116 -0.04596686 -0.02045595
0.0063169696 -0.067983784 0.024711719 -0.028114771 0.022361852 -0.000810526 -0.057347827 0.028099872
0.073880434 -0.06455917 -0.07124377 0.04238128 0.04677432 -0.008804182 -0.06769849 0.08555633
-0.03602859 -0.07156229 -0.03194727 -0.050068095 -0.051251832 0.036282767 0.079045475 -0.045206603
0.0017612325 -0.03388986 -0.08578009 -0.08764335 0.057060752 0.03888624 0.05335006 -0.058840066
-0.023739139 0.060477134 -0.03693798 0.08150178 -0.034064505 -0.025679948 0.07888854 0.008479261
0.08364075 -0.037855867 0.003079649 -0.021075826 -0.07567862 -0.040254455 0.0082800435 -0.070215076
-0.025816282 -0.06326438 -0.04797855 -0.0014964554 0.0073636547 -0.08739113 0.062127225 -0.0695287
0.0495279 -0.0011485121 0.018647883 0.07133049 -0.06957767 0.02364926 -0.057894196 -0.011194877
0.04128543 -0.08655649 -0.06775322 0.054667927 0.008463318 -0.039070003 -0.072683595 0.08325482
-0.08127259 0.05391332 0.018798485 0.07797822 0.005704502 0.02006544 0.021373646 -0.02501621
-0.04739667 -0.05641595 -0.048054308 -0.0072901826 0.051457603 0.07080394 -0.057688992 0.064226106
0.0027726514 0.016215716 0.0188253 0.015243745 0.06252988 -0.05781693 0.019722374 -0.04183395
-0.013728187 -0.06918505 -0.06570832 -0.06775848 0.034135185 -0.026516447 0.015169504 -0.023455206
0.0035960095 0.10578906 -0.032362696 0.022762416 -0.0326423 0.120636724 -0.063058965 -0.07374008
0.06992388 -0.13409984 0.0015933029 0.021376273 -0.09528746 0.060848773 0.042247992 -0.024810601
0.008420816 0.075187355 -0.20622149 0.07769338 0.1488295 -0.05383253 -0.0023562955 -0.10126322
0.0003052757 0.17374212 -0.059962694 0.1730801 0.15304562 0.02981356 0.06449346 0.20979348
-0.6007749 -0.011873391 0.026445461 0.006382394 0.13284938 0.17129627 0.14600441 -0.05127482
-0.115527205 -0.089321665 -0.0040260977 -0.032392904 -0.26342505 0.01648322 0.02372986 0.044739965
0.020089207 0.12162676 0.09911082 -0.08662442 -0.028837033 0.064242125 -0.04514612 0.07536354
0.08385742 0.053079512 0.011186809 0.101120494 0.006060135 0.12525097 -0.1004462 -0.083077446
0.1020197 -0.07393707 0.12864287 -0.046305567 0.058823567 0.12396755 -0.06335655 0.0065126363
-0.113748774 0.05635942 0.10824999 0.049772616 -0.03500842 -0.03050187 0.14352664 0.04897062
0.21188658 0.0032755951 0.03380854 0.053559702 0.03930758 0.13212518 -0.1395892 -0.15049136
-0.037045803 0.13200098 -0.020427667 -0.06176206 0.15356767 -0.07951794 0.12166364 0.08683048
0.14095512 0.07132721 0.037422813 0.089602076 -0.009341332 0.018874625 0.02300692 0.007006509
-0.13628155 0.025571605 0.015308525 0.007302042 -0.1314548 0.023425203 0.035030168 0.19519548
-0.0311531 -0.04387014 0.028518923 -0.18962637 0.03259507 0.14935894 -0.09206986 -0.27690658
-0.020613082 -8.996638e-05 0.036395222 -0.20805365 0.019133188 0.059814874 0.101292185 -0.11319371
00000000: b2e4 00bc f8e0 9b3d 1d19 943d d001 26bd
00000010: ec14 a3bd 674a ab3d a204 323c d072 a23d
00000020: 42b1 8cbc 0fe7 823d 9b67 153d b9e4 be3c
00000030: aa89 09bd 0b72 26bd 3a83 afbd 92e6 333c
00000040: 7304 833d 070f 283b 0a3f 97bd 6199 0abd
00000050: 153d 623c e0fa ad3d bf47 3cbd 3d93 a7bc
00000060: 95fe ce3b 153b 8bbd 3b70 ca3c f350 e6bc
00000070: 3430 b73c 7b79 54ba 8ee5 6abd b431 e63c
00000080: a04e 973d 9937 84bd 41e8 91bd fe97 2d3d
00000090: 6e96 3f3d 6a3f 10bc 82a5 8abd 2838 af3d
000000a0: b792 13bd 408f 92bd 24db 02bd 3414 4dbd
000000b0: 71ed 51bd 3d9d 143d 98e2 a13d 8f2a 39bd
000000c0: 28d9 e63a 18d0 0abd 79ad afbd 5b7e b3bd
000000d0: 89b8 693d 2e47 1f3d 9885 5a3d 4802 71bd
000000e0: 9578 c2bc dfb6 773d 484c 17bd 68ea a63d
000000f0: 3987 0bbd c15e d2bc 5190 a13d 99ec 0a3c
00000100: d74b ab3d c10e 1bbd f0d3 493b 36a7 acbc
00000110: 64fd 9abd dbe1 24bd 05a9 073c eccc 8fbd
00000120: ab7c d3bc c190 81bd 2885 44bd b624 c4ba
00000130: d04a f13b 1ffa b2bd 1e79 7e3d 1065 8ebd
00000140: c4dd 4a3d ac89 96ba 72c3 983c b815 923d
00000150: bd7e 8ebd 18bc c13c 7722 6dbd b86a 37bc
00000160: e91a 293d 8744 b1bd 33c2 8abd 7aeb 5f3d
00000170: bba9 0a3c de07 20bd 23db 94bd 8181 aa3d
00000180: 3e72 a6bd 37d4 5c3d 48ff 993c 0cb3 9f3d
00000190: d5ec ba3b 4760 a43c c917 af3c cbee ccbc
000001a0: 0323 42bd 6914 67bd 98d4 44bd 7ce2 eebb
000001b0: 35c5 523d a801 913d 4b4b 6cbd fa88 833d
000001c0: 5fb5 353b d2d6 843c 8437 9a3c e7c0 793c
000001d0: aa0f 803d 72d1 6cbd d190 a13c 135a 2bbd
000001e0: 31ec 60bc e4b0 8dbd 1592 86bd f5c4 8abd
000001f0: 56d1 0b3d 0539 d9bc 8389 783c 2225 c0bc
00000200: 07ab 6b3b efa7 d83d bf8e 04bd 3f78 ba3c
00000210: efb3 05bd 6310 f73d 0f25 81bd 0a05 97bd
00000220: 4034 8f3d 7851 09be 60d6 d03a 4b1d af3c
00000230: 1226 c3bd 903c 793d 3b0c 2d3d 9a3f cbbc
00000240: 76f7 093c d4fb 993d ba2b 53be b51d 9f3d
00000250: c366 183e 807f 5cbd 146c 1abb 1763 cfbd
00000260: 690d a039 74e9 313e 719b 75bd e93b 313e
00000270: feb7 1c3e 913b f43c 2615 843d 1ad4 563e
00000280: 62cc 19bf 9d88 42bc 27a4 d83c 6723 d13b
00000290: ab09 083e 4a68 2f3e 2e82 153e 8c05 52bd
000002a0: 8799 ecbd 47ee b6bd 5bed 83bb 6cae 04bd
000002b0: a6df 86be d107 873c 2065 c23c 4141 373d
000002c0: 1f92 a43c 7317 f93d 9dfa ca3d 2568 b1bd
000002d0: a43b ecbc 6091 833d 23eb 38bd 3358 9a3d
000002e0: 70bd ab3d e769 593d e148 373c 4318 cf3d
000002f0: 1994 c63b ca41 003e bdb6 cdbd 8224 aabd
00000300: b4ef d03d 526c 97bd f5ba 033e e8aa 3dbd
00000310: fbf0 703d b3e2 fd3d 14c1 81bd f467 d53b
00000320: 1ef5 e8bd 23d9 663d 2cb2 dd3d 5fde 4b3d
00000330: fd64 0fbd 0fdf f9bc a6f8 123e 6b95 483d
00000340: ccf8 583e 5eab 563b d37a 0a3d 6b61 5b3d
00000350: fc00 213d d34b 073e 79f0 0ebe 681a 1abe
00000360: 57bd 17bd 442b 073e ec57 a7bc 37fa 7cbd
00000370: d840 1d3e 4dda a2bd c92a f93d 2ed4 b13d
00000380: 8a56 103e 0014 923d aa48 193d 4b81 b73d
00000390: 630c 19bc f59e 9a3c 0279 bc3c dc96 e53b
000003a0: 648d 0bbe 8b7b d13c 9cd0 7a3c f845 ef3b
000003b0: 169c 06be 36e6 bf3c cb7b 0f3d 53e1 473e
000003c0: c934 ffbc 2db1 33bd 84a0 e93c 6a2d 42be
000003d0: 6882 053d 8df1 183e 1f8f bcbd b3c6 8dbe
000003e0: c4dc a8bc 55ac bcb8 2813 153d 040c 55be
000003f0: 34bd 9c3c 7100 753d 4772 cf3d 1bd2 e7bd

net.2.bias f4 [128]
-0.011882851 -0.0148176 0.06575387 0.036288794 -0.11527184 -0.06800155 -0.09591115 -0.04153431
0.07504811 0.11968704 0.045518883 0.056084957 0.018821012 -0.103633024 0.03765818 -0.018346943
-0.058714505 -0.09566257 -0.06494631 0.16589932 0.01873527 -0.058023617 0.029614111 0.073795095
-0.020173127 -0.0061115576 0.009611036 -0.09620039 -0.116751716 0.029573327 0.091789275 -0.024195816
0.011540847 -0.10636001 0.034064192 0.16313374 0.06190544 0.1186876 0.11098084 -0.025097918
0.039075673 0.03151179 -0.011176639 -0.039508894 -0.02449771 0.009037468 0.14798112 0.1045458
0.067416124 -0.14396107 0.0047798012 0.0008471032 -0.055739664 -0.021100765 -0.12275745 0.15536709
-0.046148743 -0.13804089 -0.040115252 0.024038326 0.032143015 0.046720244 -0.053191077 0.02554348
-0.07527417 -0.009151488 -0.09090717 0.027154425 -0.066803955 -0.0823935 -0.1099 0.067887224
0.05868066 -0.05059321 0.08630044 0.02720328 0.034129478 -0.056362938 -0.045441415 -0.049162127
0.050059035 -0.07866747 -0.0756459 0.12404915 -0.07623328 0.14478678 0.14409252 0.072249785
0.027102029 0.20804685 -0.009618732 0.056414425 -0.031257093 0.048408512 0.011987639 -0.07971697
-0.018319597 0.09378725 -0.12793076 0.009159329 -0.15637483 -0.07811609 0.040233262 0.04713278
-0.055528536 -0.1535785 0.036198687 -0.031444255 0.031057663 0.09335547 -0.14748564 0.0035049024
-0.08387026 0.13199282 0.04272375 -0.009529413 0.06427866 0.093837805 -0.10996067 0.07264957
0.013896457 0.1384159 -0.0656404 -0.027708258 -0.06450915 0.06051714 0.023149408 0.018330576
00000000: 4ab0 42bc 85c5 72bc f7a9 863d 8fa3 143d
00000010: a413 ecbd 6644 8bbd 116d c4bd e11f 2abd
00000020: d3b2 993d 7b1e f53d 0272 3a3d 57b9 653d
00000030: 862e 9a3c 8d3d d4bd 773f 1a3d 544c 96bc
00000040: 9f7e 70bd bdea c3bd 9202 85bd 83e1 293e
00000050: b57a 993c 2caa 6dbd 4b99 f23c e221 973d
00000060: 1d42 a5bc 7643 c8bb 9b77 1d3c b604 c5bd
00000070: 861b efbd c343 f23c 04fc bb3d 4e36 c6bc
00000080: d215 3d3c 47d3 d9bd e586 0b3d 880c 273e
00000090: 8f90 7d3d 7c12 f33d ec49 e33d 269a cdbc
000000a0: d00d 203d 8212 013d 391e 37bc 14d4 21bd
000000b0: 6caf c8bc e311 143c 5d88 173e 1c1c d63d
000000c0: 7711 8a3d 886a 13be e19f 9c3b 2210 5e3a
000000d0: 464f 64bd 83db acbc 4268 fbbd 8d18 1f3e
000000e0: 7706 3dbd 975a 0dbe e44f 24bd 06ec c43c
000000f0: 65a8 033d ba5d 3f3d e3de 59bd 8f40 d13c
00000100: 5829 9abd 1ff0 15bc 8a2d babd f572 de3c
00000110: 83d0 88bd ecbd a8bd 4013 e1bd 7508 8b3d
00000120: 225b 703d d33a 4fbd 49be b03d 6ad9 de3c
00000130: 5acb 0b3d d3dc 66bd c720 3abd 3a5e 49bd
00000140: b40a 4d3d 691c a1bd 3dec 9abd 7b0d fe3d
00000150: 3220 9cbd fc42 143e fd8c 133e b2f7 933d
00000160: 1305 de3c 3c0a 553e e397 1dbc d012 673d
00000170: 7007 00bd 0148 463d cd67 443c a742 a3bd
00000180: fb12 96bc 8813 c03d 4800 03be 0311 163c
00000190: b920 20be 54fb 9fbd a2cb 243d 4d0e 413d
000001a0: e471 63bd af43 1dbe 1345 143d b1cb 00bd
000001b0: a46c fe3c 2731 bf3d 7a06 17be 81b2 653b
000001c0: 2cc4 abbd 2029 073e 19ff 2e3d 4121 1cbc
000001d0: 88a4 833d 092e c03d 0f33 e1bd 4cc9 943d
000001e0: f7ad 633c e6bc 0d3e 796e 86bd 6efc e2bc
000001f0: 601d 84bd d2e0 773d d4a3 bd3c 012a 963c

net.4.weight f4 [1, 128]
-0.059798244 -0.26831904 0.1782283 -0.22337599 -0.21081872 -0.14502586 0.16005234 -0.065107115
-0.12460023 0.5428125 0.26968005 0.14319634 0.12878968 -0.26931483 0.19708315 0.25219655
0.13500239 -0.21904077 -0.015740193 0.17349875 -0.13507266 -0.017578334 -0.08697042 -0.5032954
-0.40042314 -0.043093733 -0.19617155 -0.25111607 -0.39249825 0.06770649 0.1980226 0.3177718
0.13271768 -0.22379394 0.14743829 0.20931166 0.15632813 -0.40538457 -0.2938839 0.24609736
-0.23595017 -0.11130558 -0.052299343 -0.64495105 -0.18922837 0.2417081 0.19882941 0.20460095
-0.5112759 -0.021585315 0.17464083 -0.07415895 -0.12398408 0.049765047 -0.15277563 -0.36063257
-0.067918114 0.3688663 0.06499117 0.15834838 0.17641945 0.2069234 0.071931854 -0.17966655
-0.15190603 -0.15071118 0.19297811 -0.08653728 0.6543374 0.3228257 -0.72638994 0.27371946
-0.32195428 0.43826824 0.1439381 0.17114158 0.28826737 0.11915034 0.00021800274 -0.08520696
0.057156157 0.23620172 0.05544888 0.06315685 -0.17897944 -0.1922349 0.17474028 0.18352027
0.15093616 0.47482497 -0.25861016 -0.074748695 0.29961792 0.17523956 0.16759714 -0.31169376
-0.0386513 -0.64187866 0.0026755768 0.13369833 -0.50726557 0.32740852 0.15988408 0.024800934
0.18059053 -0.84223646 0.1958699 -0.26521608 0.037403103 0.16368409 -0.18569335 -0.033217758
-0.0004462159 0.15574847 0.11802153 0.20328821 0.07131737 -0.13204779 0.12614624 0.1061136
0.13997333 0.24590002 0.0018028419 -0.17144647 0.14436328 0.22762549 0.0005224687 0.15685289
00000000: 01ef 74bd 1d61 89be 7b81 363e adbc 64be
00000010: dde0 57be a981 14be c3e4 233e e156 85bd
00000020: 682e ffbd c3f5 0a3f 8113 8a3e 10a2 123e
00000030: 71e1 033e a2e3 89be 2ad0 493e e81f 813e
00000040: 113e 0a3e 394c 60be 94f1 80bc a8a9 313e
00000050: 7d50 0abe 7000 90bc 8c1d b2bd f8d7 00bf
00000060: 4304 cdbe 0e83 30bd 32e1 48be 4992 80be
00000070: 88f5 c8be b3a9 8a3d 70c6 4a3e fcb2 a23e
00000080: 25e7 073e 3d2a 65be 10fa 163e cc55 563e
00000090: 7b14 203e 918e cfbe f377 96be f200 7c3e
000000a0: ec9c 71be 2ef4 e3bd d637 56bd 831b 25bf
000000b0: 15c5 41be 5482 773e f099 4b3e e982 513e
000000c0: fae2 02bf b0d3 b0bc 0cd5 323e a6e0 97bd
000000d0: 5eeb fdbd 6fd6 4b3d 3771 1cbe d5a4 b8be
000000e0: a718 8bbd 0bdc bc3e 171a 853d 1426 223e
000000f0: 4da7 343e bae3 533e 0251 933d 82fa 37be
00000100: 418d 1bbe 0854 1abe 0e9c 453e 753a b1bd
00000110: a882 273f 6949 a53e b1f4 39bf f524 8c3e
00000120: 31d7 a4be b264 e03e 8264 133e bd3f 2f3e
00000130: c897 933e 1805 f43d aa97 6439 fd80 aebd
00000140: 931c 6a3d ddde 713e 5d1e 633d 6158 813d
00000150: 6346 37be 3ad9 44be 1eef 323e bdec 3b3e
00000160: 028f 1a3e 421c f33e 8d68 84be d815 99bd
00000170: 8567 993e 0072 333e 969e 2b3e 5396 9fbe
00000180: d350 1ebd 2952 24bf bb58 2f3b 37e8 083e
00000190: 28dc 01bf 17a2 a73e a7b8 233e 542b cb3c
000001a0: b9ec 383e cf9c 57bf 1e92 483e 67ca 87be
000001b0: ff33 193d cd9c 273e 6626 3ebe 580f 08bd
000001c0: 16f2 e9b9 877c 1f3e 46b5 f13d c92a 503e
000001d0: d70e 923d 8937 07be 7b2c 013e 1652 d93d
000001e0: 2b55 0f3e 37cd 7b3e 564d ec3a aa8f 2fbe
000001f0: f8d3 133e a816 693e 48f6 083a 0b9e 203e
