checkpoints/nd/dim_2/width_64/method_wgan-gp.pt (torch, 69975 bytes, 5 tensors)

net.0.weight f4 [128, 2]
00000000: 4110 ca3d e428 453d 8e78 c23e d333 69bf
00000010: bd02 ec3d 07e7 bf3e 3195 f2be 9686 b33e
00000020: 2e3c 003f 5e46 fabe 38f4 6e3e 80a5 b93e
00000030: 2b99 a7bd 4e2c 0dbe ef14 c23b 3e1d d2be
00000040: 51e1 4a3e b4ca e6be 2641 323e d4fd a6be
00000050: 81bf f03e 15e9 17be 7af4 62bd aff7 b73d
00000060: 3824 5c3e d7d8 01bf fa60 dc3b 6037 8bbe
00000070: fa6b 43bf 0258 453e 2ca1 983d 9d94 5ebf
00000080: 4909 803e d7a1 55bf 63a2 d53c 38ff 83be
00000090: 6045 7f3f 5f93 7f3e 3cf6 34be f2b0 b3be
000000a0: e1ac 533e d9ed df3d 7c85 f3bc c6c4 8e3d
000000b0: d012 f33b 228d 053f 8b79 ddbd 5e07 15bd
000000c0: f149 9e3c e41e f7be 2599 8abe 3148 eabe
000000d0: 536d 24bf 0bb9 23be bd57 65bd 66b5 1bbf
000000e0: 20de 9cbd 6476 38be 6bc0 273e 5cea 293e
000000f0: 3489 67bc cf39 3abe 4af8 8cbd 64b7 b33e
00000100: 3837 9ebe 7ff4 9abc 0d85 653e de38 84bd
00000110: f7c6 4f3e 2507 29bf fb7e c23e 22bd b93e
00000120: c883 803e b339 653e aaf8 81be a927 d93c
00000130: 594f 26be df95 c23e 2221 283d f94b 863d
00000140: 0dab acb8 e19e 073b ccd1 a2bb 3e59 e4bd
00000150: 3d57 ce3d d929 ab3e 7ed1 3fbd 68ef 07bf
00000160: c6a5 aebd 6f7c ae3e 5f7e fd3e 8e8d 223e
00000170: 9166 01bc b72b 713d 80dc e4bd 3fae 1abe
00000180: 1ce3 d9be 7bc2 5f3e 9fac 9a3d 0131 3c3e
00000190: e44c 99bd b0fb c9be 0246 00bd c536 62be
000001a0: fdb1 1ebe 4aeb 6c3e 8e48 0d3f e4ab cc3d
000001b0: 7f5a a1bd ad32 603e d103 0abe ecbb 07be
000001c0: 6e15 61bd c221 69be a8af fe3c 2f04 31be
000001d0: cf79 05bd e2cd 263e 9855 d0bf def0 213f
000001e0: 7f69 e83d 622b db3e 2e66 b53e 7cef 2dbf
000001f0: f04f 2b3b 6359 e1bd a2ba e33d 7260 ca3d
00000200: d821 543d 09a6 8c3e db32 4abf d993 c13d
00000210: c03d b53d 37c9 0cbe 5d64 d0ba 09e6 963c
00000220: e159 873e 0522 9dbd 96d0 4f3e 2bc2 6a3d
00000230: e91b 153e 55ca 9c3e 134f 513e 8612 9a3e
00000240: e987 3b3c 58fb 3d3d c175 62be 0993 a9be
00000250: 71b8 f5bc 990b fcbd 151b 27be ca8e ba3e
00000260: eaea 143f 9ee1 693d 6469 193f 800d 9f3d
00000270: 7e7e 893e 3791 d7be c555 38be 5b16 de3d
00000280: d933 9ebd c9ab 9e3e 4a9a 9c3d f07e b23d
00000290: ffdc 01bf b059 75be 46ab ca3b 9cf9 d8be
000002a0: 62af c13d 6a5c b1be 04b3 093d c221 f73d
000002b0: 306d 63be b18b a83e eb2d fb3d f1f2 a03d
000002c0: ab18 cd3b ec01 89be 3f11 5d3d 05d6 6d3e
000002d0: 78ec 5e3e 6c4b edbe 860d f0be a3a0 6bbe
000002e0: 5d5e 86bd a73d 35be e190 8d3f e85b 653e
000002f0: 3f33 283e 4e3d 193d ec7e 7fbe af2a 193f
00000300: 0401 83be 48a3 f43e 1ac3 b83d e797 bebc
00000310: 6b08 9e3d 8b5a 83be a13c 45be 61d2 5b3d
00000320: 284d ef3c 2d41 ea3d 3d4c 8f3e e386 7abe
00000330: 3406 b63d 10db 473c 34e3 ec3b 198b e43d
00000340: f78f bd3d 729a dc3d f99e ea3e ed4b 71bf
00000350: 19a1 023c 2b6d 83bd 06da 3cbf 5458 963e
00000360: 4f3e 28be ded5 7ebe 827f 863e 2d87 19bf
00000370: ab39 1cbe 8d08 a93e 5847 a03e b181 4e3e
00000380: c997 e7bc cf7b 55be d539 44be 2b43 0f3f
00000390: b4d6 a1bf ae6d f6be ffd0 ad3d 03e3 0dbe
000003a0: 2ad4 acbc 7965 1fbf 82a9 743e f3a3 853e
000003b0: 913a 773d e911 90be b1e3 213d 0c36 0abe
000003c0: 0242 653e c93a 153e 82a7 283c 8bc9 72be
000003d0: ef0e d03d 45b0 21be c8bd e93e b377 c9be
000003e0: 7287 84be 3f0a d33e 9a0c 94bd 20a8 6bbe
000003f0: d0d9 8b3e cd74 333e 5941 9b3e f9f3 64bc
0.098663814 0.0481347 0.379826 -0.910947 0.1152396 0.37480947 -0.4737945 0.35063618
0.50091827 -0.4888181 0.2333535 0.3625908 -0.08183511 -0.13786432 0.0059229056 -0.41037935
0.19812514 -0.45076525 0.17407665 -0.3261553 0.47021106 -0.14835007 -0.055408932 0.08982789
0.21498191 -0.50721496 0.0067254277 -0.27190685 -0.76336634 0.19271854 0.07452616 -0.86945516
0.25007084 -0.83450073 0.026078409 -0.25780654 0.9971523 0.24958561 -0.17672056 -0.35095936
0.20671417 0.10934038 -0.029726736 0.06971125 0.007418014 0.52168477 -0.10814198 -0.03638398
0.019322367 -0.48265755 -0.27069965 -0.45758203 -0.64229316 -0.15988557 -0.055991877 -0.6082367
-0.076595545 -0.18013912 0.16381995 0.16593307 -0.014131833 -0.18186115 -0.06883295 0.35100853
-0.30901504 -0.018915413 0.22414036 -0.06456159 0.20290743 -0.66026527 0.37987503 0.3627711
0.2510054 0.22385292 -0.25385028 0.02650817 -0.16241206 0.38004968 0.041047223 0.065574594
-8.23346e-05 0.0020694064 -0.0049688574 -0.11149834 0.10075233 0.33430365 -0.046830647 -0.5309968
-0.085277125 0.3407931 0.49510476 0.15874311 -0.007897989 0.05887958 -0.111748695 -0.15105532
-0.42556083 0.21851532 0.07552456 0.18378069 -0.07485369 -0.39449835 -0.031316765 -0.22091205
-0.15497585 0.2313663 0.55188835 0.09993723 -0.07878589 0.21894331 -0.13478018 -0.1325528
-0.054952078 -0.22766784 0.031089619 -0.17286752 -0.03258687 0.16289476 -1.6276121 0.6325816
0.11348247 0.42806536 0.3542952 -0.6794355 0.0026140176 -0.11003377 0.11119582 0.09881677
0.05179009 0.27470425 -0.7898385 0.09452028 0.088496685 -0.13748632 -0.0015899051 0.018420236
0.2643576 -0.07672504 0.20294413 0.05731408 0.14561428 0.30623117 0.2044032 0.30092257
0.011445978 0.04638228 -0.22115232 -0.3311999 -0.029995175 -0.123068996 -0.16318925 0.36437064
0.5817095 0.05709993 0.5992644 0.07766247 0.26854318 -0.42102978 -0.18001468 0.10844108
-0.07724733 0.30990437 0.07646616 0.08715618 -0.5072784 -0.23959994 0.006184968 -0.42377937
0.0945728 -0.3464082 0.03361799 0.12066986 -0.2220962 0.32919076 0.122646175 0.078588374
0.006259044 -0.2675928 0.053971525 0.23226173 0.21769893 -0.46346605 -0.46885318 -0.23010497
-0.06560967 -0.176993 1.1059839 0.2239834 0.16425799 0.03741198 -0.2495076 0.59830755
-0.25586712 0.47780824 0.09021588 -0.023265792 0.07716449 -0.25655016 -0.1926141 0.05366743
0.029211596 0.114382125 0.27987853 -0.24465518 0.08887902 0.012198225 0.007229233 0.11159343
0.09255975 0.107716456 0.45824412 -0.9425648 0.007972979 -0.064173065 -0.7377018 0.29364264
-0.16430019 -0.24886271 0.26269156 -0.59971887 -0.15256374 0.33014336 0.3130443 0.20166661
-0.028270619 -0.2084801 -0.19162686 0.55961865 -1.2643647 -0.48130554 0.084871285 -0.1385613
-0.021097261 -0.6226421 0.23892787 0.26101646 0.060358588 -0.28138664 0.039523784 -0.1349718
0.22388461 0.14573206 0.010293843 -0.23709695 0.10159098 -0.15789898 0.45652604 -0.39349136
-0.25884587 0.41218755 -0.07228966 -0.23013353 0.27314615 0.17525025 0.30323294 -0.013974183

net.0.bias f4 [128]
00000000: f8cc 9a3e 0d2e c1be f747 373f 3c0b 42be
00000010: d942 1cbf ded7 34be 1ad5 513e d74e b03e
00000020: 853f bebc dd63 313f 542a 3d3f dc24 4a3f
00000030: a3e6 adbe 123f 9ebe 043b 4c3c 7e52 87bf
00000040: fa47 67be b50a 863e bcaf 9abf 3a38 ae3d
00000050: cefd 943e 8419 e63c f07f 333f dd1e 833f
00000060: 9259 d1be 80c4 2d3f ce51 bc3f 06c4 c13e
00000070: 35ca 923d a485 c43c 895f ef3d dcc9 36be
00000080: 589e 7a3f 77cc b93e 1a12 b0be 5c2b 32bd
00000090: 541c ae3d 409b a0be 7a61 1b3e e295 2d3e
000000a0: fb8c b3bb 127c 4d3d 65b7 713d 3eba 46be
000000b0: 869a 563f 7632 643f c3e3 c1bc a1f1 11bd
000000c0: 5d10 1d3f 03d0 a0bd e041 283e f294 5b3e
000000d0: 2c52 8cbd 2e17 193e 4512 36be 25f2 923f
000000e0: b29e 2338 26a4 333e 2940 6d3e acc8 4ebf
000000f0: 1736 943d 70e9 febe 2b6d 123e bb0b a63d
00000100: d83c 76be 9381 87bf b445 3c3e 3f08 083e
00000110: 9122 db3e 713b bc3e 6ed8 37be 2a2b e1bd
00000120: 81e1 b13b 9c2b f6bc d136 c13d a2d5 a43c
00000130: 667e 603e ad78 8e3f b054 243f 4766 24be
00000140: 9f19 433f cde9 b93d da4c 08bf f0e6 b53e
00000150: da75 9c3d 12ff 1a3c 701d cbbd 58c6 003e
00000160: 439b 67be 6eb2 993e 5987 44bd bf44 f4be
00000170: 3e2c c2bc b965 f53e 1e2d bd3e a506 7d3e
00000180: 9424 683e 6bc5 0e3e ba0d d53c 2ca2 d73d
00000190: db90 363c ed63 423e 6cba 8fbe bab9 143e
000001a0: 1867 1bbc b52a 5b3d d1a2 193e 9760 643e
000001b0: a579 ef3d 8b4f 74bd 211d a3bb b0fb d43e
000001c0: bf25 a83e 3646 dfbe 90e9 eb3e bd4a 5dbd
000001d0: d722 4cbf a710 c03e 701a 5fbd b63b 08be
000001e0: 297b 16be a998 27be 1542 583e 9513 babe
000001f0: d99c f7bd 595a 8bbe a0a9 b93e 8cd9 af3e
0.30234504 -0.37730446 0.71594185 -0.18949598 -0.610395 -0.17660472 0.20491448 0.3443515
-0.023223648 0.69293004 0.7389271 0.7896249 -0.33965024 -0.30907494 0.012465242 -1.057205
-0.2258605 0.26180044 -1.208488 0.08506818 0.29099888 0.028088339 0.7011709 1.0243794
-0.4088865 0.6787796 1.4712465 0.37844867 0.07167474 0.023989506 0.11688144 -0.1785044
0.97897863 0.36288807 -0.3438881 -0.043498382 0.08501497 -0.31368446 0.15173903 0.16951707
-0.0054794527 0.05016715 0.05901279 -0.19406983 0.83829534 0.891395 -0.023668176 -0.035630826
0.61353093 -0.07852175 0.1643138 0.21443537 -0.068516105 0.14950249 -0.17780407 1.1480147
3.9010025e-05 0.17543086 0.23169006 -0.8077495 0.07236879 -0.49787474 0.14299457 0.08107706
-0.24046648 -1.0586418 0.18385965 0.13284396 0.4279981 0.367641 -0.17953655 -0.10994561
0.0054284935 -0.030050091 0.094342835 0.0201214 0.21923217 1.1130577 0.6419172 -0.1605464
0.7621097 0.09077797 -0.53242266 0.35527754 0.07639666 0.009460228 -0.09917724 0.12575662
-0.22617821 0.30018944 -0.04798064 -0.477087 -0.023702737 0.4792917 0.36948484 0.24709566
0.22670203 0.13942496 0.026007522 0.10528979 0.011142935 0.18983431 -0.28071916 0.14523974
-0.009485029 0.053507525 0.15003516 0.22302471 0.11693124 -0.05964617 -0.0049778377 0.41598272
0.32841298 -0.43608254 0.46076632 -0.054026354 -0.7974066 0.37512705 -0.054468572 -0.13304028
-0.1469542 -0.16366829 0.21118958 -0.36343065 -0.12090463 -0.27217367 0.36262226 0.34345663

net.2.weight f4 [128, 128]
00000000: 6b14 1ebc 5788 fabc 9970 4d3d d765 dc3e
00000010: 4867 ba3c e4e8 d0bd d44e 913e b0cb 483c
00000020: ded3 bc3d ffa0 67bd abe6 303c 9086 203b
00000030: 6454 4abd 8886 e13e ecb2 2e3e fe88 4ebf
00000040: 95b3 b33d ebcb dd3d 00a1 1b3d 7cfc 163e
00000050: da58 1abe 8358 aebd e7b6 79bc a613 92bd
00000060: 21a8 293d e62f 50be 68ff b339 ccfe f93d
00000070: 4612 3a3b ded3 023e 6113 8cbe cb15 97be
00000080: 7055 ad3d 5b86 a23e 2bca 383f 1055 e7bc
00000090: 85ee 9abd 30fb 053e 0d62 fc3c 8a5b 3dbe
000000a0: 320a e8bc 460e 263e a8b9 d33d 9fe1 8bbe
000000b0: 4224 053d 9e21 343e 7816 983e d1cd 083e
000000c0: 1f71 363d 51b9 323e 73fd 22bf 234d b1bd
000000d0: 6e0b 013e 2b9f 77bd ff41 d5bd 5847 983d
000000e0: 17b1 34be 2f9b 6f3c b351 d43d f1f8 5bbd
000000f0: 4b17 763e bafe 0bbe 40d3 e7bd 1999 a73d
00000100: ea74 ab3d 1847 d63e 3c9d 703d 0979 92bd
00000110: c76f 61be cab4 9dbd 1bd6 efbd 4d97 fd3c
00000120: d490 d93c ce9e 853e 89c2 013e ef7f b0bd
00000130: 7430 24be 997a b53c a972 13bb ef48 31be
00000140: f6fa d03d 073c 163e f669 94be 1cd3 0e3e
00000150: 31d2 dabe c03f 463d ab72 c63c 2ab1 12be
00000160: 84e6 e5be 4941 433d 01cd 563e f84e 02bf
00000170: de74 973e 6f8e be3d da3c 6a3b 18ce 453e
00000180: 36b2 febd fa4d 74bd a25a c8be 0fdc 923e
00000190: d9ff 25be d814 7bbc 6083 c4bc 520e 64be
000001a0: 1f34 0abe bf07 453e f0cd b4bc 9f71 68be
000001b0: 231d 023f b35d 93be 964d afba 6e12 c6bd
000001c0: 5f15 3abe 011f 61be fbb9 47bc e6b1 54bd
000001d0: 9743 15bf 0fb8 b1be 2940 d63e 81cb cbbe
000001e0: 072f 573e f1c5 babe ff03 393e b9af bd3c
000001f0: 888c 703d 50c3 18be d446 46bd 4d03 033d
00000200: 05c9 6dbe 7807 fa3d e9d5 663c 7d1f 73be
00000210: 308d 20bf 1960 67bc 9d68 b4be e19d e53d
00000220: a165 cd3e a128 2fbe 6ea0 93bb 7953 34be
00000230: 4e79 033f f788 d3bd 70cc 37be ba88 023f
00000240: d9b7 c9be 2b33 603e eabd febc c62a ddbd
00000250: ef55 b2bb 8759 a2bd f3db f1bd dd71 45bd
00000260: 6a85 0fbd 4e2b 9dbd 78a0 923e 30c9 ffba
00000270: eec4 e93d f819 7f3d dc85 8d3d 8274 083e
00000280: fa28 9e3c 2951 a63c 9733 78be 7697 11be
00000290: e672 cabc 92c3 8cbc 360f cdbb ca2b 003e
000002a0: f9d0 c3bd 8a37 4bbe 3ebc 9a3d 9e41 7fbe
000002b0: b7b8 173e 9fd6 023e 0101 bc3e 2544 ebba
000002c0: 6620 b6be bd01 ca3d 9ca2 a53d 7610 b4bd
000002d0: 0deb 223d d1d1 3cbd 6627 9d3e 7c5c 15be
000002e0: b797 913d 3429 dbbd 1a2b 9cbc c247 b53d
000002f0: 3207 66bd 96a8 8c3e 3054 87be 3151 473e
00000300: 2637 c7bd 234b bc3d 762b 333e f671 4bbe
00000310: ef9e e7bd 6967 9c3d fb2d 263d 96dd 29bd
00000320: 1402 16bb 813f 90bc e585 bcbd 5dff 403e
00000330: c85d 2ebe b044 493d 1e0d dc3d 3a78 7d3d
00000340: 81c3 ffbd 6f18 0cbd e8c6 d2bd 5eef f93d
00000350: 138f d6bc f7ce 643c 38af 083d 8e63 a8bd
00000360: 9834 f13c 6798 cdbd 7a2d f0be 7b85 113d
00000370: 756b e5be 70f0 823e aa95 9d3d c05c 02be
00000380: a1ea 55bd 61d8 4b3c dfec 303e 7ceb 523e
00000390: 7146 19bd 7df7 d43d 3523 0cbd 5928 4c3d
000003a0: 430a 8ebd 3fb6 ab3d 125a aabd eee7 973e
000003b0: c27f 853e 4f05 9c3c 045e 91bc c0df c53d
000003c0: 6c05 a2bc 9d60 94bc 85dc ca3c 4729 bc3d
000003d0: cb5b d3bd dc8a 223d bb1f 13be f27b 123d
000003e0: 9258 1fbc 883f debc 347b 933c f97c abbe
000003f0: cd14 26bd f14d 00be 7ef9 f73b 3143 88bc
-0.009648423 -0.03058259 0.05015621 0.43046448 0.022754326 -0.1020067 0.28380454 0.012255594
0.09220098 -0.056550022 0.010797183 0.0024494268 -0.049396887 0.44047952 0.17060441 -0.80677783
0.08774487 0.1082991 0.03799534 0.14744753 -0.15072957 -0.08512976 -0.015241361 -0.07132654
0.041420106 -0.20330772 0.00034331833 0.12206802 0.002839224 0.12776133 -0.27358535 -0.29508814
0.084635615 0.3174313 0.72183484 -0.028238803 -0.07565025 0.13084102 0.030808473 -0.1849195
-0.028325174 0.16216382 0.103381455 -0.27320573 0.03250528 0.17590949 0.29704642 0.13359763
0.044541474 0.17453505 -0.6366798 -0.08657291 0.12602016 -0.06045453 -0.104129784 0.07435483
-0.1764568 0.014624401 0.103671454 -0.053704206 0.24032323 -0.13671389 -0.113195896 0.08183498
0.08371909 0.41851115 0.0587437 -0.07151992 -0.22015296 -0.077004984 -0.11710759 0.030955935
0.026558317 0.2609772 0.12671866 -0.086181514 -0.16034108 0.022153186 -0.0022498763 -0.17312978
0.10204117 0.14671336 -0.28987092 0.1394772 -0.42738488 0.04840064 0.0242246 -0.14325395
-0.44902432 0.047669683 0.2097664 -0.50901747 0.2958135 0.09304511 0.0035741837 0.193169
-0.12436335 -0.059644677 -0.39131647 0.28683516 -0.1621088 -0.015324794 -0.023988426 -0.22271088
-0.13496445 0.19241236 -0.022070855 -0.22699593 0.5082571 -0.28782424 -0.0013374563 -0.09671484
-0.18172215 -0.21984483 -0.012190337 -0.05192747 -0.5830626 -0.34710738 0.41845825 -0.398037
0.21014033 -0.36479142 0.1806793 0.02315508 0.05872777 -0.14918256 -0.04840739 0.03198557
-0.23221214 0.12208456 0.014089086 -0.2374248 -0.62715435 -0.014122033 -0.35236064 0.11211754
0.401166 -0.17105342 -0.0045052087 -0.17609967 0.5135697 -0.10328858 -0.1794908 0.5098988
-0.39398077 0.21894519 -0.031096417 -0.10799174 -0.005442373 -0.07927232 -0.1180953 -0.04820429
-0.035039343 -0.07674275 0.28638053 -0.0019514915 0.114145145 0.062280625 0.06910297 0.13325694
0.019306649 0.020302372 -0.2423843 -0.14217934 -0.024712991 -0.017183099 -0.006257917 0.12516704
-0.09561343 -0.19845405 0.075554356 -0.24927375 0.14816557 0.12777184 0.36719516 -0.0017949386
-0.35571593 0.09863613 0.08087656 -0.08792202 0.039774943 -0.046098534 0.3069412 -0.14586061
0.071090154 -0.10701218 -0.019063521 0.08851577 -0.056159206 0.2747237 -0.26431417 0.19464566
-0.097273156 0.09194019 0.17497048 -0.19867691 -0.11309611 0.076369114 0.040571194 -0.041471086
-0.0022889422 -0.017608406 -0.09205226 0.18847413 -0.17027962 0.04913777 0.107446894 0.061882235
-0.12488461 -0.03420299 -0.102918446 0.12203859 -0.02619127 0.01396536 0.033370227 -0.082221135
0.029444024 -0.10038834 -0.46909696 0.035527688 -0.44808546 0.25574064 0.07694562 -0.12730694
-0.052225713 0.0124417255 0.17277859 0.20597643 -0.037420694 0.10398767 -0.034213264 0.049843166
-0.06935551 0.0838437 -0.08317961 0.29669136 0.26074034 0.0190455 -0.017745025 0.096618176
-0.019777976 -0.018112475 0.024763355 0.091875605 -0.103202425 0.039683208 -0.14367573 0.035762735
-0.009725707 -0.027129903 0.018003084 -0.33493784 -0.04054718 -0.12529732 0.0075675836 -0.016633602

net.2.bias f4 [128]
00000000: f4e8 51be 15fb 873d 4bbf 46bd d9f9 c63d
00000010: c415 01be 4d30 90be fa57 99bd 3fa7 0c3c
00000020: d696 2fbe 32dd 25bc 583f b03c c74d cebd
00000030: 8be4 8fbe f07c 50be 806c a7bc 296d 59bd
00000040: 2b38 afbc d9d1 7e3d 3499 e73d b010 7bbd
00000050: 45a2 95bc b100 25be dd3d 63be a5d3 12bd
00000060: 0114 8bbd 8dbe c1bd 73ad 79be 5db1 34be
00000070: 500e 9dbd 29cf 813d 3b2f cfbd a1a9 a93d
00000080: 154e 14be 9f10 00be 89d4 0bbe bc31 4b3e
00000090: 936f 523e 14fa 2dbe 2256 87bc 236b d13c
000000a0: f12a 7f3d f3e1 43bd abd7 9abd ca1a 2ebe
000000b0: 9a70 33bd 11ce 913d 5949 8dbd a645 a2bd
000000c0: 02c9 e2bc 132b f1bd 714c e0bd efea aebd
000000d0: 321c 45be dce8 03bd 8aa3 1dbd 695d 6b3f
000000e0: c4d7 a3bc c53f 56be 2cf1 e0bd e368 b2bd
000000f0: 680f 8e3c 3006 d0bc 4a7e 83bd 0215 a6bd
00000100: c8c8 18be 5fa1 1c3c d14f f1bb 98ed 8abe
00000110: 2e65 93bd 220c dfbe 6a78 a0bd 77d4 f4bd
00000120: 5407 1cbd ae93 d4bd 603e 59bd a922 fdbd
00000130: 62e3 41be 5998 5bbc e3ec 27be 6d08 00be
00000140: f5e5 29bd 6a51 f73d 4857 42be d1fe 6f3c
00000150: d9e2 d73c c95d 433c a5c8 cabc 0fa8 c33e
00000160: f204 e3bd e0ce 13be 4887 01bd 6c09 0abe
00000170: 315f c1b9 fa59 48bc f653 873e 30bf e1bd
00000180: e838 f13c 2652 07be af53 77be d114 b83d
00000190: 7fc3 cfbd 3cdd 09be e4b2 b93d fc1c fbbd
000001a0: b785 9dbd a38c ec3d bbc5 fabd 9b2b f73d
000001b0: b763 133d 3850 913d c7ff adbc d63c a3bd
000001c0: 204d 7cbd 7b2a 133e eddd 8b3d 6eda 0fbe
000001d0: b5c7 5f3f 41aa 2bbd ce7c 23be 3eae 05be
000001e0: 0ee8 e13e a9b1 82bd 4f5b f6bd c996 e0bd
000001f0: c964 41bd 990e fa3d 68ad c7bd 23cf a6bd
-0.20499021 0.06639687 -0.048522275 0.097156234 -0.12605959 -0.2816185 -0.07487483 0.008584796
-0.17147383 -0.010123538 0.02151458 -0.100734286 -0.28104052 -0.2036016 -0.020437479 -0.05308262
-0.021389088 0.062211845 0.11308518 -0.06129521 -0.018265853 -0.16113545 -0.22191568 -0.03584637
-0.06790925 -0.09460173 -0.24382572 -0.17645784 -0.076687455 0.06338341 -0.1011643 0.08284307
-0.14482911 -0.1250634 -0.13655294 0.19843191 0.20550375 -0.16989928 -0.016520564 0.025563782
0.06229681 -0.047822904 -0.07560667 -0.17002407 -0.043808557 0.07119382 -0.068987556 -0.07923441
-0.027683739 -0.11775794 -0.1095208 -0.08540904 -0.19249037 -0.032204494 -0.03848604 0.9193941
-0.020000346 -0.20922764 -0.109835 -0.08711412 0.01734133 -0.025393575 -0.06420572 -0.08109476
-0.14920342 0.009559958 -0.007364251 -0.27134395 -0.07197033 -0.43563944 -0.07835467 -0.11954587
-0.038092926 -0.1037973 -0.053038 -0.123601265 -0.18934396 -0.013403022 -0.16398959 -0.12503214
-0.04147907 0.120760754 -0.18978608 0.014648155 0.026353287 0.011924216 -0.024753878 0.38214156
-0.110849276 -0.14434385 -0.031623155 -0.13480157 -0.00036882752 -0.012228483 0.26431245 -0.11022794
0.02944608 -0.13214931 -0.24153017 0.089883454 -0.1014471 -0.134633 0.09067324 -0.12261388
-0.0769152 0.11550262 -0.12244745 0.12068864 0.035983767 0.07095379 -0.021240128 -0.07970588
-0.06159699 0.14371674 0.06829438 -0.14048168 0.87414104 -0.041910414 -0.15965578 -0.1305475
0.44122356 -0.06381542 -0.120291345 -0.1096626 -0.047215257 0.122098155 -0.097498715 -0.08144977

net.4.weight f4 [1, 128]
00000000: 8475 993d 57a7 a5bc d859 a33d ee45 c23d
00000010: 59cf 6dbd 35db 973d eee8 fbb9 3ae9 75be
00000020: 99bf 993f 819d 663e a916 483d 613c 14b9
00000030: 0c82 a3bd a8ba a7bd 4713 263a 31e3 e4bc
00000040: 76e7 12ba 6d59 8dbe b8c0 24ba 66b8 1bbd
00000050: 3660 033a efc8 c039 0853 523f 01b4 c6ba
00000060: fa48 0b3e 46c8 033e 3439 b0be 0455 b339
00000070: 2f8e 2cba 9ba3 bb3c 1d20 4e3a b821 d93c
00000080: 6f7a 773d 7362 2539 559a a2bd 0a0b 5a3d
00000090: 4d7d 64bf bd7f 953d 9765 e83d a649 b4b9
000000a0: 3d8c 73bd 946a 233d d7e3 113a b4ab ce3c
000000b0: 360a 8d3e 0464 8bbd 47b4 94b9 37d7 083e
000000c0: 7189 a1bd b618 90bf 64a9 8bbd 1d05 cd3a
000000d0: f735 22bd c76a 88b9 3018 fd3c 4861 823d
000000e0: 617a 803f 14e1 2cbd 2296 45bb e8d1 53bd
000000f0: 7415 9a3d 6a8d 43bd 7d8c 8cbd d69f 53ba
00000100: 9213 ae3c 7377 343d de65 d13d 6177 8dbd
00000110: a20c 39bd ec41 f1bd 7b18 9f3d aada edbb
00000120: 237f 80be f80b 86bb 8e79 313e 642e 8d3d
00000130: 4376 1fbd 67dd 7c3d 646c c33e f86e 6bbf
00000140: 8007 c83d ca26 953b dace 143e 5ff4 193e
00000150: 5a54 8bbe ead6 a3bd 5ed4 b1bd 6dce 103e
00000160: e5de f3bc abb4 b03d 463c 2ebd 87ae 813d
00000170: f09b dcbf ba5f a939 37b3 963e 43d1 2fbd
00000180: 7dbc d63d 1f81 2e3b e6f2 a83c de51 273a
00000190: d0db 483b 1831 f93c f4cb ba3d 762a ad3a
000001a0: c7f3 2c3d 94c8 863d 0e97 8e3e fce0 d0bd
000001b0: 0e42 dbb9 c403 cab9 8904 60be c49d ebbd
000001c0: e0e5 45bc ad90 87ba 73c7 e33c c28f fc3d
000001d0: 9d8c 573e f97c a8b9 f386 3a3d d594 3db8
000001e0: cabf 163e 5687 d33d 7c8a 28be 17d1 2c3a
000001f0: 0144 ec39 f9be 8fbe e294 c0bd 7cd6 8538
0.074931175 -0.020221395 0.07976121 0.09485994 -0.05805907 0.07414857 -0.00048047997 -0.2401475
1.2011596 0.2252102 0.048849735 -0.00014136873 -0.07983789 -0.08189899 0.000633527 -0.027940365
-0.00056039484 -0.2760729 -0.0006284821 -0.038017653 0.000501159 0.000367708 0.82157946 -0.0015159847
0.13602057 0.12869367 -0.34418643 0.00034204882 -0.00065824663 0.022905162 0.00078630616 0.026505336
0.060419496 0.00015772301 -0.07939593 0.053233184 -0.89253694 0.07299755 0.11347502 -0.00034387148
-0.059459914 0.039896563 0.0005565262 0.025228359 0.27546853 -0.06806186 -0.00028363077 0.13363348
-0.07887543 -1.1257541 -0.06819418 0.0015641783 -0.039602246 -0.00026019497 0.030895323 0.06366211
1.0037347 -0.04220684 -0.00301493 -0.051713854 0.07523623 -0.047742285 -0.068627335 -0.00080728286
0.021249566 0.04405923 0.10224508 -0.06907535 -0.045178063 -0.11780152 0.07768341 -0.007258733
-0.25096998 -0.0040907823 0.17331526 0.06893614 -0.038931143 0.061734583 0.38168633 -0.919662
0.097670555 0.004551743 0.14532033 0.15034626 -0.27212793 -0.07999976 -0.08683084 0.14141245
-0.02976937 0.0862821 -0.04253795 0.063321166 -1.7235088 0.00032305514 0.29433605 -0.042924177
0.1048517 0.0026627255 0.020623636 0.00063827436 0.0030648597 0.030418918 0.09120932 0.0013211507
0.04222467 0.06581226 0.2784962 -0.10199162 -0.0004182015 -0.00038531248 -0.2187673 -0.11504701
-0.012078732 -0.0010342799 0.027805066 0.12332107 0.21049733 -0.0003213657 0.045538854 -4.5199722e-05
0.14721599 0.10328548 -0.16459078 0.0006592436 0.00045064095 -0.28075388 -0.09403397 6.381885e-05
