benchmarks/nd/dim_32/width_16/deg_8_seed_987.pt (torch, 3111 bytes, 2 tensors)

net.centers f4 [16, 32]
2.4371388 -1.3890097 1.6204808 -0.23724735 -1.8674004 -0.5377817 -1.6789323 1.8358982
-1.2659941 2.2061262 -1.6014594 -2.03279 -2.1216736 2.3060238 1.9222794 -1.5785573
-0.71395457 2.0415535 0.6999013 0.11901051 -1.7105725 -2.483355 0.92674077 0.00073105097
-2.3984816 0.7653469 -0.060067177 0.09825617 2.4216354 1.8106765 -1.8131282 -1.0350881
-1.139643 -1.1951945 -0.23641378 0.87045014 -0.7490918 0.5064976 -0.62939376 -0.47908008
-2.0314183 -0.11364013 0.021915436 0.41998863 -1.2506459 1.554831 0.11395246 1.0937486
-2.3022275 -1.7139449 -1.6030496 1.9292653 1.1818256 -0.71394265 1.3234963 -1.1070651
-1.5473161 -1.548577 0.36586672 0.24572462 1.4739659 2.068466 -0.30346036 0.11909962
1.5189767 -0.28417587 -0.05442202 -1.1383352 -0.17298937 0.40103495 -1.4624172 -0.42474985
-0.8110112 -1.5526158 0.3750196 -0.51706105 -2.1585784 -1.739758 0.6457871 0.5999848
0.57982475 -0.055590868 -0.03184676 1.8980861 1.9749882 -0.1450178 -0.6796649 -1.9881111
0.44156313 0.288212 -2.2459579 -1.9458109 -2.2510295 -1.3569134 -0.7305482 -2.390781
-1.8341708 1.6786766 0.8785218 0.3621173 2.490233 -0.20122558 1.311245 0.9776202
-1.4454255 0.30739486 1.0302064 -0.5510801 0.90789884 1.9345269 2.331195 -1.5650558
-0.06839454 -1.3757167 1.5877855 2.1922717 -2.0843318 -1.9126928 -1.046434 2.29866
0.54843396 0.1871106 -2.416956 0.9548789 -1.4366617 -1.0749209 1.5457056 -0.8081892
-0.16034007 -0.95673203 0.7507828 0.8229533 0.78797877 -1.7218485 -1.3962704 1.9924331
-0.30824512 0.7534638 -0.6757593 0.35570562 -0.5266547 -1.2858126 1.745719 -1.1745137
2.3390331 1.9158226 2.1728673 -1.1050799 1.4831343 -0.6267518 -1.7452297 0.3319165
-0.5190462 -0.28986245 2.171372 1.9286666 1.9473848 -1.2359959 -0.43907017 0.45048743
0.67855537 -2.3280475 2.3212047 0.9704137 0.6096333 -1.7829845 0.51896334 1.7739892
2.3299642 2.1748676 1.1522338 -1.3793621 -1.8952167 1.7379775 -1.7680722 1.9194496
2.1398516 -2.2970893 0.25745183 -2.4019995 -2.360809 -2.176595 -1.4678082 1.2038622
-0.70453763 1.7585993 -1.5215585 0.07625252 1.9311819 1.6352016 -2.2500875 -1.8734157
0.8193183 1.9865245 2.3718772 -1.5309951 0.82776695 1.6713285 2.4871135 0.5688998
0.09700477 -0.24506241 -2.3674111 -0.5004552 -0.15210867 1.6281984 -1.789701 -2.2471664
0.9223747 -0.3170818 0.9367925 1.0357144 -2.2705631 2.4961305 0.549058 -0.2778852
2.3222387 -0.8361882 -0.84495664 -2.0322318 2.2190013 1.331279 1.5449554 1.1926287
1.0177209 -2.4948053 -1.0307643 -1.3991946 -1.3842914 0.05303383 1.2934196 -0.9577325
-0.6484023 0.4144433 2.3669207 0.5876583 1.4058771 -0.37075877 1.1416215 -1.2973988
-0.1691407 1.7484751 0.21861792 -1.5319967 0.5769238 1.0359854 -1.1895504 1.6333264
0.6257564 0.5038479 -0.42221367 1.2006984 -2.05946 1.6329727 -1.1339929 0.3285563
00000000: 15fa 1b40 12cb b1bf ea6b cf3f f8f0 72be
00000010: fa06 efbf 10ac 09bf 41e7 d6bf b6fe ea3f
00000020: 180c a2bf 2c31 0d40 9ffc ccbf 3b19 02c0
00000030: 80c9 07c0 e595 1340 400d f63f 2a0e cabf
00000040: bac5 36bf d0a8 0240 bb2c 333f c8bb f33d
00000050: 0af4 dabf 4aef 1ec0 e23e 6d3f 00a4 3f3a
00000060: b980 19c0 c6ed 433f 0009 76bd 883a c93d
00000070: 13fc 1a40 3fc4 e73f 9614 e8bf c47d 84bf
00000080: d2df 91bf 22fc 98bf 7416 72be d2d5 5e3f
00000090: 7bc4 3fbf d4a9 013f f31f 21bf fc49 f5be
000000a0: c202 02c0 28bc e8bd 0088 b33c c008 d73e
000000b0: 2a15 a0bf b404 c73f e85f e93d f4ff 8b3f
000000c0: b257 13c0 8c62 dbbf bb30 cdbf 2af2 f63f
000000d0: 1046 973f f2c4 36bf 5468 a93f 4fb4 8dbf
000000e0: 740e c6bf c537 c6bf e252 bb3e 3c9f 7b3e
000000f0: eaaa bc3f bf61 0440 285f 9bbe 80ea f33d
00000100: d46d c23f 807f 91be a0e9 5ebd f8b4 91bf
00000110: 2024 31be 7454 cd3e 7d30 bbbf d078 d9be
00000120: 6e9e 4fbf 1dbc c6bf 9202 c03e 1d5e 04bf
00000130: 2626 0ac0 64b0 debf 4e52 253f 9b98 193f
00000140: 656f 143f 40b3 63bd c071 02bd 7cf4 f23f
00000150: 6acc fc3f 8c7f 14be 85fe 2dbf 6d7a febf
00000160: 9014 e23e 8690 933e c6bd 0fc0 5510 f9bf
00000170: de10 10c0 57af adbf 3505 3bbf 8e02 19c0
00000180: 1cc6 eabf e0de d63f cee6 603f 7067 b93e
00000190: fa5f 1f40 140e 4ebe e0d6 a73f 5145 7a3f
000001a0: b403 b9bf dc62 9d3e cedd 833f 9613 0dbf
000001b0: 0f6c 683f 949e f73f 4d32 1540 c053 c8bf
000001c0: 7012 8cbd 7c17 b0bf 8e3c cb3f 2e4e 0c40
000001d0: b165 05c0 1ed3 f4bf 8df1 85bf 3f1d 1340
000001e0: 2b66 0c3f ec99 3f3e 68af 1ac0 f272 743f
000001f0: 88e4 b7bf 0297 89bf aed9 c53f 7de5 4ebf
00000200: 3030 24be 64ec 74bf 4d33 403f 11ad 523f
00000210: fab8 493f 8865 dcbf fdb8 b2bf 0c08 ff3f
00000220: 4ed2 9dbe 01e3 403f 90fe 2cbf 0c1f b63e
00000230: d8d2 06bf 8295 a4bf b873 df3f 7756 96bf
00000240: b8b2 1540 ad39 f53f 4210 0b40 4273 8dbf
00000250: 58d7 bd3f ce72 20bf b063 dfbf f6f0 a93e
00000260: 36e0 04bf da68 94be c2f7 0a40 8cde f63f
00000270: e843 f93f 1d35 9ebf cecd e0be 4aa6 e63e
00000280: ceb5 2d3f bbfe 14c0 9e8e 1440 086d 783f
00000290: ee10 1c3f d638 e4bf c8da 043f 1412 e33f
000002a0: 221e 1540 0831 0b40 667c 933f f08e b0bf
000002b0: 7696 f2bf 0c76 de3f 3150 e2bf 86b0 f53f
000002c0: 54f3 0840 8303 13c0 bad0 833e 5cba 19c0
000002d0: 7f17 17c0 554d 0bc0 24e1 bbbf 2818 9a3f
000002e0: 945c 34bf c819 e13f 6ec2 c2bf 482a 9c3d
000002f0: f830 f73f 494e d13f 6f01 10c0 16cc efbf
00000300: d8be 513f 6f46 fe3f d6cc 1740 a6f7 c3bf
00000310: 89e8 533f 18ee d53f de2c 1f40 6ba3 113f
00000320: 70aa c63d a4f1 7abe aa83 17c0 d51d 00bf
00000330: 60c2 1bbe ce68 d03f ec14 e5bf 93d1 0fc0
00000340: c020 6c3f 8c58 a2be a2d1 6f3f 4a92 843f
00000350: e850 11c0 9ac0 1f40 118f 0c3f f846 8ebe
00000360: 8f9f 1440 6e10 56bf 144f 58bf 1610 02c0
00000370: 1e04 0e40 5a67 aa3f 19c1 c53f 0fa8 983f
00000380: ae44 823f e4aa 1fc0 16f0 83bf cf18 b3bf
00000390: 7630 b1bf 003a 593d c68e a53f f52d 75bf
000003a0: b1fd 25bf ea31 d43e a17b 1740 c670 163f
000003b0: c8f3 b33f 18d4 bdbe a720 923f 2a11 a6bf
000003c0: 3833 2dbe 08ce df3f 60dd 5f3e 7818 c4bf
000003d0: 47b1 133f 2b9b 843f 3043 98bf d710 d13f
000003e0: 9231 203f 2dfc 003f 642c d8be 7cb0 993f
000003f0: 31ce 03c0 4005 d13f ae26 91bf 8838 a83e

net.bias f4 [16]
0.10021142 -0.039070446 -0.28230774 0.04445311 -0.007601663 0.00083826965 -0.059165128 -0.06317162
-0.014812392 -0.03470217 0.08272631 0.010375696 0.036066864 0.060803976 -0.009184258 -0.0129763475
00000000: a53b cd3d 5508 20bd a48a 90be 7714 363d
00000010: 5f17 f9bb 53bf 5b3a 2257 72bd 1f60 81bd
00000020: adaf 72bc dd23 0ebd 696c a93d d3fe 293c
00000030: d9ba 133d 970d 793d 9279 16bc bf9a 54bc
