checkpoints/nd/dim_2/width_4/method_3p-wgan.pt (torch, 69975 bytes, 5 tensors)

net.0.weight f4 [128, 2]
00000000: a552 d63e 86fd 273e f87f 063f bffd b63d
00000010: bdc8 a9be 6fbc d7be 92d3 eb3e 6524 873e
00000020: 74d4 963e d24b 1dbf 9300 ffbe 9f1d 06be
00000030: 72fd 793e 89c6 12bf 26a5 f13e f3a9 1b3d
00000040: eed4 063f 6dfa 40bd 5b84 40bf 530d 36bf
00000050: 5ae0 6d3d 1da1 4b3d b7c7 003f 00f0 fe3a
00000060: c4ac a83e f6e0 fdbe dbdd c03d 1bf4 143f
00000070: 4c4a 1b3f fbaa 7b3e 26ea c8bd 7299 953d
00000080: fbc9 9d3e 1f5c c73d cbec 023d 5875 c5be
00000090: 6523 acbd 3e62 423f 518d 0bbf b7a7 69be
000000a0: 4e01 3d3f 1b29 2abf 9992 2dbf 63b9 08bd
000000b0: eb72 b33c 8b4d 983e 229e f6be fd1f 31be
000000c0: 3c7c b5be bead c0bd 4058 86be 3281 193e
000000d0: 5e8e 7c3e 9a65 913e 875d 083f 66ab 203e
000000e0: e891 00bf b0c0 793e dd92 ad3e 6d29 9c3e
000000f0: 4c1a 25bf 506c 03bf 1e98 613e 7518 22bf
00000100: 5b93 e5bd bd4d 11be 10bb 9d3d 0ae9 62be
00000110: 87da d7be ba56 87be dea0 efbe c7b1 cc3d
00000120: 1828 153f e578 40bf 410c 04bf 5f60 2a3f
00000130: e783 2c3f 880b 013f 8142 ec39 61ab 0e3e
00000140: 86e3 843d 0325 9cbd 90b5 8bbe 186d 3ebf
00000150: 3732 483e de0c 803e dcea 24bf 1875 acbe
00000160: 4621 083f 8ab3 2fbf efd1 023f 615d 4e3e
00000170: 6590 063f d780 a7be 2f83 43b9 b21c e1be
00000180: 12a2 273f cdeb 3e3f ed71 9abe 0220 74be
00000190: c005 62bc 9fb5 91be 5d7f c43e 7d36 07bf
000001a0: 7173 c6be 069d 99be 2d7d 05be 99f0 403f
000001b0: 44c9 42bd f3cc d9be 8834 d0be 02ea c5be
000001c0: 6e59 2abe ef92 abbe f611 423e 2e35 cb3e
000001d0: 492d e23e 4273 823d a986 39be b16d d63e
000001e0: d398 243f 1d56 27bf 881e 273f 5e91 ff3d
000001f0: 172f 543e deec 39bf 1a65 d6be 4af4 56be
00000200: d5bf 013f 54c3 adbe c99a 113f ae37 c4be
00000210: 8565 d53e 1d92 803e 0d17 c1be 8863 273e
00000220: 7d22 3bbf a0b1 24bf 5655 f0be 3aeb 1a3f
00000230: 1785 2dbf 0fdb 18bf 4304 2f3f 22d9 e1bd
00000240: e223 583e 9138 59be 80ec 853e 9d2b 45bf
00000250: 6594 01bf e397 74be dff3 ec3e 1d0f 343f
00000260: 86c9 bc3e fd91 a73e af35 c6bd 9bdc a23e
00000270: 5d84 dbbe 4fd9 093f 9ca0 1ebf f0c6 38bd
00000280: ea59 a7be 59c5 f9be 0f53 9c3e 8a8c b9bd
00000290: c5ae 11bd 5ca6 32bf 7003 adbe 2201 173f
000002a0: b739 03bf 47ff 2bbe 1249 cc3e 4fec 2ebe
000002b0: 466d d4be 9988 05bf cdc0 07bf 7e60 863e
000002c0: b2e3 b23e 0db3 39bc 8fa6 343e 8d51 52ba
000002d0: a390 953e d93b 1cbf ba99 b9bd 3aa0 39bf
000002e0: f7e2 25bf b7b5 9fbe 4922 9a3e d43a 38bf
000002f0: 91d2 c43e cdaf 1f3d e16e 9bbe 0ef1 c93c
00000300: 3086 20bf dae1 1c3f 87cd 39bf 4b69 923d
00000310: beff 06bf 8aa4 a0be 2719 8b3e f707 02be
00000320: f3b1 303f 25c9 06bd 2827 76bd 6a84 313f
00000330: 7790 503e f429 e33e bf15 ccbe 261c 7dba
00000340: 7332 2fbf 358e 863d e8e2 8f3c a0a4 1b3e
00000350: a21d 0cbf 7096 733e 2435 b33e 2d34 33bf
00000360: 6a8e 0b3f db44 01be 0293 8c3e d417 23bf
00000370: 3946 273e 22bf 07bf 28e7 63be b701 d8be
00000380: 3a7a babc 8997 87be add7 94be a179 583e
00000390: 062f c53c 34b3 acbe 56fb adbd 4f66 a03e
000003a0: 277a 2d3f e803 2c3e 40d8 4f3f 6967 99be
000003b0: e47e 1f3f 2173 b5be 92c5 323f aa1a cebd
000003c0: cfce 113f 076c 383f 52f0 0d3f e429 533e
000003d0: 5eeb 373e 4604 bc3e e94d 35bd 6319 17bf
000003e0: aac9 d3be 41a8 f8be 625b 90be 93b5 8d3e
000003f0: 00e0 65be e504 953e c5f2 2bbe 5e10 e63e
0.41859928 0.16405305 0.52539015 0.08935117 -0.33160964 -0.4213595 0.46059853 0.26394954
0.29458964 -0.6144382 -0.49805126 -0.13097237 0.24413088 -0.5733419 0.4719631 0.038003873
0.52668655 -0.047113825 -0.7520196 -0.7111408 0.058075286 0.049714196 0.5030474 0.0019450188
0.3294431 -0.49585694 0.094173156 0.58184975 0.60660243 0.24576943 -0.09810285 0.07304658
0.3081816 0.097343676 0.031964105 -0.3856609 -0.084051885 0.75931156 -0.54512507 -0.22817884
0.73830116 -0.6646897 -0.67801815 -0.033379924 0.021905383 0.2974666 -0.4816752 -0.17297359
-0.35446346 -0.09408139 -0.26239204 0.1499069 0.24663684 0.28397828 0.5326771 0.15690383
-0.50222635 0.2438991 0.3390111 0.30500355 -0.6449325 -0.51337147 0.22030684 -0.6331857
-0.112097465 -0.14189811 0.07701695 -0.2215921 -0.4215891 -0.26433355 -0.4680242 0.09994846
0.58264303 -0.7518447 -0.515812 0.665533 0.67388767 0.5040822 0.00045062977 0.13932563
0.06488709 -0.07624247 -0.2728696 -0.74385214 0.19550405 0.25009817 -0.64420867 -0.33683085
0.5317577 -0.6863333 0.51101583 0.20152809 0.5256408 -0.32715484 -0.00018645519 -0.43967205
0.65481675 0.74578553 -0.30165043 -0.23840335 -0.013795316 -0.28458878 0.3837842 -0.5281752
-0.3875995 -0.30002612 -0.13036032 0.7536712 -0.047555223 -0.42539176 -0.40665078 -0.38655096
-0.16635677 -0.3351054 0.18952164 0.3968901 0.44175175 0.0636964 -0.18117775 0.41880563
0.6429569 -0.65365773 0.6528096 0.124788985 0.20721088 -0.72627056 -0.4187401 -0.20991626
0.5068334 -0.33938086 0.5687681 -0.3832373 0.41679016 0.25111476 -0.377129 0.16346562
-0.730995 -0.64333534 -0.46940106 0.6051518 -0.67781204 -0.59709257 0.6836588 -0.11027743
0.21107438 -0.21212985 0.26156998 -0.77019674 -0.5061706 -0.23886065 0.4627981 0.7033556
0.368725 0.32728568 -0.09678208 0.31808934 -0.42874423 0.5384721 -0.6196382 -0.045111597
-0.32685786 -0.48783377 0.3053212 -0.09060009 -0.035567064 -0.69785094 -0.33791685 0.58986104
-0.5125994 -0.167966 0.39899498 -0.17082332 -0.4148962 -0.52161556 -0.53028566 0.26245493
0.34939343 -0.011334193 0.17641662 -0.0008023016 0.29211912 -0.6102882 -0.09062524 -0.7251011
-0.64799446 -0.31193325 0.30104282 -0.71964765 0.384419 0.038986016 -0.3035803 0.024651077
-0.62704754 0.6128212 -0.72579235 0.07148989 -0.5273398 -0.31375533 0.27167627 -0.12698351
0.6902153 -0.03290667 -0.060095936 0.6934267 0.20367609 0.44367945 -0.3986034 -0.00096553785
-0.68436354 0.065700926 0.017564252 0.15199518 -0.54732716 0.23787856 0.3500148 -0.7000149
0.5451418 -0.12623923 0.27455908 -0.63708234 0.16335382 -0.5302602 -0.22256148 -0.42188808
-0.02276336 -0.264828 -0.29070798 0.21140148 0.024070274 -0.3373047 -0.08495204 0.31328055
0.67764515 0.16798365 0.81189346 -0.29961708 0.62302995 -0.354394 0.6983272 -0.100636795
0.5695619 0.72039837 0.55444825 0.20621449 0.17960879 0.3672201 -0.044263754 -0.5902311
-0.41364795 -0.48565868 -0.2819472 0.27677593 -0.2244873 0.29105297 -0.16791828 0.44934362

net.0.bias f4 [128]
00000000: 2847 043f bbfa b93e 6fc8 813e 74d2 1ebf
00000010: 4815 93be 1147 32bf 04e9 4bbc d66f 433f
00000020: eb0e fe3d d1b1 ddbe bc53 6e3d 5298 56bd
00000030: 9fef fb3e 5997 4f3e 4b30 51bf 1a4d 2b3f
00000040: f340 353f 4be8 ca3e 27d9 43bf 7a98 9f3e
00000050: 12bd 05bf 0934 473f 95c6 2f3f 6edf 1cbf
00000060: 609c 54bd 6cda a5bd 5c87 7ebd 09c6 023f
00000070: 956a 02bf 2a93 93bd 520f cf3e 0a50 813c
00000080: 98a8 24bf e08b d33d d1db 323f f308 383f
00000090: 5e2f 0ebe 5788 fc3d a346 dbbe 33eb 2cbe
000000a0: 7177 f3be d3cc dcbe 70eb 26bf d8d3 2ebc
000000b0: 1fbb 01be be91 6b3e 1b55 46be dcbe 073f
000000c0: 7500 283f 07b7 033f 1986 7f3d 19a0 18bf
000000d0: 180a 97be 6dc7 2cbf 0bc6 d93d 09d7 fc3d
000000e0: a3d2 34bf 6d33 383e c6ca c23e 7f60 3b3f
000000f0: 00f7 a53e aa56 8c3e 567d 29be de24 96be
00000100: 7195 453d 122c e23c 4821 c83e 5c3a bfbe
00000110: 72b0 f03e a9fb e53d 02ac e53e c6ec 14bf
00000120: 6806 19bf c9ef e5be 287b 14bf 6c28 5ebd
00000130: a96a 7abe 1ab0 4a3f c941 32bf 4a37 29bf
00000140: e11c 1e3f 4132 223f 9600 e6be 6c20 90be
00000150: 4442 18bf 7ba3 ba3e a0b4 b9bd f5d4 553e
00000160: 49f6 1c3f 92fa b0bd 7391 593e 41f2 ebbe
00000170: bc85 a13e 8fba a73e 48a9 1c3f 45e3 ef3e
00000180: a4ce c83e 56d4 023f dc7d 743d 155f debd
00000190: 5418 903d 3cc5 b0be d2bb 3ebe 3401 15bf
000001a0: 2aea 93be e077 313f 1cf2 84be 080c 643e
000001b0: c699 ce3e 42cc debe b01f 213f 2cf7 233f
000001c0: 0baf 9ebe db22 0a3f 34ba 5d3d af5d 463f
000001d0: 3a2b c9be a61a 20bf 7a51 1d3f 15ea 10bf
000001e0: 9bc9 d6be 36c4 333f 6e5a a03e 3acf 8bbe
000001f0: e373 a0bd 8c21 a33e b61d 7a3d 5f2b 1c3f
0.51671076 0.36324105 0.2534823 -0.62039876 -0.28727174 -0.6963969 -0.012445692 0.76342523
0.12405189 -0.43299726 0.058185324 -0.052391358 0.49206254 0.20272578 -0.81714314 0.6691452
0.7080223 0.3963035 -0.76503223 0.31171018 -0.52241623 0.77813774 0.6866239 -0.61278427
-0.051906943 -0.08098301 -0.062140808 0.5108343 -0.5094388 -0.07205804 0.40441376 0.015785236
-0.64319754 0.103294134 0.69866663 0.71888655 -0.13885257 0.12330692 -0.4282733 -0.16886596
-0.47552064 -0.43125018 -0.65203 -0.010670625 -0.12669037 0.23004815 -0.19368403 0.53025603
0.656257 0.5145115 0.062383745 -0.5961929 -0.29499888 -0.674918 0.10633477 0.12345702
-0.70633906 0.17988367 0.3804533 0.73194116 0.3241501 0.2740987 -0.16551718 -0.29325002
0.04823822 0.027608905 0.39087892 -0.37349212 0.47009617 0.11229641 0.44857794 -0.5817379
-0.597754 -0.44909504 -0.5800042 -0.054237768 -0.2445475 0.7917496 -0.6963163 -0.6609999
0.61762816 0.6335793 -0.44922322 -0.28149736 -0.59476113 0.3645285 -0.090676546 0.20882018
0.613133 -0.086415425 0.2124689 -0.46083263 0.31547344 0.3275952 0.611958 0.4685308
0.39220154 0.5110525 0.05969034 -0.10857979 0.0703589 -0.34525478 -0.18626335 -0.5820496
-0.2888959 0.6932354 -0.25965965 0.22270215 0.40351695 -0.4351521 0.62938976 0.6404903
-0.30992922 0.53959435 0.054132655 0.774867 -0.39290792 -0.6254066 0.6145245 -0.5660718
-0.41950688 0.7022127 0.31318992 -0.2730654 -0.07834604 0.31861532 0.06106349 0.6100368

net.2.weight f4 [128, 128]
00000000: 1e90 1b3d 99f2 1bbd 2ab2 dd3d 68e9 fe3d
00000010: 8717 bbbd 591f 05c0 b427 c33c 0afc 04bc
00000020: 5688 73bd bbdd 52bf 4dd3 fb3d d282 9f3d
00000030: a337 0cbd 17eb a8bc 6014 013e 97cd 32bd
00000040: c6ba 3a3e a86f 553d 8de8 5b3d 333e cbbd
00000050: 6605 d7bd 5c3a 80bc 5008 aa3d ebc4 0cbf
00000060: 1410 f7bd b8d0 9a3c 68a7 a63d 5ea8 653d
00000070: 5370 9dbd c8fa 0e3d 0ce7 7fbc fa73 d1bd
00000080: 5398 afbc 881e f03d 780b 1a3e 866e d2bd
00000090: 295f cdbd 719f 95bd a549 463d ee22 24be
000000a0: fd7d ed3c b563 be3d 9dcd b6be f29a 3abd
000000b0: 091e 21be 7d06 ec3c 4704 4dbd a803 f0bd
000000c0: 6263 8c3c b9eb 9e3d 5ee4 cabd 2e7d bfbc
000000d0: ccf2 97bf da3e 8abd ef84 fdbd bb26 f4bd
000000e0: cb20 fc3c a345 333e 46ba 4f3c 4229 aaba
000000f0: a3d3 c0bb 9090 a53d 6eae c43c 58c2 65be
00000100: 81b2 1cba 5d38 c83b 0325 543d 4fcb 67bd
00000110: 9529 b93b 2ff3 57bc a7ee 5bbd beee 063c
00000120: f844 9b3d a3fa 3ebe f528 0dc0 1186 9f3d
00000130: e1b4 f6bc edf9 b43b 4835 063c c007 ccbd
00000140: e65b 2d3e 4e54 c0bc fab7 cebe 9459 6e3d
00000150: 7d29 0bbe bd6d d03d 3fe7 b53e 74a9 01bd
00000160: 47ef a83d a958 e1bd f9f4 36bc 86de 77be
00000170: adab 89bd 227a d2bd 03cd c3bc 82a8 113d
00000180: b1a5 863d 3ef1 cfbd 2a31 3bbd 4dc7 06be
00000190: 53b8 41bd 0ba8 dd3d 0417 64bd 01cc 0bbe
000001a0: 0fe8 dfbd 9b19 fb3d e29c 22bd 59d8 5a3a
000001b0: 266b c93d eca7 aabb ba2b e43d 23fc 4a3e
000001c0: 00da acbd 12e4 623d e09e 21be c77c 003e
000001d0: 537d 83bc 6918 a1bb bc29 373d 78a8 7e3d
000001e0: fa13 283d ca1a d53d 71e2 313e 3954 14be
000001f0: c143 323d ffeb 48bd f453 5dbd 331f 813d
00000200: ef79 c43d dfb1 d53c 7ee3 4cbc eb1a 473b
00000210: e98d cebd 62d5 ed3d 3e39 623d c963 cf3d
00000220: 6970 b8bd c0a0 80bd dcbd 263d e9c2 4bbd
00000230: 1387 3bbc b3a2 463d 8a23 51bd c523 6b3d
00000240: 2389 b03c 93f2 c4bd 0abc b13d 2a75 16bd
00000250: 3f25 023c 3604 89bd 4a0f d93c 390d d0bc
00000260: f418 893b 337d fd3c ff72 c6bc c429 93bc
00000270: 2633 9cbd 5e85 7ebb 4134 dc3c c946 b33d
00000280: 3e15 e3bc c2fb b3bd 3e03 b2bd e555 263e
00000290: de0b 4e3c abcc fabb bbfe a73d c171 ae3e
000002a0: 70f5 60bd 062f 923c f418 9e3e 6da5 083c
000002b0: c2bf 163d 8bca 48bd b422 38bd d072 3a3d
000002c0: 5f2b 9a3d 9b86 883c 0f3a 933d f49b 97bd
000002d0: c13b e3bc 898c 45bd dfc3 58bc 75f6 65bd
000002e0: 6ea6 48bd 0161 413c b2f6 923d 7149 883d
000002f0: 59e7 bcbd 5d18 babc 6889 c7bd 01d4 493b
00000300: 1a3f 723b 094e bb3c a531 d63d 61b8 74bc
00000310: 0d92 9bbd 02ce 903d 1b7c b33d 773a 6dbd
00000320: a9a3 94be cef1 81bd faeb 1f3d 3ce1 da3d
00000330: e947 5a3d 7ef6 a43c fd5d 26bd 2207 be3d
00000340: 8a5e a9bc f9e1 783d 87e3 bcbd c293 263c
00000350: 7fa8 f63c b8fe 47bd bbed d1bd 3db8 5e3d
00000360: 3702 ec3d 18e8 003e d824 7f3d 57f4 cfbd
00000370: 5d10 633d bebf 423d eccb bb3d fdba 2a3c
00000380: e838 57bd 020c 963d 8b84 b1bd 4544 923c
00000390: ffa7 bf3b 4330 4fbd 4d99 133e 93c6 683d
000003a0: dcb0 b83d 7ae9 04bc d7b7 19bd 3305 ffbd
000003b0: 5351 e7bd 1f4d e9ba f1b0 513d c7cf 9d3d
000003c0: 16ab a0bd f2f0 943d 9795 8dbc 04c5 bdbc
000003d0: a70f 953c a924 223c f525 9bbc 4ce4 aebd
000003e0: 154b 4b3d 2671 9b3d 17b2 3ebc 8ed6 bebd
000003f0: 8e36 72bb 73a1 073b b2ce 563c 8203 b8bb
0.037979238 -0.038073156 0.10824998 0.124468625 -0.09135347 -2.0800383 0.023822643 -0.008116731
-0.059456192 -0.82369584 0.12296162 0.07788624 -0.034232747 -0.020619912 0.12605429 -0.043653097
0.18235311 0.052108437 0.053688575 -0.09923973 -0.104990765 -0.015652828 0.08302367 -0.5498797
-0.120636135 0.018898353 0.08137399 0.05606877 -0.0768744 0.034907132 -0.015619051 -0.10227199
-0.021434939 0.117245734 0.15043437 -0.10274987 -0.10027916 -0.07305802 0.048410077 -0.1602895
0.02899074 0.09296361 -0.35703745 -0.045557924 -0.15734114 0.028811688 -0.050052907 -0.117194474
0.017137233 0.07759804 -0.09906839 -0.02337512 -1.1870971 -0.06750269 -0.12378871 -0.1192145
0.030777356 0.17507033 0.012678688 -0.0012982266 -0.005884604 0.08084214 0.024008956 -0.22437418
-0.0005977527 0.0061102347 0.05179311 -0.056590375 0.005650709 -0.013180538 -0.053694393 0.0082356315
0.07581514 -0.18650298 -2.2056248 0.07789243 -0.030115547 0.0055229575 0.008191414 -0.09962416
0.16929588 -0.0234777 -0.40374738 0.058190897 -0.13590045 0.10177181 0.3552799 -0.031655744
0.082487635 -0.11003239 -0.0111668045 -0.2420598 -0.06722198 -0.10277201 -0.023901468 0.035561092
0.06574572 -0.10153435 -0.045701183 -0.13161965 -0.047294926 0.10823067 -0.055686012 -0.1365204
-0.109329335 0.12260743 -0.039700396 0.00083482784 0.0983489 -0.005208006 0.11141153 0.19822745
-0.08440018 0.055393286 -0.15783262 0.12547599 -0.01605097 -0.00491624 0.044717535 0.062172383
0.041034676 0.104055 0.17371537 -0.14485253 0.043521646 -0.04905319 -0.054035142 0.06304779
0.095935695 0.026085792 -0.01250541 0.0030381035 -0.10085661 0.11612965 0.05523037 0.101264544
-0.090058155 -0.06280661 0.040708408 -0.049746428 -0.011445778 0.048495006 -0.051059283 0.05740716
0.021549767 -0.0961658 0.08678444 -0.03673283 0.0079434505 -0.06690256 0.026496548 -0.02539693
0.004183883 0.030943489 -0.024224756 -0.017964251 -0.07626943 -0.0038836817 0.026880385 0.087537356
-0.02772009 -0.08788253 -0.08692025 0.16243704 0.012576072 -0.007653793 0.08202883 0.34071162
-0.054921567 0.017844688 0.30878413 0.008340222 0.03680397 -0.049021285 -0.04495497 0.04551965
0.07527804 0.016665747 0.07188808 -0.074027926 -0.027738454 -0.048229728 -0.013230293 -0.056143243
-0.048986845 0.011802913 0.0717596 0.06654633 -0.092238136 -0.022716695 -0.09743005 0.003079653
0.003696388 0.022864358 0.10458688 -0.0149365375 -0.07596216 0.07070543 0.087639056 -0.057917085
-0.29031113 -0.06344949 0.039043404 0.10687491 0.053291235 0.020137068 -0.040616978 0.09278704
-0.020674963 0.06076238 -0.09223085 0.010167064 0.030109642 -0.048826903 -0.102504216 0.054374922
0.1152386 0.12588537 0.062290996 -0.10154026 0.055435527 0.04754614 0.091697544 0.010420558
-0.052544504 0.07326509 -0.08667859 0.01785482 0.005848884 -0.050583135 0.14413948 0.05683
0.09018108 -0.008112306 -0.03752884 -0.124521635 -0.11294808 -0.0017799473 0.051194135 0.07705646
-0.07845132 0.07272519 -0.017283244 -0.023165233 0.01819594 0.009896436 -0.018938998 -0.08539638
0.04963215 0.07589941 -0.01163914 -0.09318267 -0.0036958787 0.0020695596 0.013110803 -0.0056156525

net.2.bias f4 [128]
00000000: 17d4 503c d044 a83d f13c 113d d275 bd3a
00000010: 47ec cdbd 526b d03c f112 b33d ea6e db3d
00000020: d2cb a4bd 31a5 d3bd f120 85bb 1ea5 0e3d
00000030: f02f 9cbd 39b6 613d f0b4 01bd 80f9 953d
00000040: 8ddc 17be a0c7 183b 479d 4f3c c1fa ea3d
00000050: b288 053d 0184 bc3d 8a49 863d 1229 b9bc
00000060: 6412 e5bd 8788 5a3d 371c a0bd 1610 b3bd
00000070: a9c4 6d3d 0ed5 cabc e628 abbd b432 99bd
00000080: b4f8 363d c544 6b3d fc0f 20bd dff9 883c
00000090: 2728 50bd 13cc adbb 8ce4 39bc f950 7dbd
000000a0: c429 a4bd b630 31bd d8dd 1d3d 309f c4bd
000000b0: e1cc 66bd 7a5e c83c 0f56 7f3d 18b2 85bb
000000c0: 00ba f1bd 6c11 a8bc 4332 843d fba8 a5bc
000000d0: 3ad0 3e3d c4bc ffbd a9a2 9ebd ebb9 e7bd
000000e0: 3f7e b93d bb97 4b3d 5994 133e 5cf6 5f3d
000000f0: fc70 2bbd 23e5 88bc 91a8 a13c 479c 1bbc
00000100: 54f7 a7ba 126c 7d3d 71d2 e13d 9582 20bd
00000110: 7a9a abbd 78ec ee3d 5941 a5bd 6043 a23d
00000120: e95e b3bd f5f8 5ebc 3c62 24be 7856 3abd
00000130: 1186 3a3d 92d7 1f3d 084a 86bd a4de 91bd
00000140: 30e4 1ebe 9f2c 68bd 377f f2bd 30d8 d7bc
00000150: dc45 983c 5639 98bd b64d e63d 068f 1b3e
00000160: 5917 a7bd ed5c 22bd 5398 3a3c 8268 b93d
00000170: e7f1 473d f6d8 69bb 508e a23d 9aa6 573d
00000180: 95c3 7c3d 9667 edbd 813a 68bd 757d aebb
00000190: 8c28 203d 75e5 4bbd c1d0 a0bd 987f 10bd
000001a0: 2884 7a3d dfbf a6bc 6a17 893d 34fa afbd
000001b0: 2ce1 6ebd 36f9 013c e93f d9bd bd1c 42bd
000001c0: ebfe a7bc 572c d83c 81f0 033d 5d4b 213e
000001d0: f91a 6dbd 5707 cbbb 3b27 1fbe 16d2 a6bd
000001e0: af06 193d 9fb4 28bd 8478 203d 2d35 473c
000001f0: af00 9abd d15a 32bd 1918 c03b afc4 25bd
0.012745879 0.0821625 0.03545851 0.0014454669 -0.10054832 0.0254418 0.08743847 0.107145146
-0.08046688 -0.10334242 -0.004062765 0.034825437 -0.07626331 0.05510542 -0.031666696 0.07322979
-0.14830227 0.0023312345 0.012671775 0.11473609 0.032601066 0.09204865 0.06556995 -0.022602592
-0.11185148 0.05335286 -0.078178816 -0.087433025 0.058048878 -0.024759796 -0.0835741 -0.07480374
0.044670776 0.05743863 -0.039077744 0.01672071 -0.050819542 -0.0053038686 -0.011345994 -0.0618448
-0.08015779 -0.043259345 0.038541645 -0.09600675 -0.05634773 0.024459112 0.06233793 -0.0040800683
-0.11803055 -0.02051612 0.06454899 -0.020222178 0.0465853 -0.12487176 -0.07745869 -0.11314758
0.09057283 0.04970525 0.14412059 0.054678306 -0.041855797 -0.016710823 0.019733699 -0.009497709
-0.0012814798 0.061870642 0.11026467 -0.039187033 -0.083790734 0.116661966 -0.08069105 0.07923007
-0.08758337 -0.013609161 -0.16053098 -0.04549262 0.045538012 0.039023943 -0.06557089 -0.071225435
-0.15516734 -0.05668318 -0.118406706 -0.026348203 0.018587999 -0.07432811 0.11245291 0.15191278
-0.0815875 -0.039639402 0.011388856 0.090531364 0.04881468 -0.0035682297 0.079373 0.052649118
0.06170996 -0.11592023 -0.05669642 -0.0053250142 0.03910117 -0.049779374 -0.07852317 -0.035277933
0.06116119 -0.020355163 0.06693919 -0.08592644 -0.05832021 0.007932952 -0.10607893 -0.04739069
-0.020507297 0.02638833 0.032211784 0.15751405 -0.05788705 -0.0061959433 -0.15542309 -0.081455395
0.03735989 -0.04118788 0.039177433 0.012158674 -0.07519662 -0.04354364 0.0058622477 -0.040470775

net.4.weight f4 [1, 128]
00000000: cc98 523e ce6c f5bd 2aca c73d 0d60 b5bd
00000010: 7e0e a4be 721f 2d3e 3ce1 163e b527 de3d
00000020: ce53 12be 6608 1ebe 1265 3ebe d28e 01be
00000030: 7a84 53bd 8b4a ac3d 67a2 26be 3950 19be
00000040: c5ba 62bd 08b5 6e3e b6cb 98bd f514 213e
00000050: 018a e5bd 4683 26bd c3a3 bc3d 4771 c63c
00000060: c49f 38be f0bd 1cbe 06cd 193e bb61 3fbe
00000070: a19e a8bd d211 343e ced8 893c d80e 6b3e
00000080: d819 cd3d 7853 d63d 9d6f 3d3e df9b ba3d
00000090: 4f6b 173e 067e a13e e17e 0bbe 8161 9ebd
000000a0: 0d51 c93d 6ce1 973d a06b 273e 37c6 ffbd
000000b0: 039a e33d 0dad 3ebe 10f9 05be 9596 113e
000000c0: 78a1 773e 55dd 50bd c7df 2cbe 49dc f63d
000000d0: 008c 0b3e bba9 033e 84d1 e5bd 2027 a63d
000000e0: 87ff e0bd b69b 74bd a11d f03d 8d3a 38be
000000f0: ace9 f13d c4a7 573e 5a70 44be c498 1cbe
00000100: 9810 6cbc fc20 6abe 808a 38be 174d 8bbd
00000110: 8cd4 123d fd45 02be 9e11 753d 603d d53d
00000120: 8751 0c3c b1f2 943d 4dd2 b9bd a5e0 18be
00000130: 7a08 a0be 365b c23d 2731 303e 0de1 d3bd
00000140: 51af 72bd a248 a0bd 613d d3bd c396 cebd
00000150: 55da bc3e 2c79 193e 4eb0 cd3d ff53 593e
00000160: 54b2 a33d 33bc dbbe 8bb3 4a3e c6c7 d8bd
00000170: 4416 eabd e381 bdbd e39d 933e 60f3 ec3d
00000180: 7025 84bd 65a0 6b3f f699 263e 1f62 98bd
00000190: 6d4f b9bd f973 e6bd d171 abbc 8542 83be
000001a0: 2f70 66bd 9c39 abbb 0255 1a3c 5630 11be
000001b0: ae65 ed3d 3185 363e 577f d7bd 7c8b 9dbd
000001c0: 7a75 03bd 42ad a6bd 718b cabd 9d46 063e
000001d0: a3ad e53d 552b e73d e5ed c43d d8b5 a9bd
000001e0: c472 25be cbf4 0c3e f05f 1d3d af8c 323e
000001f0: 49c2 a93d f89e 49bd ec97 c33d 938e 54be
0.205661 -0.119836435 0.097553566 -0.08856211 -0.32042307 0.16906527 0.14734358 0.10847417
-0.14289781 -0.15432891 -0.18593243 -0.12652138 -0.05164001 0.084126554 -0.16272889 -0.14972009
-0.0553539 0.23311245 -0.0746073 0.1573065 -0.11207963 -0.040652536 0.092109226 0.024223937
-0.18029696 -0.1530683 0.15019616 -0.18689625 -0.08233381 0.17584923 0.016827013 0.22954881
0.10014695 0.10465139 0.18499608 0.09111761 0.14787029 0.3154146 -0.13622619 -0.07733441
0.09829912 0.07416043 0.1634965 -0.12488978 0.1111336 -0.18620701 -0.13083291 0.14217599
0.24182689 -0.05099233 -0.1688224 0.12053735 0.13627625 0.12857716 -0.112216026 0.08112931
-0.10986238 -0.05971881 0.11724401 -0.17991085 0.118121475 0.21060091 -0.19183484 -0.1529265
-0.014408253 -0.22864145 -0.18021584 -0.06801813 0.03584723 -0.12722011 0.059831254 0.10412097
0.0085643595 0.07272852 -0.09073315 -0.14929445 -0.31256467 0.09490053 0.1720625 -0.103456594
-0.059249226 -0.078263536 -0.103144415 -0.10087349 0.36885324 0.1498763 0.10043393 0.21223448
0.07992998 -0.42917022 0.19795053 -0.10584979 -0.11430028 -0.092532896 0.28831396 0.115698576
-0.06452453 0.9204162 0.16269669 -0.0744059 -0.090483524 -0.11252589 -0.020928295 -0.25636688
-0.05625933 -0.0052253734 0.0094196815 -0.14178595 0.115916595 0.17824246 -0.10522335 -0.0769262
-0.032094456 -0.08138515 -0.098898776 0.13112874 0.11214759 0.11287562 0.09615687 -0.08286637
-0.16157061 0.13765256 0.03842157 0.17436479 0.0828901 -0.04922387 0.09550461 -0.20757513
