checkpoints/nd/dim_2/width_4/method_cowgan.pt (torch, 69975 bytes, 5 tensors)

net.0.weight f4 [128, 2]
000000 55 76 21 3f ee 60 81 be 97 da f8 bd 0f 87 25 3f
       0.63071185 -0.25269264 -0.12151068 0.6465921
000010 0e a0 39 be 96 d7 d3 be df 90 7f be 4a 1f 16 3e
       -0.18127462 -0.41375417 -0.24957608 0.14660373
000020 fc 9c 0b 3f 3f b2 20 3f f7 cc 29 3f 4a e2 25 3f
       0.54536414 0.6277198 0.66328377 0.64798415
000030 81 10 53 3c 06 99 97 3d 3b 87 a4 3e 6b 1a 0e bb
       0.012882353 0.07402234 0.32134423 -0.0021683227
000040 4d a0 01 3f d8 d1 2d 3f de 1b 2a 3f fa 8c de be
       0.50635225 0.6789832 0.6644877 -0.43466932
000050 3d 0c b0 3e 0c 2c 5a 3d f8 e4 cb be a4 74 06 bf
       0.34384337 0.053264663 -0.39823127 -0.5252173
000060 4a 75 24 bf 47 9f 03 3f 3a 40 1c 3f 66 83 ea 3e
       -0.6424147 0.5141491 0.610355 0.45803374
000070 f9 f8 08 bf 79 3a ef be 21 8d 4c 3d 25 bc 2a bf
       -0.535049 -0.467243 0.04993928 -0.66693336
000080 37 9d 25 3f 64 aa 3e 3f 44 2f 3d 3e c2 44 2a 3f
       0.64693016 0.74478745 0.18475062 0.66511166
000090 1d ab 78 3d 1f cd c1 be 17 7a 08 3f 91 27 69 bb
       0.06071006 -0.37851807 0.53311294 -0.0035576562
0000a0 22 d6 48 3e bd 40 8e be bc a7 fa be f5 8d a5 3e
       0.19612935 -0.27783766 -0.48956096 0.32334867
0000b0 61 a2 24 bf e2 67 a2 3e f9 7a 1e 3e 2a 2b 8f 3d
       -0.6431027 0.3171988 0.15476598 0.06990655
0000c0 c6 95 99 3e 7b 52 1b bc 7f af cb be eb 25 e5 bc
       0.2999708 -0.009480114 -0.3978233 -0.027972182
0000d0 0b 4b 06 3f 16 f1 c2 be cd 20 94 b8 61 4f 1e 3f
       0.52458256 -0.3807456 -7.0632996e-05 0.6183987
0000e0 91 7f ec bd 29 b6 7c be 12 ae 66 3e b3 49 c0 be
       -0.11547769 -0.24678864 0.2252734 -0.37556228
0000f0 17 56 b9 be 4f 6a 96 3d cb 95 0d be 6c d3 27 be
       -0.36198494 0.073444955 -0.13826673 -0.16389245
000100 46 7e 81 3e 73 45 c0 be c8 75 c3 3e a0 c7 da be
       0.2529165 -0.37552986 0.38175797 -0.42730427
000110 e0 92 e6 be 22 bd fe be af 17 81 bc e0 de 0d bf
       -0.45033932 -0.49753672 -0.015758364 -0.55418205
000120 e8 bc 03 3f 0e 06 38 3c 19 b1 1d 3e 40 ea ab 3e
       0.51460123 0.011231912 0.15399589 0.33577156
000130 0b 47 e5 be 40 c0 18 be ab 63 93 3e 0d e7 69 bd
       -0.44780764 -0.14917088 0.28786978 -0.057105113
000140 1b 51 d6 be 0c 5b 0a 3f 3b 5d e4 be 3c de 3f 3f
       -0.41858754 0.54045177 -0.4460238 0.7494848
000150 ec ab 6d 3e ec 8b 0c bf 24 4d 55 3d 86 13 f1 3e
       0.23210114 -0.54901004 0.05207552 0.47085208
000160 06 d4 b5 3e 62 6e f8 bd 9e b2 7e be 85 e7 48 bf
       0.35513324 -0.12130429 -0.24872825 -0.7847827
000170 58 06 c8 3c 55 cc 02 3f 94 11 9d 3e b6 1c 39 bd
       0.024417087 0.51093036 0.30677474 -0.045193397
000180 66 e9 d1 3b e2 a7 c8 3e 62 87 3c be b8 99 23 be
       0.006405997 0.39190584 -0.1841102 -0.15976608
000190 14 09 c3 be b1 c3 96 be c4 41 d9 3e c5 8d ae 3e
       -0.38092864 -0.29446176 0.42432988 0.34092537
0001a0 96 d0 b2 bd ab fd 2b 3c c5 9e ad be 0a 82 29 bd
       -0.08731191 0.010497491 -0.33910194 -0.04138378
0001b0 cc 06 c2 3e 7d 50 43 3f 71 4e ae 3e 9c fd b8 3e
       0.3789581 0.7629469 0.3404422 0.3613099
0001c0 2d 08 44 bf 9c d7 09 bf d9 1b 53 bd ae ae bd 3d
       -0.76574975 -0.5384462 -0.05154023 0.09261833
0001d0 fe 5c d2 3e c4 db 32 3e 13 c0 1f be 85 b2 84 be
       0.41086572 0.17466646 -0.15600614 -0.2591745
0001e0 ad bb a3 be 76 50 5d bd db 1a 2a 3f a8 ce 00 be
       -0.31979123 -0.05403181 0.6644723 -0.12578833
0001f0 55 80 83 3c 6c 01 81 3c 7f f7 05 bf f0 d7 15 3f
       0.016052404 0.015747748 -0.52330774 0.5853262
000200 4b e3 11 bf 8d 26 8a 3e 7e e4 bc be fe 9d 9e bd
       -0.56987447 0.26982537 -0.36893076 -0.07744978
000210 f4 f1 2a 3f 11 1f 37 3e a8 70 1e 3f 19 16 f8 3e
       0.6677544 0.17882945 0.6189065 0.4845436
000220 67 7c 12 3c 12 67 db be 7e 29 19 be dd 16 dd 3e
       0.008940793 -0.42852074 -0.14957234 0.43181506
000230 fa 07 22 be 89 c1 b0 be 76 05 0a be 21 71 88 bd
       -0.15823355 -0.34522656 -0.13478646 -0.066622026
000240 8d f9 79 3d 93 9c ba be a5 0a 55 3e 0f ad 21 bf
       0.061029006 -0.36447582 0.20804842 -0.6315469
000250 18 f6 d9 3e cc 9a b1 3e a5 3f 0c be 6d 68 6b bd
       0.42570567 0.34688413 -0.13696153 -0.057472635
000260 70 fd 25 3f 61 dd 09 bf 2c 51 13 bf 0a 15 0d bf
       0.6483984 -0.5385342 -0.57545733 -0.5511023
000270 68 f0 ea be 3e 4c b7 be 8a 5c 3a 3f b7 db f2 3a
       -0.4588654 -0.35800356 0.72797453 0.0018528615
000280 7e 6e 82 3e 0f ad 01 bf 93 30 df be f7 40 c4 be
       0.25474924 -0.5065469 -0.43591747 -0.38330814
000290 e1 47 cc be 34 85 20 3f 5d a9 c3 be 47 05 dd 3e
       -0.3989859 0.6270325 -0.3821515 0.4316809
0002a0 33 07 ad be ec b2 85 be 71 66 b6 be 5c 14 5b 3e
       -0.33794555 -0.2611307 -0.35625032 0.21394485
0002b0 04 bf e1 3e 29 04 f8 be 7c 4b e2 bc 6a f1 ba be
       0.44091046 -0.48440674 -0.027623884 -0.3651231
0002c0 34 6c cc be ac 25 c1 3e 51 24 18 3f c5 dc 1f 3f
       -0.39926302 0.37724054 0.59430414 0.6244624
0002d0 6b 5d 36 bf b1 8c 91 3e e2 e8 0c 3f 5e cd ff be
       -0.71236295 0.28427652 0.5504285 -0.4996137
0002e0 4e 78 1e 3f 5e 89 9f 3d 39 8e 1f bf 43 3b ad 3e
       0.6190232 0.077898726 -0.6232639 0.33834276
0002f0 de 93 b0 be a2 08 c5 be f4 8a f7 be 19 e2 69 3e
       -0.34487814 -0.3848315 -0.483482 0.22840156
000300 3e 44 db bd 72 74 92 be 6f d3 1d 3f f3 a3 b2 3e
       -0.107063755 -0.28604466 0.6165075 0.34890708
000310 b4 90 ac be 9a bb 87 3e c3 99 c3 3c 5d 0d 2f 3f
       -0.3370415 0.26510316 0.02387703 0.68379766
000320 54 67 1b 3d 3c 49 86 bd 0c fa 41 3f eb 74 bf 3e
       0.03794034 -0.06556937 0.75772166 0.3739389
000330 95 d1 d0 be 9f a7 07 bf 1d 8b 59 b6 37 d5 97 be
       -0.40784898 -0.52990144 -3.2416494e-06 -0.29654858
000340 67 3f 32 3f bf 0f 0c bf 3e cf 6d 3e 0a f5 cd be
       0.69627994 -0.54711527 0.23223588 -0.40226012
000350 9f 09 cb 3d 88 cb 18 bf 2c e0 fc be b8 54 d2 bd
       0.099139445 -0.59685564 -0.4938978 -0.10270065
000360 cc 0f 36 3e e6 52 2f bf 03 1e d3 be 74 36 7e bd
       0.17779464 -0.6848587 -0.41233835 -0.06206365
000370 7a 9f 82 be 74 cb 02 be 55 50 71 3e d9 24 55 3e
       -0.25512296 -0.12772924 0.235658 0.20814838
000380 a8 4e 39 be a4 6a 08 bb 30 22 23 bf 74 91 2d 3e
       -0.18096411 -0.0020815516 -0.6372404 0.16950017
000390 67 b9 0d 3f de ab 1f 3f 1e 50 09 3f f4 42 0e bf
       0.55361027 0.62371624 0.53637874 -0.5557091
0003a0 a8 54 23 3f 17 23 ae be 1c d8 11 3f 9d e9 b3 bd
       0.6380105 -0.34011146 0.5697038 -0.087847926
0003b0 c5 40 26 3e f2 5b d5 be 57 31 58 3e cd 8c a8 be
       0.16235645 -0.4167171 0.21112572 -0.32919922
0003c0 d0 80 12 3f d3 a9 2b 3e f9 47 8c 3e 58 ba 21 3f
       0.572278 0.16764002 0.2739866 0.63174963
0003d0 e6 54 f0 3e 70 f5 d9 be 25 62 70 3e 9d a1 01 bf
       0.46939772 -0.42570066 0.23474939 -0.5063723
0003e0 44 39 0d bc 17 c9 c5 3e 99 b1 e4 3e 8a 4f 94 3e
       -0.00861961 0.38629982 0.44666746 0.28966933
0003f0 f3 a9 d9 be a5 00 23 be 2e bd 4c be b8 6e 8a 3d
       -0.42512473 -0.15918215 -0.19994041 0.06759399

net.0.bias f4 [128]
000000 4d c3 4b 3f 5b c1 0f bf 26 a9 d1 3e 3e f2 a2 be
       0.7959488 -0.5615441 0.40949363 -0.3182544
000010 18 8e 38 3e ab ee d1 be 8a ad 27 bf 0d 37 20 be
       0.18022954 -0.41002402 -0.65499175 -0.15646
000020 1a 8c c2 be a1 a1 2a bf 0d ad 16 bd 3a 12 2e bf
       -0.37997514 -0.66652876 -0.036786128 -0.6799656
000030 dc 3f 0b 3f 46 e1 fc 3e 70 b7 90 bd 93 1e 62 3e
       0.54394317 0.4939062 -0.07066238 0.22081976
000040 a5 01 ff 3e 1c fa f7 be c5 f9 ed be c2 f8 84 be
       0.49805942 -0.48433006 -0.46479622 -0.25971037
000050 89 55 21 bf f2 12 fd 3e 64 ec 25 bf 8e aa 41 3f
       -0.6302114 0.49428517 -0.6481383 0.7565087
000060 d6 29 e4 3e 6b 58 d9 be cd 58 3a be ad cd 3e bf
       0.44563168 -0.4245027 -0.18197937 -0.74532586
000070 06 c4 34 be 87 c2 ac 3e 98 55 0f 3f 44 4f e9 be
       -0.17652902 0.33742163 0.5598998 -0.45568287
000080 b3 9c 3f bf 8d e8 06 3f 9f d1 46 3f fb 4f 17 bf
       -0.7484848 0.52698594 0.77663606 -0.59106416
000090 87 ee 81 be 45 32 10 be 39 4c 0e be 7d 04 a2 bd
       -0.25377294 -0.14081676 -0.13896264 -0.07911012
0000a0 c1 f4 c9 3d 2b e2 f1 3e 23 be 64 be a4 6f 82 bd
       0.09861136 0.47242865 -0.22338156 -0.0636895
0000b0 47 d7 fa be 6a bc 1d 3f 65 db 51 3f 2d 93 b3 3e
       -0.4899237 0.6161562 0.81975394 0.35073224
0000c0 43 13 0e 3f 7e 18 eb 3e 55 bd 97 3d 49 4c 19 3f
       0.5549814 0.45917124 0.07409159 0.59882027
0000d0 e7 84 2c 3f 92 12 e6 3e c5 e8 16 3f e8 49 18 3f
       0.6739029 0.44936043 0.5894893 0.5948777
0000e0 3f 0b e2 3e 1e d8 a3 bc 19 da 1f 3c fb 95 08 bf
       0.44149205 -0.020000514 0.009756588 -0.5335385
0000f0 07 51 23 3f 2c c4 0e 3e 17 22 bc 3e af d5 ec be
       0.6379551 0.13942021 0.36744758 -0.46256778
000100 98 63 0e bf ed e9 ca 3e c9 62 d6 3d e7 9b 87 bf
       -0.5562072 0.39631596 0.104680605 -1.0594453
000110 24 46 e4 be 2b 73 81 be 70 4d da 3e be 27 23 bf
       -0.44584763 -0.2528318 0.42637205 -0.63732517
000120 35 3a c1 be 53 f7 d0 3e b0 12 16 bf b3 51 a0 3d
       -0.3773972 0.40813693 -0.58622265 0.07828083
000130 6f 59 08 be 8e 23 c7 3e 73 0a 06 bf 83 a4 b5 3e
       -0.13315366 0.38894314 -0.52359694 0.35477075
000140 ac 44 2b 3f de 3c 72 be e4 93 79 3e 81 63 07 bf
       0.6690166 -0.23656031 0.24372822 -0.52886206
000150 55 8f 15 3f c6 2c e1 be f6 13 2e bf f1 07 53 3f
       0.5842183 -0.43979472 -0.6799921 0.8243399
000160 b9 03 c6 bc 92 50 89 3e 36 4a 10 bf 90 7f 30 3e
       -0.024171697 0.26819283 -0.56363237 0.17236161
000170 21 e5 2d bf 43 41 fd be 17 2e 04 be 37 d4 f0 be
       -0.6792775 -0.49463853 -0.12908207 -0.47036907
000180 ae ef 1e bf d2 3b 62 bf 23 60 c2 be 8e db 14 be
       -0.6208447 -0.8837253 -0.37963971 -0.14536878
000190 50 10 88 be 21 ed 04 3f b9 59 1f 3f 59 f9 b6 3e
       -0.26574945 0.5192433 0.6224628 0.35737112
0001a0 3f 87 16 bf fd 02 62 3f 92 83 53 bf 92 14 3d 3f
       -0.5880012 0.8828581 -0.82622635 0.7385951
0001b0 de 28 2f bf b9 25 48 3d 6f b6 53 3f 93 77 2c bf
       -0.68421733 0.0488641 0.82700247 -0.67369956
0001c0 1d 5e a7 3e 78 ad 8e 3e 16 d1 4b 3e 3a 62 95 be
       0.3268899 0.2786672 0.19903979 -0.29176503
0001d0 e0 41 1d 3e bd 71 30 bf e2 2d ad 3e 67 4d 18 bf
       0.1535716 -0.6892355 0.33824068 -0.59493107
0001e0 02 ab 47 3f 8d 50 e2 3e 76 b1 e4 3e 5e 4b a2 be
       0.7799531 0.4420208 0.44666642 -0.31698126
0001f0 f9 d9 01 3f 21 89 d5 3e 1c 09 f9 be 60 79 d7 3e
       0.50723225 0.41706184 -0.48639762 0.4208479

net.2.weight f4 [128, 128]
000000 b2 e4 00 bc f8 e0 9b 3d 1d 19 94 3d d0 01 26 bd
       -0.007867025 0.07611269 0.072313525 -0.040529072
000010 ec 14 a3 bd 67 4a ab 3d a2 04 32 3c d0 72 a2 3d
       -0.07962975 0.083638005 0.010865362 0.07932055
000020 42 b1 8c bc 0f e7 82 3d 9b 67 15 3d b9 e4 be 3c
       -0.017174367 0.06391727 0.03647576 0.023302423
000030 aa 89 09 bd 0b 72 26 bd 3a 83 af bd 92 e6 33 3c
       -0.033578552 -0.040636104 -0.08569951 0.010980265
000040 73 04 83 3d 07 0f 28 3b 0a 3f 97 bd 61 99 0a bd
       0.06397333 0.0025643723 -0.073850706 -0.03383768
000050 15 3d 62 3c e0 fa ad 3d bf 47 3c bd 3d 93 a7 bc
       0.013808508 0.08495116 -0.04596686 -0.02045595
000060 95 fe ce 3b 15 3b 8b bd 3b 70 ca 3c f3 50 e6 bc
       0.0063169696 -0.067983784 0.024711719 -0.028114771
000070 34 30 b7 3c 7b 79 54 ba 8e e5 6a bd b4 31 e6 3c
       0.022361852 -0.000810526 -0.057347827 0.028099872
000080 a0 4e 97 3d 99 37 84 bd 41 e8 91 bd fe 97 2d 3d
       0.073880434 -0.06455917 -0.07124377 0.04238128
000090 6e 96 3f 3d 6a 3f 10 bc 82 a5 8a bd 28 38 af 3d
       0.04677432 -0.008804182 -0.06769849 0.08555633
0000a0 b7 92 13 bd 40 8f 92 bd 24 db 02 bd 34 14 4d bd
       -0.03602859 -0.07156229 -0.03194727 -0.050068095
0000b0 71 ed 51 bd 3d 9d 14 3d 98 e2 a1 3d 8f 2a 39 bd
       -0.051251832 0.036282767 0.079045475 -0.045206603
0000c0 28 d9 e6 3a 18 d0 0a bd 79 ad af bd 5b 7e b3 bd
       0.0017612325 -0.03388986 -0.08578009 -0.08764335
0000d0 89 b8 69 3d 2e 47 1f 3d 98 85 5a 3d 48 02 71 bd
       0.057060752 0.03888624 0.05335006 -0.058840066
0000e0 95 78 c2 bc df b6 77 3d 48 4c 17 bd 68 ea a6 3d
       -0.023739139 0.060477134 -0.03693798 0.08150178
0000f0 39 87 0b bd c1 5e d2 bc 51 90 a1 3d 99 ec 0a 3c
       -0.034064505 -0.025679948 0.07888854 0.008479261
000100 d7 4b ab 3d c1 0e 1b bd f0 d3 49 3b 36 a7 ac bc
       0.08364075 -0.037855867 0.003079649 -0.021075826
000110 64 fd 9a bd db e1 24 bd 05 a9 07 3c ec cc 8f bd
       -0.07567862 -0.040254455 0.0082800435 -0.070215076
000120 ab 7c d3 bc c1 90 81 bd 28 85 44 bd b6 24 c4 ba
       -0.025816282 -0.06326438 -0.04797855 -0.0014964554
000130 d0 4a f1 3b 1f fa b2 bd 1e 79 7e 3d 10 65 8e bd
       0.0073636547 -0.08739113 0.062127225 -0.0695287
000140 c4 dd 4a 3d ac 89 96 ba 72 c3 98 3c b8 15 92 3d
       0.0495279 -0.0011485121 0.018647883 0.07133049
000150 bd 7e 8e bd 18 bc c1 3c 77 22 6d bd b8 6a 37 bc
       -0.06957767 0.02364926 -0.057894196 -0.011194877
000160 e9 1a 29 3d 87 44 b1 bd 33 c2 8a bd 7a eb 5f 3d
       0.04128543 -0.08655649 -0.06775322 0.054667927
000170 bb a9 0a 3c de 07 20 bd 23 db 94 bd 81 81 aa 3d
       0.008463318 -0.039070003 -0.072683595 0.08325482
000180 3e 72 a6 bd 37 d4 5c 3d 48 ff 99 3c 0c b3 9f 3d
       -0.08127259 0.05391332 0.018798485 0.07797822
000190 d5 ec ba 3b 47 60 a4 3c c9 17 af 3c cb ee cc bc
       0.005704502 0.02006544 0.021373646 -0.02501621
0001a0 03 23 42 bd 69 14 67 bd 98 d4 44 bd 7c e2 ee bb
       -0.04739667 -0.05641595 -0.048054308 -0.0072901826
0001b0 35 c5 52 3d a8 01 91 3d 4b 4b 6c bd fa 88 83 3d
       0.051457603 0.07080394 -0.057688992 0.064226106
0001c0 5f b5 35 3b d2 d6 84 3c 84 37 9a 3c e7 c0 79 3c
       0.0027726514 0.016215716 0.0188253 0.015243745
0001d0 aa 0f 80 3d 72 d1 6c bd d1 90 a1 3c 13 5a 2b bd
       0.06252988 -0.05781693 0.019722374 -0.04183395
0001e0 31 ec 60 bc e4 b0 8d bd 15 92 86 bd f5 c4 8a bd
       -0.013728187 -0.06918505 -0.06570832 -0.06775848
0001f0 56 d1 0b 3d 05 39 d9 bc 83 89 78 3c 22 25 c0 bc
       0.034135185 -0.026516447 0.015169504 -0.023455206
000200 94 bf 26 bd c5 5c ca bc 14 fa ac ba 38 6c 6a be
       -0.040710047 -0.02470244 -0.0013197088 -0.22892845
000210 74 a6 04 bd 0c 55 9e 3d 0f 25 81 bd c1 c1 51 bd
       -0.032385305 0.07731065 -0.063058965 -0.05121017
000220 64 4e 9a 3d 35 46 af 3b f1 ca 83 3c 7e 3a ed 3a
       0.07534483 0.0053489455 0.016087981 0.0018099097
000230 e8 6b c1 bd af c9 e8 3d 4c d3 d2 3c 71 29 da bd
       -0.094444096 0.11366593 0.02573552 -0.106524356
000240 3c 98 b9 3d 98 67 1e 3c 43 bc 7b be c9 aa d0 3d
       0.090622395 0.009668253 -0.24583535 0.10188825
000250 50 93 74 be c6 7f 9d bc e5 15 73 be 30 ab c1 3d
       -0.2388432 -0.019225966 -0.23738821 0.094564795
000260 c4 eb 8d 3d f1 30 1b 3d 29 7e 0f bc 74 d7 4e bc
       0.06929734 0.03788847 -0.008758106 -0.01262461
000270 e9 b2 50 3d b1 c6 7e 3c 54 6a e7 3d d4 39 e3 3d
       0.050951872 0.015550301 0.11299577 0.11095014
000280 72 2c 62 be 34 2b 8c bc 2a 0f bf 3d d8 aa 4a be
       -0.22087267 -0.017110445 0.09329064 -0.19791734
000290 5f 05 ce 3d 8d 29 17 3e d8 a8 6d 3c 4c f8 3a bd
       0.10059618 0.14761944 0.0145055875 -0.04564695
0002a0 72 eb cf bc 6c 1a 4e bd e3 cc f7 bb b4 fc 74 bc
       -0.025380824 -0.050318167 -0.007562266 -0.014952827
0002b0 9e f3 ba 3b bb be 7c 3c da 52 bc 3d 00 4c 3b 3d
       0.005705311 0.015426333 0.0919549 0.045726776
0002c0 80 fe 2f 3d 84 34 4f 3e f7 a4 b8 3d 28 82 17 3d
       0.04296732 0.20234877 0.090158395 0.03698936
0002d0 5a 24 90 3d 19 41 92 3d eb 08 79 bc 96 e9 04 3e
       0.070381835 0.07141323 -0.01519988 0.12979731
0002e0 e2 37 8e 3d 40 d8 6c 3d 2c e9 5b bc 07 77 46 3e
       0.069442526 0.05782342 -0.013422292 0.19381343
0002f0 5e b9 6e 3d 3e 94 c7 3d 4b 2f c9 3d b1 d7 14 be
       0.05828225 0.09745072 0.098234735 -0.14535405
000300 c4 f2 fc bd 54 f6 52 bd cf 32 bd 3d 61 48 5e be
       -0.12350991 -0.051504448 0.092382066 -0.21707298
000310 79 2e 7b be 74 ed 84 3d 9b 17 d9 3c f4 67 d5 3b
       -0.24529447 0.06490603 0.026500514 0.0065126363
000320 63 8f 20 be 60 78 33 bc e5 61 1f 3d 00 67 57 3d
       -0.15679698 -0.010953993 0.03891172 0.052588463
000330 4b c4 bf 3a 54 db a5 bc 9c 2d cb 3d a1 25 81 3b
       0.0014630643 -0.020246185 0.09920809 0.0039412533
000340 74 db 88 3d d4 5b 0a bd a8 53 9a 3d 52 82 88 bd
       0.06682482 -0.03377898 0.075354874 -0.066654816
000350 22 51 f5 3d e5 63 1d be b5 dd ad bc a2 6c 9b bb
       0.119783655 -0.15370138 -0.021223882 -0.0047431746
000360 25 0c 8a bd 97 c5 c0 3d bf 50 1e be 2a 1a 9b bd
       -0.06740598 0.09412687 -0.1546049 -0.0757335
000370 36 6e c9 3c 08 ec 2f be c7 3f be 3c e2 7c 6d be
       0.024588685 -0.17179883 0.02322377 -0.2319217
000380 7b 64 08 3e 49 d0 27 be e3 4d 99 bd 92 56 bc 3d
       0.1331958 -0.16388048 -0.07485559 0.091961995
000390 63 0c 19 bc d9 43 05 3d 67 6d 56 3d 13 5d 60 3d
       -0.009341332 0.032535408 0.052350428 0.054776262
0003a0 e4 a5 16 bd 8c b1 7b 3b 31 c4 88 be 7a 45 fb bb
       -0.0367793 0.0038405387 -0.26712182 -0.0076681944
0003b0 c7 f7 1e be 45 7b 7b 3c f7 a0 13 3e 9b 18 06 3f
       -0.15524207 0.015349214 0.14416872 0.52381295
0003c0 f2 6d 7b 3d 7c 21 af bc e8 bf c0 3c d5 d2 af bd
       0.06138415 -0.021378271 0.023529008 -0.08585135
0003d0 18 7b 31 3d 08 04 49 3d 5e 9e c1 bd 1a c7 cb bd
       0.043330282 0.04907611 -0.09454034 -0.09950085
0003e0 3c 6e 6b 3d a9 64 96 3c 70 7d cc 3c 37 1b 80 bd
       0.057478175 0.018358545 0.024962157 -0.06255191
0003f0 c4 50 49 3d 44 db dc 3d a8 26 17 3c 76 d7 5b bd
       0.04914929 0.10784009 0.009225525 -0.053672276

net.2.bias f4 [128]
000000 4a b0 42 bc 0a 80 d3 3d 55 f3 ab 3e fb 9e 1e bd
       -0.011882851 0.10327156 0.33584085 -0.038725834
000010 d5 c4 1e be b8 27 97 bd a7 e2 9e 3e 2a 0f 32 bd
       -0.15504773 -0.073806226 0.31032297 -0.043471493
000020 9f 7e 47 bb 85 00 87 3d b8 26 27 3d 35 36 30 3e
       -0.0030440462 0.06591896 0.04080841 0.17208178
000030 4a 61 c4 3c 54 71 2d be 33 cc 98 ba f8 3f bd 3e
       0.023972172 -0.16937762 -0.0011657536 0.36962867
000040 0a da 8a 3c 07 b7 05 be 92 02 85 bd ef 19 e1 3d
       0.016949672 -0.130581 -0.06494631 0.109912746
000050 26 76 7a bd 2c aa 6d bd 78 ff c5 bc 26 56 61 3d
       -0.06114783 -0.058023617 -0.024169669 0.0550138
000060 34 19 db bb 74 2a 16 3c 91 00 01 bd 80 0a 4b be
       -0.006686354 0.009165395 -0.03149468 -0.19828224
000070 7f 4d 0d be c3 43 f2 3c 08 86 61 3e 5b 80 ff bc
       -0.13799094 0.029573327 0.22023785 -0.031189134
000080 98 37 7b 3e 36 7a ba bd 72 82 7e 3e 9b 9f 80 3e
       0.24532926 -0.09105341 0.24854448 0.2512177
000090 b5 2c f5 3e 2d b3 e2 bd ef 31 9c 3d e8 c0 36 3d
       0.4788567 -0.11069331 0.076267116 0.044617563
0000a0 40 84 4c bd 56 92 c8 3c 1d 2a 71 bc a1 87 84 bd
       -0.04993081 0.02448384 -0.014719513 -0.06471182
0000b0 9d 77 b5 bc 19 4b a2 3c 73 1f 09 3f e6 0c ee 3d
       -0.022151763 0.0198112 0.5356361 0.11623554
0000c0 03 77 05 be f9 85 31 be 55 4d 5f 3e 3e 36 7c bd
       -0.1303368 -0.17336263 0.21806844 -0.061575167
0000d0 d5 c9 f3 bd a9 62 ae 3d bd 62 31 be 79 a5 0f bd
       -0.11903731 0.08514912 -0.17322822 -0.035069916
0000e0 e9 86 66 bd 85 d2 b6 bd 1d 13 24 be 2f c0 91 3e
       -0.056281004 -0.08926872 -0.16022916 0.28466937
0000f0 39 83 2a 3e 28 b3 dc bb 1f b1 54 bd fa cf 2b bd
       0.1665162 -0.0067352243 -0.05192673 -0.04194639
000100 c3 b5 29 be e8 f3 7e bd 70 97 37 bd 1e 2a 65 bd
       -0.16573243 -0.062244326 -0.044822156 -0.05594837
000110 e0 71 05 3d 77 6e 5c bd 49 64 2f bd 1a 5f 9a 3e
       0.032579303 -0.053816285 -0.04282025 0.30150682
000120 f2 18 73 bc bd 13 9a bd 86 24 0c 3e 66 62 b7 3e
       -0.01483749 -0.07523296 0.13685808 0.3581726
000130 d3 fa d3 3c 1c f9 d9 3d c7 20 3a bd 3d 4d c2 bd
       0.025876438 0.10643217 -0.045441415 -0.09487388
000140 30 1f b6 3e 89 8c 87 3e 3d ec 9a bd 37 43 8b 3e
       0.3557067 0.26474407 -0.0756459 0.27199718
000150 ff 15 c6 bd e9 32 27 3d cb 30 cb 3e be c2 66 3e
       -0.09672164 0.040820036 0.39685664 0.22535226
000160 b1 66 80 3e 38 0a 29 3e 88 a1 bf bd 4e dc 0e bd
       0.25078347 0.16507804 -0.093569815 -0.034878068
000170 17 61 cc 3d b3 c4 c7 3e 42 65 06 3d 1a 75 ed bd
       0.09979456 0.39017257 0.03281141 -0.11594601
000180 6b 73 e0 3b a3 1a a6 3c 22 c1 11 bc ee ae 91 3b
       0.0068496964 0.020276373 -0.008896144 0.004445902
000190 02 38 b9 bd 35 df 02 bd 48 9f 9e 3e fd 77 3e 3d
       -0.09043886 -0.031951148 0.30980897 0.04650115
0001a0 b1 90 0a bd b7 ed be bd f3 01 58 3c c3 39 83 bd
       -0.033829395 -0.09322684 0.0131840585 -0.064075015
0001b0 4d a8 f6 3d 2a 36 cd 3e 0d fc 11 be 17 e0 b8 bc
       0.120438196 0.40080386 -0.14256306 -0.022567792
0001c0 fd 28 34 be a7 60 55 3e 88 1a d7 3e 47 3b 06 be
       -0.17593761 0.20837651 0.4201243 -0.1310855
0001d0 3f 2a 9f 3e 24 5a ed ba ea 3c 24 3e 9e f0 96 3e
       0.3108692 -0.0018108529 0.16038862 0.2948045
0001e0 23 9b b1 3d a4 45 09 3e 79 6e 86 bd 38 c1 de bd
       0.08672168 0.13405472 -0.0656404 -0.10876697
0001f0 cc 7e 88 bd 13 92 a6 3e d4 a3 bd 3c 22 67 1f 3d
       -0.066648096 0.3253332 0.023149408 0.038916714

net.4.weight f4 [1, 128]
000000 01 ef 74 bd 96 dd 4b be d0 8d b2 3d f9 c7 6b bd
       -0.059798244 -0.19908747 0.08718455 -0.057563756
000010 30 2f b2 bd 3f 17 99 bd 64 6a 6c 3d 71 b2 82 bd
       -0.087004066 -0.07475137 0.05771865 -0.06381691
000020 f2 2c 94 bc 99 13 a4 3a 59 a0 0c 3c 2f 6f 5b 3d
       -0.018087838 0.0012518048 0.008583152 0.05357283
000030 77 63 36 3d 2b 86 ed bd 8d 7b 27 3d ba 5f 94 3d
       0.04452845 -0.11597856 0.04088931 0.07244821
000040 d1 f5 70 3d 81 a2 8f bd 94 f1 80 bc c2 69 3c 3d
       0.05882818 -0.07013417 -0.015740193 0.045999296
000050 eb c9 ad bd 70 00 90 bc 70 ed 83 bd 06 86 7e bd
       -0.084857784 -0.017578334 -0.06441772 -0.062139533
000060 f7 fd 6e bd 04 68 47 b8 86 fd 6b bd a0 c2 5a bd
       -0.05834767 -4.754217e-05 -0.057614826 -0.053408265
000070 03 1a 52 3a b3 a9 8a 3d f6 2e 75 3c 52 45 cc 3c
       0.00080147403 0.06770649 0.01496481 0.024935398
000080 27 d1 d3 3c 20 59 33 be 45 c2 af 3c f3 73 9f 3d
       0.025856568 -0.17514467 0.02145494 0.077857874
000090 67 e9 83 3d d8 43 4c bd 6f b8 6d bd 8d a4 88 3c
       0.06441002 -0.04986939 -0.058037218 0.016680026
0000a0 01 1f 14 bc e4 f5 a2 b8 fd b4 de 38 b5 7f 81 bd
       -0.009040595 -7.770563e-05 0.000106194966 -0.06323186
0000b0 ba 1b 93 bd f6 38 2a 3d b4 18 38 3d b9 a1 03 ba
       -0.07183023 0.04155823 0.044945434 -0.0005021352
0000c0 f7 53 7d bb d6 8d 1c bc 6e a8 e4 3c 76 71 86 b8
       -0.0038654783 -0.009555301 0.027912345 -6.410752e-05
0000d0 19 6a 82 bd f0 ba 5b 3c de 0e d2 3c e9 66 32 bd
       -0.06367893 0.013411269 0.025641855 -0.043555174
0000e0 f1 6c 26 3c 73 d1 ca 3d 36 b8 62 bd 12 d5 aa 3d
       0.01015781 0.099032305 -0.05535146 0.08341421
0000f0 84 8a 18 3d c4 dd cc 3c 56 ef 94 3d 3c 11 08 be
       0.037241474 0.02500809 0.07272212 -0.13287824
000100 89 5b 0a bc 1f 42 81 b8 0e c7 14 3d 9d 9d 6e bd
       -0.008444675 -6.163515e-05 0.036322646 -0.05825578
000110 13 05 73 3d 67 64 83 3c 7b ef 98 bd 02 52 45 3d
       0.05933101 0.016039087 -0.07467552 0.048173912
000120 fb 8e e1 bd 83 a9 a3 3d 12 0e 6d 3d 25 b2 9e 3d
       -0.110135995 0.07991316 0.057874747 0.07748822
000130 05 d9 9d 3d 68 0c c3 3c fd 39 88 b9 6c 13 93 bd
       0.07707409 0.023809627 -0.00025983146 -0.07181439
000140 07 29 9d 3b e8 78 53 3d 5d 1e 63 3d a0 fd 8c 3d
       0.0047961506 0.051628977 0.05544888 0.06884313
000150 ad 54 52 bd 79 32 88 be 2d 0c 22 3c 2c 68 90 3c
       -0.051350284 -0.26601008 0.009890598 0.017627798
000160 87 b1 88 3d 89 3b 1a 39 14 a1 10 ba 9d ec 01 bd
       0.06674486 0.00014708763 -0.00055171666 -0.031719793
000170 a6 05 0b 3d 0b 5d d0 3c b1 99 ad 3d b8 82 7f bd
       0.033940934 0.025434991 0.0847658 -0.062380522
000180 46 37 ae 38 8c 79 0f be 97 77 35 bc 68 5a 5a 3d
       8.307262e-05 -0.1401121 -0.011075876 0.053308874
000190 ac 97 d2 bd 48 81 8a 3d 38 b7 81 3d b5 08 c8 3c
       -0.10282835 0.0676294 0.06333774 0.024418214
0001a0 fb 83 33 ba 88 6f d5 bd fb 00 a0 3d d4 41 4f bd
       -0.0006847975 -0.104216635 0.07812687 -0.050599888
0001b0 7a f8 98 b9 82 c1 dc 3c 1c 36 6a bd 06 15 ca 39
       -0.0002917683 0.02694774 -0.05718051 0.00038544106
0001c0 57 93 8d ba 30 d2 4e 3c 3b 2f 3b 3d 85 d1 3a 3e
       -0.0010801357 0.012623355 0.04569934 0.18243988
0001d0 3f 0a 3e 3d 9b 77 4d bd a2 1c 67 3d 89 96 f6 bb
       0.04639649 -0.050162893 0.05642379 -0.0075252694
0001e0 3a 2e 34 3d d6 25 ff bc 56 4d ec 3a f3 a2 dd bd
       0.043989398 -0.031145971 0.0018028419 -0.10822096
0001f0 17 07 8f 3d 39 f3 61 3b 23 9e 14 39 03 5f 4c 3d
       0.06983774 0.0034477247 0.0001417329 0.049895298
