checkpoints/nd/dim_2/width_4/method_3p-wgan_rev.pt (torch, 69975 bytes, 5 tensors)

net.0.weight f4 [128, 2]
000000 89 b9 fa 3e 73 07 0f bf af 91 27 bf 16 c5 e6 3e
       0.48969677 -0.5587074 -0.6545667 0.4507224
000010 f5 ce f1 be ac 47 ef 3e d6 3a 0a 3d c5 b3 ed 3e
       -0.47228208 0.4673437 0.033747517 0.46426216
000020 6d 45 b7 be 49 10 d8 3e 20 83 08 3f f8 20 0b 3e
       -0.35795155 0.42199925 0.5332508 0.13586795
000030 5e 74 10 3f 7f ac 3f 3f b8 e9 f2 3e f3 4c a9 bd
       0.5642756 0.74872583 0.47443938 -0.0826663
000040 9d 7e 87 3d e5 be 2d bf 1d 85 3b bf b1 e0 17 bf
       0.066159464 -0.67869407 -0.7324999 -0.59327227
000050 eb 72 36 bd 7e a6 74 be f5 18 90 3e 39 0f f7 3e
       -0.044543188 -0.23891637 0.2814404 0.482538
000060 6c 6c 19 3e bc 5b 0e 3f 39 86 26 3f 6c 6e b6 3e
       0.14982766 0.55608726 0.6504856 0.3563112
000070 b1 c9 15 bf eb 64 58 3e 60 60 0d 3f d5 c9 01 bf
       -0.5851088 0.21132247 0.5522518 -0.50698596
000080 bf 7a 46 be e6 fe 13 3e 4a 7e 02 3f 01 e2 20 be
       -0.19382761 0.14452705 0.5097395 -0.15711214
000090 75 1b 06 bf 78 95 5c bd a6 dc 15 bf 92 91 27 3e
       -0.52385646 -0.053853482 -0.5853981 0.16364124
0000a0 92 6b 09 bf a8 77 9e 3e 8e 2c a2 3e 81 58 6c 3e
       -0.53679764 0.30950665 0.31674618 0.23080637
0000b0 df b8 b6 3e 9d 93 a4 be a8 b3 07 3f 22 99 01 ba
       0.3568792 -0.3214387 0.5300851 -0.0004943778
0000c0 1d 93 95 be 40 fb 07 bd 6a 6f 18 3f 5a 8e 04 3f
       -0.292138 -0.033198595 0.59545004 0.5177971
0000d0 e2 b6 d7 bd 81 ba 1a bf 2d 00 af be 72 a6 39 be
       -0.10532929 -0.6044083 -0.34179822 -0.181299
0000e0 79 41 40 be 66 a3 0f 3f ee c5 f0 3d fd db 32 bf
       -0.18774976 0.561087 0.11756502 -0.69866925
0000f0 22 4c 10 3f d2 da 17 be 91 fc f5 3e 7d 5c 9a 3d
       0.5636617 -0.14829567 0.48044255 0.07537172
000100 c3 68 0b 3f 5e 8d 41 3e 27 4c b6 3e 48 f7 33 3e
       0.5445673 0.18901584 0.35604975 0.17574799
000110 ad f4 90 be e6 b5 8f be dd 47 7a 3e 28 3c 34 3e
       -0.28311673 -0.28068465 0.24441476 0.17601073
000120 b7 21 06 3f c2 5b 0c 3f e8 a3 0f be ac a7 31 3b
       0.52395195 0.5482751 -0.14027369 0.0027107997
000130 00 bf de 3c a8 d6 73 3e ac 20 4b 3f 4e 8d cc 3e
       0.027190685 0.23812354 0.7934673 0.39951557
000140 51 50 f8 3e eb 17 d4 3e c9 81 0d bf f0 23 15 be
       0.48498777 0.41424498 -0.5527616 -0.1456449
000150 13 e5 74 be a2 a7 d5 be 27 ea db 3b 22 c6 d6 be
       -0.2391551 -0.41729456 0.0067112627 -0.41948038
000160 87 00 14 bf d5 7d 8d be b6 e3 c3 be 75 1a f6 be
       -0.57813305 -0.27635065 -0.38259667 -0.4806706
000170 c1 50 1b 3f da f9 7e bb 3c a5 79 3e 33 2f db 3d
       0.60670096 -0.0038906247 0.24379438 0.10702362
000180 f4 3d 09 bf 38 35 21 bf e0 f7 19 3f cd cc 22 bf
       -0.5361016 -0.6297183 0.6014385 -0.6359375
000190 4b e7 e0 be cb d8 3e 3e cf b4 37 bd 5d 50 65 3d
       -0.43926463 0.18637387 -0.044850167 0.055984844
0001a0 6a 3b 87 be f6 27 b8 3e a3 6c 3a 3e 7b a8 84 3d
       -0.26412517 0.35967988 0.18205504 0.064774476
0001b0 9f 61 04 be 59 64 2f be 15 50 72 bd 49 de 31 3f
       -0.12927864 -0.17128123 -0.059158403 0.69479805
0001c0 a4 eb 6e be 52 dd ce be 21 50 94 be 62 4b 5d 3e
       -0.23332077 -0.4040323 -0.28967384 0.21610788
0001d0 3c 29 ee be 4c ae 27 3f 3e 9f a3 be 72 49 7b be
       -0.46515834 0.6550033 -0.3195743 -0.24539736
0001e0 55 82 30 3f 64 33 d7 bd 3d 36 a2 be c3 fb e1 3e
       0.6894887 -0.10507849 -0.31682006 0.4413739
0001f0 16 9b fa 3c 7b 1f b5 3e ed 8c 0a bf 2e db 95 be
       0.030591529 0.3537558 -0.54121286 -0.29268783
000200 f9 cc 99 be 87 48 1e bb d1 fd 47 3d 6d b9 ff 3d
       -0.30039194 -0.0024152116 0.048826043 0.12486539
000210 04 3b 36 be 31 5a ee be 2a 69 1a 3f 80 02 47 3e
       -0.1779595 -0.46553186 0.6031672 0.19434547
000220 0c fc 81 3b 9a d6 8f be 54 40 99 3e f3 93 41 be
       0.003966814 -0.28093415 0.2993189 -0.18904094
000230 4d 9c 4d 3d 89 bc 23 3f 58 72 0b bc 35 1f 29 bf
       0.05019789 0.63959557 -0.008511148 -0.66063243
000240 b7 12 7a be a4 42 ef be ea d5 98 3d 0c b0 3b 3e
       -0.24421202 -0.4673053 0.07462676 0.18328875
000250 a7 43 eb 3b 74 28 00 3f 60 37 c4 3e 18 53 3e 3f
       0.0071796956 0.50061727 0.38323498 0.7434554
000260 af d9 cc 3e 18 bc 15 3f 2b bc e0 bd d0 3d 24 b8
       0.4000983 0.58490133 -0.1097339 -3.9158214e-05
000270 da ac 12 3f f1 4c ea be a3 96 12 3f fc 9c 37 3f
       0.57295 -0.45761827 0.57261103 0.71723914
000280 24 7b 31 be 5e 06 f1 bd c1 d8 c8 3e 5f 8b 43 3f
       -0.1733213 -0.117687926 0.3922787 0.7638454
000290 c9 50 b9 be b7 74 87 3e 87 85 a1 bd ae b0 a3 3e
       -0.36194447 0.26456234 -0.078867964 0.31970733
0002a0 bb 2d e3 3d 68 e0 c4 be 7a 7a 95 be 4c 16 28 3f
       0.11092707 -0.38452458 -0.29195005 0.6565902
0002b0 d4 e9 15 3f f8 4e 3d be eb d8 bc 3e 6c 21 04 3f
       0.5855992 -0.18487155 0.36884245 0.516135
0002c0 5a 93 f7 3e b7 f8 13 bf 4e 1d 59 be ea 3e 19 bf
       0.48354608 -0.57801384 -0.21202585 -0.59861624
0002d0 84 2f b9 3e b3 d5 f7 be ee 0f 3a 3f d8 f2 0d bd
       0.36169064 -0.48405227 0.72680557 -0.034655422
0002e0 71 d2 02 bf d9 80 1f 3f 31 02 c5 be d4 42 81 be
       -0.5110236 0.6230598 -0.38478234 -0.25246298
0002f0 0b be 1e bf 3e 7f 1f bf 64 db 77 3e 3e 04 eb b7
       -0.6200873 -0.6230353 0.24204785 -2.8016158e-05
000300 8b c3 04 bf a8 bc 0c 3e 7f 16 98 3e a4 43 87 bd
       -0.51860875 0.13743842 0.29704663 -0.06604698
000310 8f 40 9d bd 37 9c ba be 86 48 05 bf 32 c0 6d 3e
       -0.07678329 -0.36447307 -0.52063787 0.23217848
000320 e8 6f 35 3f 91 4a bb be 1e 8e 09 3f d6 5a 95 be
       0.7087388 -0.36580327 0.5373248 -0.29170865
000330 a8 01 27 3f ad 21 51 3f 20 8f 12 3f 0c f4 96 3e
       0.652369 0.8169201 0.5724964 0.29483068
000340 3a 6b 8c 3e ca 22 68 be 9a a3 36 3f d7 9b 95 3e
       0.27425557 -0.22669521 0.71343386 0.2922046
000350 1c 65 6e be e8 98 2e bf 0a 06 39 3e 2e e2 a1 3e
       -0.23280758 -0.68202066 0.1806871 0.31617874
000360 ba 67 08 3f 00 e5 80 be 74 db 2c be 82 7d 95 be
       0.53283274 -0.25174713 -0.1688059 -0.29197317
000370 74 b3 aa 3e 20 a8 e9 be c9 02 aa 3e 61 dc 0c bf
       0.33340037 -0.45636082 0.3320525 -0.5502377
000380 8f 42 87 3b 09 03 f4 be b2 2d 33 3f 16 79 13 bf
       0.0041278074 -0.47658566 0.699916 -0.5760664
000390 0c ee 4c 3e 55 62 cc be 5f 72 cd be 54 96 2c bf
       0.20012683 -0.3991877 -0.4012632 -0.6741688
0003a0 78 53 77 be e6 92 e1 3e 0f 67 bb 3e e4 4c 2f bf
       -0.24152935 0.44057387 0.36602065 -0.684767
0003b0 c7 eb 22 bf dc 46 1a bf 24 48 27 be 40 61 3b be
       -0.6364102 -0.6026437 -0.16336113 -0.18298817
0003c0 b1 7b ab be c5 15 85 3e 43 ee af bd 8a ad ae be
       -0.33492807 0.2599317 -0.08590367 -0.34116775
0003d0 d8 ef b6 3e e3 09 e9 3b 23 65 1a bf 78 4f 94 3e
       0.3572986 0.0071117743 -0.6031057 0.2896688
0003e0 70 d6 19 bf 6d ae eb 3e 33 98 0d be 40 1b b9 3e
       -0.6009283 0.46031514 -0.1382759 0.36153603
0003f0 87 4d 77 3c a6 f9 22 3f f1 96 34 3f db c2 39 bd
       0.015094168 0.63662183 0.7054282 -0.045351844

net.0.bias f4 [128]
000000 42 24 29 be 6a 64 08 3f 9b b8 c0 3c 2d cb ee be
       -0.16517738 0.5327822 0.023525527 -0.46639386
000010 87 9c 42 3f f4 73 97 be 0d af ed be 66 21 5e be
       0.7602009 -0.29580653 -0.46422616 -0.21692428
000020 f2 78 2c bf 07 e8 5c bd 38 e5 c8 3e 6e cb 50 3f
       -0.6737205 -0.053932216 0.3923738 0.8156041
000030 03 48 13 3f 95 f5 f3 3e 90 52 6c 3e ad 2f 92 be
       0.57531756 0.47648302 0.2307837 -0.28552
000040 f5 f2 f6 be 5f 16 31 bf 00 11 ed 3e 98 aa 01 bf
       -0.48232237 -0.6917476 0.46302032 -0.5065093
000050 4e de 77 3e ec b3 f6 be ff ad 1d bf e3 3c 95 be
       0.24205896 -0.48184144 -0.6159362 -0.29148015
000060 ea 0c 13 3f 25 15 d2 be da 0a 2a bf bf cf 16 3f
       0.5744158 -0.41031757 -0.6642281 0.58910745
000070 8e 59 a6 3e c7 71 62 3d 05 dd 23 bf 16 c7 3c 3f
       0.324902 0.055284288 -0.64009124 0.7374128
000080 77 b2 3c 3f 6c 66 e2 3e bd 20 12 bf d7 e2 ae 3e
       0.73709816 0.44218767 -0.57081205 0.3415744
000090 fa 05 a2 3e ba 2e 82 3e c5 c7 87 bd f1 b9 f8 be
       0.31645185 0.25426275 -0.066299 -0.48579362
0000a0 93 1a 45 bf 34 f9 ff be 15 e3 69 be 3b bc ed be
       -0.76993674 -0.49994814 -0.22840531 -0.4643267
0000b0 50 65 85 3e 50 a1 bf 3e 03 46 01 be ba 0f d2 3e
       0.26053858 0.3742776 -0.12624364 0.41027623
0000c0 49 1b c5 bd a3 d7 81 be 42 d8 80 3d 3c 42 fc 3e
       -0.09624345 -0.2535983 0.06291248 0.49269283
0000d0 cb e7 22 3d 72 c6 81 3d 42 53 3a 3f 4f 24 2d bf
       0.039771836 0.063366786 0.7278329 -0.6763353
0000e0 6a 57 39 bf d4 1e 29 3f a7 8a 04 3e e2 40 c7 3d
       -0.7239901 0.66062665 0.12943517 0.09729172
0000f0 e5 12 6c be fa 03 18 bf 65 6e 3d 3f 10 84 ef be
       -0.23054083 -0.5938107 0.73996574 -0.46780443
000100 2c 53 3c 3f 3b 6d 26 bd 90 2a 45 3e a7 76 cb be
       0.7356441 -0.040631514 0.19254518 -0.39738962
000110 83 20 a3 be 93 a9 d0 3e d0 7d e4 be 78 fb 21 bf
       -0.31860742 0.40754375 -0.44627237 -0.63274336
000120 b3 38 ee 3d 64 a6 73 bd 44 d3 1e bf b5 31 b4 be
       0.11631908 -0.059484854 -0.62041116 -0.35194173
000130 5b 49 08 bf 83 8c 8a be a4 cd d0 3e fc 81 28 3f
       -0.5323693 -0.27060327 0.4078189 0.6582334
000140 38 42 ec 3e 62 67 16 3e 62 c7 02 3f 6c 00 72 be
       0.4614427 0.14687875 0.51085484 -0.23632973
000150 1b 59 2b 3f c0 8b 9b 3b ca 97 e1 3e f7 32 27 be
       0.6693284 0.004746884 0.44061118 -0.16328035
000160 be 3a 0a 3e 59 30 06 3f 11 12 43 3f 38 77 05 bf
       0.13498971 0.5241752 0.7619944 -0.5213504
000170 8a 7b 91 3e 5f a0 8c bd 61 49 bc 3e 66 df d8 3e
       0.28414565 -0.06866526 0.36774734 0.4235794
000180 a8 b3 52 3f 90 41 19 3f b1 ac ae 3e 46 59 c1 be
       0.82305384 0.59865665 0.34116128 -0.37763423
000190 e7 db 2d be af da 40 be 75 0d d2 be 0a 1f 23 3f
       -0.16978417 -0.18833421 -0.41025892 0.63719237
0001a0 64 7e d6 bd d6 42 bb be e9 fd e4 3e ff 13 13 3f
       -0.10473326 -0.3657443 0.44724968 0.57452387
0001b0 78 19 01 3e 4a e6 25 3f 12 a1 6c be b8 9f 3d 3f
       0.12607372 0.6480452 -0.23108318 0.74071836
0001c0 47 8a 09 bf 42 1b 2c bf b6 bb 06 bf ad 3e 00 bf
       -0.5372662 -0.6722909 -0.52630174 -0.50095636
0001d0 06 b3 bf be 07 be 2f 3e d9 58 9a be 41 42 03 3f
       -0.37441272 0.17162333 -0.3014591 0.5127297
0001e0 84 a4 d5 3e 0b 95 a8 3e fc e5 08 be 7e b9 07 bf
       0.41727078 0.3292621 -0.13368982 -0.53017414
0001f0 d1 df ae be 8b ec a6 bd 2f ba 50 3f 18 53 c8 be
       -0.34155133 -0.08150586 0.81534094 -0.39125896

net.2.weight f4 [128, 128]
000000 8f 11 80 3d 11 f3 0e be b6 c9 0d 3c cd 59 b4 3d
       0.06253349 -0.1395991 0.008654049 0.08806191
000010 7b 6c b3 be 7f 71 59 3d d7 b3 3f be 71 85 82 3d
       -0.35043702 0.053086754 -0.18720947 0.06373108
000020 38 f3 72 bd 1b 2e 1d be 3a 6b 34 3c f4 66 d5 bc
       -0.059313983 -0.15349619 0.011011893 -0.026050068
000030 dc 70 2a bd 1e 89 19 bd 58 82 23 be 91 db 70 bb
       -0.041611537 -0.03748428 -0.15967691 -0.0036751966
000040 1c 44 23 3c 3a 73 bc bc d9 6a da bd 91 80 ef bc
       0.009964969 -0.023004163 -0.10664911 -0.02923611
000050 77 bf 2d bd 9c 7d 14 be 0d 42 f3 3c 15 ee cc 3b
       -0.042418923 -0.14501041 0.029694581 0.0062539675
000060 44 7d 91 bd 4e 16 3a bd 91 61 d8 bd a8 a3 a6 bb
       -0.07103971 -0.045431428 -0.10565484 -0.0050854273
000070 6f 6c 0b be 56 49 33 3d 8a 7a 98 bd 3d c1 8a bc
       -0.13615583 0.04377111 -0.074452475 -0.016937846
000080 a1 40 2d bd 22 06 b1 bd 28 cd 69 bf 30 3d b6 bd
       -0.042297963 -0.08643748 -0.9132867 -0.08898389
000090 39 62 9e bd 2d 20 ea bd 16 dc c9 bd 58 f5 c3 bc
       -0.07733578 -0.11431918 -0.09856431 -0.0239207
0000a0 2b 1f 74 3c b9 c7 93 be 6b 35 2b bd 1c 2a 4a 3d
       0.014900009 -0.28863314 -0.04179899 0.049356565
0000b0 66 bc 4f bd cc d1 99 3d ba da 81 3d 6a bf 6a 3c
       -0.05071678 0.07510719 0.06340547 0.014327863
0000c0 77 73 96 bd d7 e0 a3 3d 79 b7 45 bb 19 7d 89 3d
       -0.07346242 0.08001869 -0.0030169173 0.067133136
0000d0 30 13 11 3d e0 1d f2 3c 30 c2 d2 3b 2a 55 8f 3d
       0.03541869 0.029555261 0.0064318404 0.06998666
0000e0 d8 24 f1 be 0f fc 8a be 09 66 1c 3d bd 6e f7 bd
       -0.47098422 -0.2714543 0.038183246 -0.120816685
0000f0 80 f8 5b 3d 05 9f 28 bd 5c f0 72 3c 91 3c e8 be
       0.053703785 -0.041167278 0.014827814 -0.45358709
000100 db fd 6d 3d 6b 58 eb bd 95 ee 64 3d a1 08 9c bd
       0.058103424 -0.11491474 0.055891592 -0.07618833
000110 35 64 6c bd 4d cb 18 3d 40 ac 7a be 3c 5b b0 bc
       -0.057712752 0.037303258 -0.2447977 -0.021527879
000120 71 a4 46 3d 1c 93 a8 bd ce 85 46 3d c7 c9 af bd
       0.048496667 -0.08231184 0.04846745 -0.08583408
000130 bf 55 79 3c c1 ba 48 3d 09 ba 8b bc 95 cf bf bd
       0.015218197 0.049006227 -0.017056482 -0.09365765
000140 c2 86 01 3d 6a 71 95 be 8c cc 8c be 11 8b 8c bc
       0.031622656 -0.2918809 -0.27499807 -0.017156156
000150 54 6f c0 3d 77 16 30 3d 13 de b3 3c 59 29 0a be
       0.09396234 0.042990174 0.02195648 -0.13492335
000160 fc c9 1b bc c6 56 2e 3b 94 73 d7 3c 12 24 05 be
       -0.009508606 0.0026602014 0.02630023 -0.13002041
000170 aa 22 12 3d e6 d2 46 be d8 30 05 bc 9f e7 c3 bc
       0.03567759 -0.19416389 -0.008129321 -0.023914156
000180 90 6b 77 bd 27 a8 fb 3c 39 e3 0b 3e 75 25 26 3d
       -0.060405314 0.03071983 0.13660897 0.040563066
000190 ed 49 27 3d a5 45 e3 bc 0c 91 fe bd ef 0b 11 3d
       0.040841985 -0.02774317 -0.12430009 0.03541177
0001a0 ad 16 ce 3d 76 46 a4 bd 5a 0d d3 bb 85 19 82 bd
       0.10062919 -0.08021252 -0.0064408006 -0.06352524
0001b0 10 91 a3 bc 25 b6 17 3d ac 6b a9 3d 32 ab cb 3c
       -0.019966632 0.03703894 0.0827249 0.024861906
0001c0 e2 3b cb 3b 92 12 66 3b 57 a5 f9 bd 69 fa 25 be
       0.006202207 0.0035106284 -0.12189739 -0.16208805
0001d0 b4 2f a5 3d b8 19 31 3c 64 74 4b bd 51 8f 0d 3e
       0.08065739 0.0108093545 -0.049671546 0.13824202
0001e0 0d bb 68 be d0 0c bf 3d a5 8a 4d 3d f9 25 8f 3d
       -0.22727604 0.09328616 0.05018105 0.069896646
0001f0 f4 e0 9b bc f4 f4 bc bd c5 b4 d4 bd 60 83 ad bd
       -0.019028164 -0.092264086 -0.103860416 -0.084723234
000200 23 64 63 bf 4c 2a e1 3d 95 65 1e 3d 07 42 8e bd
       -0.8882467 0.109943956 0.038671095 -0.069461875
000210 01 90 b1 3d 48 93 22 bf 12 2e de bd 1b 5b 15 bf
       0.08670045 -0.63505983 -0.10848631 -0.5834214
000220 c1 66 5d be a4 7f e7 bd 7c 00 36 bb 3d e9 d3 3c
       -0.21621229 -0.113036424 -0.0027771285 0.025868053
000230 66 db 67 3d 76 14 77 bd 4b 25 8d bd 8b 09 61 bf
       0.05660572 -0.060322247 -0.06891879 -0.87905186
000240 95 53 99 be fa c3 c4 bc 5c 08 ae bc 28 52 10 3d
       -0.2994658 -0.02401923 -0.02124422 0.0352346
000250 4e 92 74 3d 0b 18 2c bf 1b 5f bc 3a f1 ca 2e bf
       0.05970984 -0.67224187 0.0014371605 -0.68278414
000260 69 1b b6 3d 6f 15 90 be 6d 62 24 be 6c 2d b9 ba
       0.08891947 -0.28141353 -0.16053171 -0.0014127917
000270 32 69 1e 3d a3 20 c6 be 08 1c 3a bd 4d 08 2a bd
       0.03867454 -0.38696775 -0.04543689 -0.041511822
000280 f9 27 17 3d 62 ef 58 bd 91 38 6d bd 90 b0 ae 3d
       0.036903355 -0.05296267 -0.057915274 0.085297704
000290 79 44 3a bd c7 9d b4 bb b8 31 8d bd 63 35 0a bf
       -0.045475457 -0.0055119726 -0.06894249 -0.5398771
0002a0 51 64 fa be 0f a3 66 bd 43 a9 02 be 38 d6 8f bc
       -0.4890466 -0.05630785 -0.1275988 -0.017558202
0002b0 50 72 48 3c f6 29 56 bc 10 38 a9 be d4 7a 22 bd
       0.0122342855 -0.013071528 -0.33050585 -0.03966792
0002c0 f0 1b 45 bd 6b 94 8e bf dd b6 6b bd 94 61 31 3d
       -0.048122346 -1.1139044 -0.05754744 0.04330595
0002d0 bf fa c6 bd 12 e8 39 bd 8d c8 06 3e dd 89 27 be
       -0.09715795 -0.045387335 0.13162442 -0.16361184
0002e0 2d 25 03 3e 7f a6 ab 3d 5a fd bd bd a2 13 d2 3d
       0.1280715 0.08381366 -0.092768386 0.10257651
0002f0 21 5c d2 be d0 1b 97 bd e4 2f aa 3d 87 ae 4f bd
       -0.41085914 -0.07378352 0.08309916 -0.05070355
000300 e1 6f d2 3d 16 0f 9b bd 04 89 52 bd a3 18 04 bf
       0.102752455 -0.07571237 -0.0514002 -0.5160009
000310 b0 0d bb 3c 1a f7 04 3e f5 d8 ef bd 61 35 11 bd
       0.022833675 0.12984887 -0.11711303 -0.035451297
000320 a1 08 00 bd 07 ce b0 3c 0a d1 89 be e5 63 85 bd
       -0.03125823 0.021582616 -0.26917297 -0.06513194
000330 3c a1 6f 3d 5d cd a1 3f 6f 36 82 bd 89 16 b0 3d
       0.058503374 1.2640797 -0.06358039 0.08598048
000340 b5 7f 85 bc a4 09 a6 bc 32 76 fd 3d 29 b5 6a bd
       -0.016296247 -0.020268269 0.123760596 -0.057301674
000350 26 5b 69 bd 41 62 12 3d 5c 6b 28 bd fb 0e a4 bd
       -0.05697169 0.035738233 -0.04111801 -0.0801067
000360 18 fe e6 be 2e 94 9b bd 44 ee 3d 3c f0 bb 97 be
       -0.45115733 -0.075966224 0.0115924515 -0.29635572
000370 48 10 54 bd df cc f0 bb bf 58 75 bd 8a 04 43 bc
       -0.05177334 -0.0073486413 -0.059899088 -0.011902938
000380 3e 55 f4 3d 3d 06 a4 3d 3e 25 49 bd 65 6f 77 bd
       0.11930321 0.08009002 -0.049107783 -0.06040897
000390 47 26 05 bf 9e 24 2f bf 2e 40 1b be 8d d7 f7 3b
       -0.5201153 -0.6841525 -0.15161201 0.0075635375
0003a0 09 74 66 bf a9 ec be be 81 71 84 bd 46 05 dc 3d
       -0.90020806 -0.37289932 -0.06466962 0.10743193
0003b0 1a a6 f9 bd a8 be 58 3d f0 4b 1b be 9e 29 e2 3d
       -0.121898845 0.0529162 -0.15165687 0.11043094
0003c0 8a 4d 8e 3c 71 70 19 be 1d f8 40 3d 80 9d 91 3c
       0.017370958 -0.14984299 0.04711162 0.017775297
0003d0 ea 3f 57 3d c3 48 cf be 10 8d 18 be 73 4d 04 3e
       0.052551188 -0.404852 -0.14897561 0.1292017
0003e0 51 f0 d4 bb 1b 25 fe bd 22 cd 53 be 53 09 81 3c
       -0.0064983745 -0.12409421 -0.2068372 0.015751516
0003f0 a6 06 a3 3d d3 76 a5 bd db 0b f9 3d 0e 9b 3e bf
       0.079602525 -0.080793045 0.121604644 -0.74455345

net.2.bias f4 [128]
000000 96 36 00 bc 8c 5e 3b 3e 29 ef 18 bd 79 9b 1c bd
       -0.007825514 0.18297786 -0.037337456 -0.038234208
000010 f1 99 19 bc 96 41 44 3e 63 ed d6 bd 1f a0 da 39
       -0.009375081 0.19165644 -0.10494497 0.000416995
000020 f7 89 b2 3d 13 de 89 bd 1c 35 8d 3d 3c 44 bb 3d
       0.08717721 -0.067318104 0.068948954 0.09143874
000030 c3 26 60 bc ae a2 3b 3d 0d e5 e9 3d 30 3b 07 bd
       -0.0136811165 0.04580944 0.11420641 -0.03301543
000040 21 2d 5c bb fc f5 c7 bb eb 65 0a 3e 04 27 66 3e
       -0.0033596235 -0.0061023217 0.13515441 0.22475821
000050 6e c2 da 3d b7 b4 6b 3d c1 f5 bc bc 04 18 f6 bc
       0.10681616 0.05754539 -0.023066403 -0.030040748
000060 c9 b5 1c bb 85 0e 19 3e d7 e3 d2 3c fa 18 44 3e
       -0.0023912063 0.14946945 0.025743408 0.19150153
000070 a7 78 84 3b ec 54 e2 bd 8f ec 03 3e 5d 4a 19 bc
       0.004042703 -0.11051354 0.12883209 -0.0093561085
000080 82 c1 04 bc 70 e1 83 3e 0c f3 a7 bc fc 0d cb bd
       -0.0081027765 0.25757933 -0.020501636 -0.09914777
000090 c2 02 50 3d a1 c5 06 be db cb cd 3d 20 a4 78 3d
       0.05078388 -0.13161327 0.10048648 0.060703397
0000a0 3c 0f 94 3c 9a f5 84 3c 1c 3d 15 be 40 eb fe bb
       0.01807367 0.016230393 -0.14574093 -0.007779509
0000b0 bb 7f 8a bd bb 5e 1c 3e a2 20 e6 bd c4 0b 5a 3e
       -0.06762644 0.15270512 -0.11236693 0.2129355
0000c0 ae 0b e4 3d 7b 75 ac bd c3 ee a5 bc 65 af 47 be
       0.1113504 -0.08420845 -0.020255452 -0.19500501
0000d0 b2 28 1e be e2 e3 fa 3c 87 d9 68 bd a4 7c e4 bd
       -0.15445212 0.030626241 -0.056848075 -0.11156586
0000e0 1e 20 4d bd 0a e1 0c 3d 1a 35 54 bd 7f de b6 3d
       -0.050079457 0.0343943 -0.051808454 0.089291565
0000f0 e0 23 5c 3d 7d 8c 8c bd 5d ce a7 3d 6d a8 23 bd
       0.05374515 -0.068627335 0.081936575 -0.039955545
000100 e4 15 8e bd 9e 37 65 3e 0d d6 ad 3c 75 7b 96 3d
       -0.06937769 0.22384498 0.021220231 0.07347766
000110 f0 58 a2 bd 4f 8d 83 bc 3e 84 7c 3d 92 29 a0 3c
       -0.0792712 -0.016058592 0.061649553 0.019551072
000120 28 e1 51 3e f9 f6 95 bc 7b 02 fe bd 86 47 53 bd
       0.20496047 -0.018306242 -0.12402817 -0.051581882
000130 95 be 81 3d aa fc 55 bd 45 29 8d bc 2f 45 bd 3d
       0.06335179 -0.052242912 -0.017231593 0.09241711
000140 4a 12 7c bd a4 6d 02 be 44 74 11 3d 65 96 18 3d
       -0.06154088 -0.12737137 0.03551127 0.037252802
000150 44 1f 58 3d 77 fd ef bd 3b dd 4e bb da 17 4c 3d
       0.052764192 -0.117182665 -0.003156497 0.049827434
000160 e2 c6 55 3c 17 de 2d bd 1c 0b 69 3b d0 fb e5 3c
       0.013047906 -0.04244813 0.00355596 0.028074175
000170 7c fc fb bc a7 13 61 3d a0 04 2a 3d 29 8d 01 bd
       -0.030760042 0.054950383 0.041508317 -0.03162876
000180 65 81 2f 3e cf 4e bc 3d 13 70 45 bd 59 b0 8f 3d
       0.17139204 0.09194719 -0.048202585 0.070160575
000190 99 14 56 3e 3b fe 03 bd 99 b9 53 3e e4 1e 63 3d
       0.20906295 -0.032224875 0.20676269 0.05544938
0001a0 db 71 2f be 82 ad a8 3b e4 88 d6 bc 9a 67 0b bd
       -0.17133276 0.005147637 -0.026188321 -0.03403435
0001b0 d4 ce e5 bd db 70 59 bd de 0f 82 bd 2e 8f 92 3d
       -0.1122109 -0.053086143 -0.06350683 0.071562156
0001c0 57 95 00 be 3a 6f 35 bc 0b 9a b5 bd 10 78 b7 3d
       -0.12556969 -0.011073882 -0.08867272 0.08958447
0001d0 08 46 4b 3e 69 f6 40 3d 46 1b 09 3e 9a 6e 15 3e
       0.19850934 0.047109995 0.1338931 0.14592972
0001e0 48 c7 1d bc ad 2e e5 3d 97 53 35 bd 40 cb bc bb
       -0.009630032 0.11190543 -0.04426917 -0.005761534
0001f0 8c 49 ab bd 13 18 59 3c bb 5b 33 3d 7b 6a 8f 3d
       -0.08363637 0.013250369 0.043788653 0.070027314

net.4.weight f4 [1, 128]
000000 58 fb d0 bc f8 2f 3f bd 8d 6e 80 bd c0 30 7c 3c
       -0.025510475 -0.046676606 -0.06271086 0.015392482
000010 77 20 80 3d d2 b1 c9 bd 39 94 0c be 53 e0 19 bd
       0.06256192 -0.0984837 -0.13728417 -0.037567448
000020 78 d5 ef bd 34 2a 74 3d ed 54 60 3d c6 5d b1 bd
       -0.11710638 0.05961056 0.05476849 -0.08660464
000030 48 eb fb 3c 45 38 9a bc e6 59 c9 bd fc f6 ca 3d
       0.03075184 -0.01882566 -0.098316 0.0991039
000040 33 0b a1 bd 4e 08 15 bd 69 ee 90 bd 9f 8d 84 bd
       -0.07863464 -0.036384873 -0.07076723 -0.064723246
000050 dd 80 1b bd 43 30 34 be 91 52 8f 3a 1f 4e af bd
       -0.03796469 -0.17596535 0.0010934641 -0.08559822
000060 7f e1 79 bd db af eb bd 40 9a 93 3d b7 c4 5e bd
       -0.061006065 -0.11508151 0.07207155 -0.05438682
000070 8f d0 41 bd 8b b2 cc bd eb 43 1b bd 46 7a 3b be
       -0.047318038 -0.09994992 -0.03790657 -0.18308362
000080 56 62 a1 bd f5 79 7b bd fc b9 52 3d 50 0b f0 3b
       -0.07880084 -0.061395604 0.0514469 0.0073255673
000090 18 0c 25 3d 10 48 f5 3c 1b 67 df bd 53 61 10 be
       0.040294737 0.029941589 -0.10908338 -0.14099626
0000a0 27 e9 60 3c 14 b4 f8 b9 06 4a 5b 3d 96 99 f0 39
       0.013727463 -0.00047436415 0.05353739 0.00045890798
0000b0 5c 40 06 bf e2 59 6d bd 76 4d 8a 3c 97 9a e8 bc
       -0.52441955 -0.057947047 0.01688264 -0.028394027
0000c0 42 8e 01 bc 3e c4 6a 3d c8 fe c1 3d 0a 5f 89 3d
       -0.007907452 0.057316057 0.09472424 0.067075804
0000d0 e9 54 5c 3b 2c e6 da 3c f0 df e7 3d e6 df 16 3c
       0.0033619946 0.026721083 0.113220096 0.009208655
0000e0 9c a3 71 bd dd 41 68 bd 8c 5c 10 bd 30 94 6e bd
       -0.05899392 -0.056703437 -0.03524451 -0.05824679
0000f0 68 89 d3 bd 49 66 6e 3d 0f 6b 16 3d b1 5b 86 3d
       -0.103289425 0.058203015 0.036723193 0.065604575
000100 a5 5b 5e 3d 0a 74 09 bd 95 b7 5c bd 5a 50 2a be
       0.054286618 -0.03355793 -0.053886015 -0.16632214
000110 b4 96 cf 3b 60 6f 2a 3e 97 67 81 bd 5c 85 1e 3e
       0.006335104 0.16644049 -0.06318586 0.1548056
000120 c7 4a bc bd ad bf a2 bd 3d 8c 7d 3d da c4 ca 3a
       -0.0919395 -0.079467155 0.06190132 0.0015470043
000130 08 a3 9f bd 69 6b a1 3c bb 74 ea 3c 12 de ca 3a
       -0.077947676 0.019704537 0.028620115 0.0015477559
000140 b1 1d 97 3d 43 3a 89 3c c0 0d af ba 3e 75 bf bd
       0.0737871 0.016751414 -0.0013355538 -0.09348534
000150 64 e6 9a bd f2 93 a0 bd 53 4e bb bd 4b 7f 04 be
       -0.07563475 -0.07840718 -0.091457985 -0.12939183
000160 af 30 7d 3d 1b bd ce 3d e8 80 22 3d b5 5b a8 bc
       0.061814006 0.10094663 0.039673716 -0.020551542
000170 80 b2 c4 3d bc 88 29 3e 71 9e 60 bd 4d be da bd
       0.09604359 0.16556066 -0.0548386 -0.10680828
000180 ba cb c2 bc 49 40 de bd 01 b7 02 be 35 ff b1 bd
       -0.023778785 -0.10852105 -0.12765123 -0.08691255
000190 f6 e0 b9 bd fb 1a ba bd b8 ba ce bd 0d 82 c9 bd
       -0.09076111 -0.09087177 -0.100942075 -0.09839258
0001a0 8a cb 61 3e 9f ac 9b 3d 5f d8 b1 3d ec e4 42 3b
       0.220503 0.07601284 0.08683848 0.00297385
0001b0 76 d7 15 be 42 c8 82 3d fc 7a 10 be f2 12 3c 3e
       -0.14632973 0.063858524 -0.14109415 0.18366602
0001c0 d2 d4 df 3d a4 41 91 3d 9a 29 81 3b c9 4b 56 bd
       0.10929264 0.07092598 0.003941727 -0.052318368
0001d0 1c 4d 66 bd 0b f2 38 3c 77 1c ab bc c8 5f 5f bd
       -0.05622588 0.011288176 -0.020887597 -0.054534703
0001e0 cc f5 8b 3d 5c 53 97 bd 76 36 6d 3b 2e ce b6 bd
       0.068339914 -0.073889464 0.0036195791 -0.089260444
0001f0 bb c8 c4 b9 0a 99 65 3d 8b 7e 06 be 38 be 22 3d
       -0.0003753359 0.056054153 -0.1313421 0.039732188
