benchmarks/nd/dim_64/width_256/deg_8_seed_987.pt (torch, 67623 bytes, 2 tensors)

net.centers f4 [256, 64]
00000000: 45ea 723f e0e4 1240 e73d 1fc0 34f0 64bf
00000010: 51fe 02c0 2f90 a9bf 0482 0e40 90a7 d1bf
00000020: 28e8 94bf f6de eabf f44d 0b3f 13c3 58bf
00000030: c2cc 18c0 dd71 88bf 6c01 303e d80e bebe
00000040: 1c19 1140 f506 0b40 acea 9f3f e265 09c0
00000050: d64c 3e3f e408 0340 504a 21bf f4e0 18c0
00000060: 98b0 f03f da2a 14c0 a49e 1640 2138 0740
00000070: 606e 7e3f 908a 6e3f 7e5f 983f 68af f1bf
00000080: 46fd 0240 5ccf 5d3f 5f3c 1b40 1066 0bc0
00000090: 6dd6 b13f c67d 1c40 cb8c e8bf 8ed7 c63e
000000a0: 7faa e43f 9aa3 15c0 b0be f43f f866 1fc0
000000b0: 912a 06c0 5cb6 00c0 25fb 0dc0 8c97 60bf
000000c0: aee3 a4be 98d1 dbbf b099 5dbd 909e 553f
000000d0: 6e52 dfbe 8cbd 3f3e 9986 0a3f 5ca8 2abf
000000e0: ff0b 743f 922b a6be 4795 25bf eed8 c9bf
000000f0: 0afe 0dbf 6f90 0140 9e94 b3be 30f2 b43d
00000100: 04a7 8ebf e045 e3bd c57f d83f ea03 ff3f
00000110: 108c 813f a122 073f 66bd 0bbf 1605 ecbf
00000120: 76e6 e83e 3ba6 2fbf 6f68 0c3f 9b9a 03bf
00000130: a69f f83f 712b 1b40 d138 9bbf 901e 01c0
00000140: cc18 bb3e 2620 1bc0 c882 48bf 2639 8cbf
00000150: 4c2c 87be 13a5 83bf ac3c 9ebe 7c55 6cbf
00000160: 7847 1cc0 94c0 a53f 21c6 bdbf fa4a 21bf
00000170: 1619 d73f b504 0c40 5ebe 0340 5a78 52bf
00000180: 1970 14bf 1211 163f aa4c 04c0 6c96 7cbe
00000190: 9147 79bf 7c70 9f3f 13dc ce3f 72e5 ca3f
000001a0: 40d9 8dbf 1fd4 4abf 8706 a9bf 90e1 123f
000001b0: 2b18 c63f 66e8 c13f a2c1 04c0 788b f6bd
000001c0: 183e ce3f a14f 433f b51b 4f3f 5604 07bf
000001d0: 1629 d43f 487b d73d 2cc1 28be e0e7 343f
000001e0: 70a9 7e3d f80f 3bbf 56ae cbbf 41a8 e33f
000001f0: 5ca7 8b3f 4bd8 0140 ea51 9d3f 129e e73f
00000200: 1e3d 923f 13c0 0740 d1d8 61bf 4210 c83f
00000210: ca12 823e a67b 0b40 b880 bebf 947f 14c0
00000220: 8e3a b2bf a5e7 90bf 98b6 d63f ba6c 1ac0
00000230: a1ec 503f fc40 0b3e 460b 38bf 01c1 49bf
00000240: fb72 1bc0 2028 dfbd 9678 073f 6ef4 c93f
00000250: b3bd c03f 2fdb 19c0 6040 3ebf 3945 9f3f
00000260: 6c32 0640 36df 0c40 b83a e9be 09d8 163f
00000270: fa47 ae3f b08e 04be 4429 e53f c6b3 c6be
00000280: 9986 cb3f 98d8 f9bf 2dca 1040 9211 d13f
00000290: 1e36 13c0 fa95 17bf 2078 b4bf 7a79 f2bf
000002a0: b258 b8bf d318 be3f ea8f e43f f4a4 d6bf
000002b0: a689 f7bf a450 1fc0 bf6f 0ec0 9aef 1f40
000002c0: 01ef 7a3f 12d0 103f 68bc 91bf 90fe 403f
000002d0: a4b4 a3bf f3fa 183f 6719 14c0 ece8 9a3f
000002e0: 1ae9 1440 8294 963f e230 b5bf 9c25 f7bf
000002f0: 5e08 afbf 80e4 eabd 289a e93f acc2 db3f
00000300: 60a7 07c0 cda6 863f bcf6 71be 7e20 b93f
00000310: f287 bebf 7203 b5bf fcaa ebbf 9212 13c0
00000320: 2417 9c3e 20fa 0d40 8f74 11c0 48b5 02c0
00000330: a99c 1ac0 263f c43f aaf5 ebbf 7074 843f
00000340: e2b3 8c3e f5f6 51bf 086e aa3f dce5 1ac0
00000350: 1f7d 19c0 1250 0740 11cb 163f 7401 143f
00000360: 3808 5d3e f83c debd 042e be3e ed0a 4b3f
00000370: 4af7 13c0 4646 1040 4570 65bf 3a03 1040
00000380: 5c2a bf3f cf46 41bf 8eb5 0d40 2a51 b83f
00000390: aae2 1dc0 b2df 01bf bf62 d33f b397 16bf
000003a0: 3935 61bf 3ab8 aabf 8e65 1cc0 7a88 0640
000003b0: a3bd 8fbf c0b0 1d3e 3dc3 903f 9ae2 25bf
000003c0: 66c1 0340 5004 0dbf 41ca 8fbf eeb9 87bf
000003d0: f02f 1dc0 e426 743f a87a 39be a141 4cbf
000003e0: 1a29 323f cfba 1d3f 1c90 1f40 83f6 3c3f
000003f0: 70e7 12c0 1833 14c0 dea7 883e 71bd 413f
0.94888717 2.2952194 -2.4881532 -0.8942902 -2.0467722 -1.3247126 2.2266855 -1.6379261
-1.1633348 -1.8349292 0.5441582 -0.8467266 -2.3874974 -1.0659748 0.17188042 -0.371207
2.2671576 2.1722996 1.2493491 -2.1468434 0.7433599 2.0474176 -0.63004017 -2.38873
1.8803892 -2.3151155 2.3534327 2.1128008 0.9938717 0.9318018 1.1904142 -1.8881655
2.0467086 0.8664453 2.4255598 -2.1781044 1.3893563 2.4451766 -1.8167967 0.3883633
1.7864531 -2.3381104 1.9120693 -2.4906597 -2.096348 -2.0111303 -2.2184536 -0.8773124
-0.32204956 -1.7173338 -0.054101646 0.8344507 -0.43617576 0.1872465 0.5411163 -0.66663146
0.95330805 -0.32455117 -0.64680904 -1.5769327 -0.5546576 2.0244405 -0.35074323 0.08835256
-1.1144719 -0.11097312 1.6913992 1.992307 1.0120869 0.52787215 -0.54585874 -1.8439052
0.45488328 -0.6861302 0.54846853 -0.51407784 1.9423721 2.4245265 -1.2126714 -2.0174904
0.36542356 -2.4238372 -0.78324556 -1.095494 -0.26400983 -1.0284752 -0.30905664 -0.9231794
-2.441862 1.2949395 -1.4826089 -0.6300503 1.6804531 2.1877873 2.058494 -0.8221489
-0.5798355 0.586198 -2.0671792 -0.24666756 -0.97374827 1.2456203 1.6160911 1.5851271
-1.1081924 -0.7922992 -1.3205117 0.5737543 1.5476125 1.5149047 -2.0743184 -0.1203832
1.61127 0.7629338 0.8090165 -0.5274099 1.6575038 0.10521561 -0.16479939 0.70666313
0.062173307 -0.7307124 -1.5912578 1.7785722 1.0910449 2.0288265 1.2290623 1.8095114
1.1424901 2.1210983 -0.8822146 1.5629961 0.2540496 2.179422 -1.4883032 -2.3202868
-1.392412 -1.1320692 1.6774473 -2.4128861 0.8161107 0.13599008 -0.718922 -0.78810126
-2.4288929 -0.10896325 0.52918375 1.5777719 1.5057892 -2.404003 -0.7431698 1.2443
2.0968275 2.2011237 -0.4555261 0.58923393 1.3615716 -0.12945056 1.7903218 -0.3880903
1.5900451 -1.9519224 2.2623398 1.6333487 -2.300178 -0.5921322 -1.4099159 -1.8943322
-1.4402068 1.4851326 1.7856419 -1.676909 -1.9338882 -2.489297 -2.2255704 2.498999
0.9802094 0.5656749 -1.1385622 0.7538843 -1.2789502 0.5975792 -2.3140504 1.2102332
2.3267274 1.1764071 -1.4155543 -1.9308352 -1.3674428 -0.11469364 1.825017 1.7168784
-2.1195908 1.0519654 -0.23629278 1.4463041 -1.4885237 -1.4141676 -1.8411555 -2.2980084
0.30486405 2.2183914 -2.2727392 -2.0423145 -2.4158118 1.5331771 -1.8434346 1.0348034
0.2748099 -0.8201745 1.3314829 -2.4202795 -2.3982618 2.114262 0.58903605 0.5781472
0.21585166 -0.108514726 0.37144482 0.79313546 -2.3119683 2.2542892 -0.89624435 2.250197
1.4934802 -0.7549867 2.2142062 1.4399769 -2.4669595 -0.50731957 1.651451 -0.58825225
-0.87971836 -1.3337471 -2.4436984 2.1020799 -1.1229748 0.15399456 1.1309582 -0.6479889
2.058679 -0.55084705 -1.1233598 -1.0603616 -2.4560509 0.9537184 -0.18113196 -0.7978764
0.69593966 0.6161317 2.4931707 0.7381365 -2.2953758 -2.3156185 0.26690573 0.7567969

net.bias f4 [256]
00000000: 1391 bbbd 0123 33bd cf63 ca3d 2572 ff3c
00000010: 7e96 c43d 8516 7d3e 8e90 03bc 8186 8b3d
00000020: 4c52 1bba 9f1d 13bd f3ba 70bd 0b1b efbc
00000030: 3860 e83c d566 d5bb fbd5 e3bc 6afa f0bd
00000040: 173c 4dbd f5fb c53d a4a9 b3bd d1c3 373c
00000050: a8fd 243e 255c ff3c af6a ee3d 3ee4 90bd
00000060: b93c 9abd 17e6 59bb d23c 4cbd 6d3c 5bbd
00000070: 2038 003e 2c5d af3e 8ff8 573d c4c0 063d
00000080: ab25 f0bd e577 263d 7903 0dbe 095a 40be
00000090: aab1 353d 4eb0 2dbd e4fd 0f3e 81b3 3f3e
000000a0: ed55 8ebd 1978 163d cbb0 eabb c334 b43d
000000b0: 9ce0 aabd 753d 2d3e 990f 123e 070e 943a
000000c0: 8426 cabd d0c1 6c3a d060 3a3e d4be 18be
000000d0: 505c 66bc 6a78 583d 598e a23d ea44 713d
000000e0: c438 93bd b550 f43c 571c dfbd e6b7 05be
000000f0: a192 abbc 5036 e7bd 6f49 a53d aac8 793d
00000100: 7b89 a83d 0173 073e 12db 2abc c87d 5cbd
00000110: 94cd 00be 1879 b9bc 8a15 43be 0faa f13d
00000120: 3faf f73b cb92 d3bc 4811 9a3d b916 10bd
00000130: c0d4 f9bb 3cb7 3b3d 0b4e 01be 5413 a83d
00000140: 7819 213e 8793 80bc c020 9bbd 8726 8f3d
00000150: f7bf 25be a13f b5bd df6e b53d 0a8e 813d
00000160: 058a 78bb 8845 0c3e f7f6 9c3d 512e 0c3e
00000170: cf51 eabd 9886 d63d 1f51 93bc af6b 973d
00000180: b3b7 7a3d 1f94 063e b25f 5b3d b7fd c6bc
00000190: c3d8 4f3e 07bf 9c3c 2b69 be3d e393 f13b
000001a0: 28f0 f53d 4b10 6ebe 2381 b73d dbef 11be
000001b0: 9db3 6a3e ebb1 f0bd b0f4 eb3d 25f5 c03d
000001c0: 47b8 a9bc 52a2 63be 2a28 3dbb 853f 453e
000001d0: 7868 ee3d b095 9bbd afbe 89bd 2a56 2d3d
000001e0: b721 023b 0fbe e5bd 44e1 8b3d 10de 55bc
000001f0: e89a edbd c2e0 173d 0f88 a33b ed0b 11bd
00000200: f243 00be fe21 1ebc f04e 1bbd ef2a 50be
00000210: b38a 01be da3e 35be 03b0 4a3e c45c a9bd
00000220: d02c f53d bff8 453e 95df c9bd fdf0 8abd
00000230: fb11 da3d 2b20 813d 23d7 ed3b 5a48 86bc
00000240: 1b37 e2bc 7d02 a1bd 4fc4 783d d994 87bd
00000250: bf00 bebc 7c72 2b3e e163 0d3e edee 263d
00000260: 041a 893d 9e7f ca3a 7056 ba3d f7ab e73d
00000270: 63fa 7cbc 9783 9f3d 39a5 8ebd f706 453e
00000280: c878 e5bd 6743 633d 5d4c a2bd 2b05 49bd
00000290: fab4 b73d f54a 32bc 2671 163d 9ac0 353e
000002a0: add8 08be 774f 2d3d b70d 71bd 3b5e 933d
000002b0: a301 3ebe 0a8b b8bc 84eb 40bd 13ba 403d
000002c0: e4c8 b8bc 8772 5bbd 4d81 2ebc 3ad2 e83c
000002d0: 2f04 e1b9 d36b 90bd 274e d8bb b8ba eebc
000002e0: 5fde a436 9762 6c3c c81d 4dbd 29df 053c
000002f0: 58a0 f93d 2eac 333d ce24 ba3d 8f57 513d
00000300: dcb4 183c 5fab 03bd 3d01 2bbe 8dde 5ebd
00000310: 4d96 f0bd 980c 45bd a83f c8ba 0dea 65bd
00000320: ec12 813e 523c a23d c12e af3c 91b7 c3bd
00000330: c1aa 2abe a1b4 9fbd 36a4 adbd ff52 81bd
00000340: 8938 b0bd 8bcb b0bc 13c5 68bd 4cc8 2abe
00000350: a067 123d b330 77bc b862 92bd ab82 3dbd
00000360: a49d 98bd b378 043e dfa0 8c3d e564 3b3c
00000370: 6bd7 6f3d 402a d03d c5a0 143e 1b45 1fbe
00000380: 12bb 56bb 422e be3d 9fb0 1d3e 82f9 f6bc
00000390: ee11 053e e5ae fb3d f7bb 1b3e ee71 2e3b
000003a0: 83b1 e5bc de41 043c 8f45 8f3d d77b 8fbc
000003b0: cb1f c4bc 13e6 debc 2b51 1e3d 6f3a 263e
000003c0: 38a9 39be 87a2 a63d 0896 09bc 2b01 463d
000003d0: 0fad 143d 125b ba3d 7ff3 bd3d 3188 05be
000003e0: 74c3 853d 0760 d83c e080 de3d 5755 5cbd
000003f0: cd2c b3be aa21 1b3e c2c4 49bb 7964 253e
-0.0915853 -0.043734554 0.09882318 0.031182358 0.095990166 0.24715622 -0.00803007 0.06812764
-0.0005925044 -0.03591692 -0.05877204 -0.0291877 0.028366193 -0.0065125027 -0.027811995 -0.11766513
-0.050106134 0.096671976 -0.08772591 0.01121612 0.16112387 0.031171868 0.11641442 -0.07074784
-0.07531113 -0.0033248716 -0.04986269 -0.053524423 0.1252141 0.34250772 0.05272728 0.03289868
-0.117259346 0.040641684 -0.13770856 -0.18784346 0.044358887 -0.042404465 0.14061695 0.18720819
-0.06949983 0.036735628 -0.0071621886 0.08799126 -0.08343622 0.16917975 0.14263763 0.0011295684
-0.098706275 0.0009031566 0.18200994 -0.14916545 -0.014060095 0.05284921 0.07937307 0.058903612
-0.071885616 0.02982364 -0.10894077 -0.13058433 -0.020943942 -0.11289656 0.08070647 0.060982384
0.08229347 0.13227464 -0.010428207 -0.05383089 -0.12578422 -0.02264075 -0.19051185 0.11800014
0.0075587328 -0.025826832 0.075228274 -0.03517792 -0.0076242387 0.045829043 -0.12627427 0.082068115
0.15732372 -0.015695347 -0.07574606 0.069897704 -0.1618651 -0.08850027 0.088590376 0.0632592
-0.0037924063 0.13698399 0.07664292 0.13689543 -0.11441385 0.104748905 -0.017983017 0.07393586
0.061210345 0.13142441 0.05355806 -0.024290903 0.20297532 0.019134058 0.09297403 0.007372366
0.12008697 -0.23248403 0.08960178 -0.14251654 0.2292008 -0.11752685 0.1152128 0.094217576
-0.020717753 -0.22229889 -0.002886305 0.19262512 0.116410196 -0.0759691 -0.06725823 0.0423185
0.0019856521 -0.112178914 0.068300754 -0.013053432 -0.11601812 0.03707958 0.0049905847 -0.035411764
-0.12525919 -0.009651659 -0.037917078 -0.20328878 -0.12650566 -0.17699757 0.19793706 -0.08269647
0.11971438 0.1933317 -0.09857098 -0.06784246 0.10647961 0.06304964 0.0072583123 -0.016391922
-0.027614167 -0.07861803 0.06073409 -0.06620187 -0.023193715 0.16742891 0.13807632 0.0407552
0.06694415 0.001544941 0.09098518 0.113120966 -0.015440556 0.07788771 -0.069651075 0.19240938
-0.11204678 0.0554842 -0.079247214 -0.049077194 0.089700654 -0.010882129 0.036729 0.17749253
-0.13363905 0.04231211 -0.05885097 0.071957074 -0.18555312 -0.022527236 -0.047099605 0.047052454
-0.02255673 -0.05357602 -0.010650945 0.028420556 -0.0004291846 -0.07051816 -0.0066011134 -0.029141769
4.9134683e-06 0.0144278025 -0.05007723 0.008170881 0.12188786 0.043865375 0.09089051 0.051108893
0.009320464 -0.032145854 -0.16699691 -0.05441146 -0.117474176 -0.048107713 -0.001527776 -0.05613141
0.2520975 0.079216614 0.021384599 -0.09556497 -0.166667 -0.07798124 -0.084785864 -0.063146584
-0.08604533 -0.021581432 -0.05682857 -0.1667797 0.035743356 -0.015087294 -0.07147735 -0.046267193
-0.074519426 0.12936668 0.06866621 0.011437629 0.058555048 0.101643085 0.14514454 -0.15553705
-0.0032765311 0.09286167 0.15399407 -0.030148271 0.12995121 0.12289218 0.15208422 0.00266182
-0.028038746 0.008072345 0.06995689 -0.017515106 -0.023940941 -0.027209317 0.038651627 0.16233228
-0.18130958 0.081364684 -0.008397587 0.048340958 0.036297854 0.090994015 0.09274959 -0.13040234
0.0653142 0.026412977 0.10864425 -0.053792324 -0.34995118 0.1514956 -0.0030787443 0.16151609
