checkpoints/nd/dim_2/width_256/method_wgan-lp.pt (torch, 69975 bytes, 5 tensors)

net.0.weight f4 [128, 2]
-0.619369 -0.2283244 -0.053267207 -0.050670184 0.37144414 -0.25958002 -0.43751824 -0.21771283
-0.45057216 0.7346491 0.05358692 -0.26120588 0.1261312 -0.2786627 -0.8084743 -0.02956819
-0.72126174 0.064178064 -0.43383914 -0.29603186 -0.509326 -0.31315026 0.45931962 0.02994557
-0.2670516 -0.54980063 0.7476959 -0.15488565 0.05312903 -0.47040376 -0.20578386 -0.22101319
-0.5808315 -0.38996556 0.5154224 0.18705608 0.30420238 0.31474474 -0.41545936 -0.4712248
-0.05656865 0.4936679 0.19648874 0.30427158 -0.105732985 -0.15355554 0.06597954 -0.016986866
-0.047025878 0.41214055 0.75718594 0.084379606 0.09013965 0.14872697 0.6194161 0.04341367
-0.09747495 -0.5491661 -0.3559864 -0.26127782 -0.5196366 0.55519277 0.08876535 0.41928908
0.50742203 -0.39132807 -0.35575727 -0.31325823 0.57541484 0.45583552 -0.6134662 0.5828495
-0.11207942 -0.66091585 0.43868878 0.1914994 -0.30328754 0.51680464 0.090490505 -0.12031017
0.29648584 0.06763457 0.3504034 -0.4287436 -0.072746485 -0.2660364 -0.4325726 -0.75926805
0.5184654 0.53368974 0.309823 -0.47145593 0.4995945 0.21541123 -0.4224279 -0.6943303
-0.15545718 -0.29035458 -0.47187528 -0.5936763 -0.3226227 -0.24173293 -0.35756317 -0.41991204
0.682087 0.551583 0.06859307 0.041634846 -0.115152426 0.5869248 -0.43675238 0.57646227
0.5138014 0.32789326 0.15662958 -0.23389664 0.052097116 0.3484908 -0.0293625 -0.4168266
0.586279 -0.5888128 0.038938634 -0.48390856 0.19282757 0.23880515 -0.568837 0.30348167
0.14706348 -0.4284838 0.17657445 -0.71632886 -0.3743798 -0.5951918 0.48278508 0.24709342
0.22594152 0.18358304 0.542014 -0.5043711 0.43336025 -0.102484055 0.6164811 -0.10782442
-0.2797831 -0.40890452 0.5017684 0.40026334 -0.07364761 -0.5208633 -0.41494647 -0.44202477
0.024013946 0.43281624 0.022977557 0.642793 0.14954233 -0.51896393 0.34278223 0.24063176
0.08261046 -0.21788192 0.17823549 0.612202 -0.7268179 0.2288028 -0.00945568 -0.7676598
0.44653356 -0.050956864 -0.4606971 0.51071745 0.05402886 -0.051910643 0.6573896 -0.17073688
-0.20672177 0.48929405 0.34694773 -0.041902933 0.51769996 -0.3604899 -0.6946886 -0.036564916
0.24935487 0.28734094 0.034440473 -0.27490792 -0.084334545 -0.44310433 -0.10639991 0.71021146
0.276952 0.72065836 -0.50233537 0.64003587 -0.04924948 -0.26205766 0.3656125 0.39267457
0.35229042 0.44240528 -0.5717539 0.11993328 0.6662559 0.60440654 -0.24134341 0.4701032
-0.4929183 -0.44762203 -0.43159014 0.78829855 0.18196735 -0.2633848 0.09371242 0.5577287
-0.47397295 -0.115669645 -0.65353334 0.4071326 -0.29039654 -0.3522166 -0.66269994 -0.8026701
0.09497431 -0.67920786 0.2772481 -0.35211366 0.42838848 -0.03762783 0.45374456 -0.5294085
-0.4897428 -0.332921 -0.29187033 -0.5696494 0.07655959 -0.1891206 -0.6103884 0.1417919
0.40092474 0.106749564 0.5635054 0.040306292 -0.5694911 -0.07083545 -0.5992128 0.4751415
0.2553971 -0.37208298 -0.24830842 0.110683575 0.022154529 0.4507889 -0.2974127 0.1756991
00000000: f78e 1ebf dfcd 69be b72e 5abd 8a8b 4fbd
00000010: ed2d be3e ace7 84be 6402 e0be 1df0 5ebe
00000020: 65b1 e6be f711 3c3f f57d 5b3d c7bc 85be
00000030: 8a28 013e e1ac 8ebe 2cf8 4ebf fd38 f2bc
00000040: 9ca4 38bf ca6f 833d 2a20 debe 7d91 97be
00000050: 3063 02bf 3b55 a0be f12b eb3e 6950 f53c
00000060: fdba 88be bcbf 0cbf 0069 3f3f 589a 1ebe
00000070: d39d 593d c3d8 f0be 01b9 52be 4851 62be
00000080: 60b1 14bf 91a9 c7be b9f2 033f a18b 3f3e
00000090: 6ac0 9b3e 3926 a13e 17b7 d4be 6144 f1be
000000a0: 87b4 67bd 0ac2 fc3e 5834 493e 7cc9 9b3e
000000b0: 898a d8bd aa3d 1dbe 4820 873d 0a28 8bbc
000000c0: 359e 40bd 1604 d33e f0d6 413f 37cf ac3d
000000d0: 239b b83d e24b 183e 0e92 1e3f 88d2 313d
000000e0: f2a0 c7bd 2696 0cbf d943 b6be 35c6 85be
000000f0: e706 05bf 1d21 0e3f 9cca b53d 0fad d63e
00000100: 69e6 013f 275c c8be d125 b6be 6263 a0be
00000110: 634e 133f 4663 e93e 1f0c 1dbf a035 153f
00000120: e589 e5bd c831 29bf d19b e03e 6b18 443e
00000130: 8148 9bbe 4f4d 043f 1653 b93d 2e65 f6bd
00000140: fecc 973e fe83 8a3d 1368 b33e 4884 dbbe
00000150: 1cfc 94bd ec35 88be 287a ddbe 645f 42bf
00000160: 26ba 043f e49f 083f 1fa1 9e3e ac62 f1be
00000170: daca ff3e c394 5c3e 7848 d8be a1bf 31bf
00000180: 2b30 1fbe 5ba9 94be a399 f1be 2cfb 17bf
00000190: cd2e a5be d688 77be 8512 b7be b6fe d6be
000001a0: 419d 2e3f 8b34 0d3f 867a 8c3d 4d89 2a3d
000001b0: 09d5 ebbd b440 163f 029e dfbe 0893 133f
000001c0: 7d88 033f a0e1 a73e 8163 203e 9a82 6fbe
000001d0: c963 553d 636d b23e a089 f0bc 4c6a d5be
000001e0: 6116 163f 70bc 16bf 1e7e 1f3d ddc2 f7be
000001f0: 9774 453e 5689 743e 4d9f 11bf f361 9b3e
00000200: cf97 163e 3b62 dbbe efcf 343e 5461 37bf
00000210: b6ae bfbe 7d5e 18bf 9b2f f73e 0f06 7d3e
00000220: 375d 673e 31fd 3b3e 6ec1 0a3f 771e 01bf
00000230: 65e1 dd3e 29e3 d1bd b5d1 1d3f 0dd3 dcbd
00000240: bb3f 8fbe ef5b d1be e573 003f 51ef cc3e
00000250: 8fd4 96bd 4c57 05bf dd73 d4be 1251 e2be
00000260: e5b8 c43c 179a dd3e 6e3b bc3c 158e 243f
00000270: a021 193e d2da 04bf 2781 af3e 2c68 763e
00000280: ac2f a93d 701c 5fbe 5d83 363e 45b9 1c3f
00000290: bd10 3abf 484b 6a3e ffeb 1abc 5a85 44bf
000002a0: 0ca0 e43e 25b8 50bd 7ee0 ebbe 61be 023f
000002b0: 5e4d 5d3d 41a0 54bd af4a 283f a6d5 2ebe
000002c0: dfae 53be c084 fa3e 22a3 b13e 69a2 2bbd
000002d0: fc87 043f 2292 b8be 1dd7 31bf 18c5 15bd
000002e0: e256 7f3e 5a1e 933e 7411 0d3d bbc0 8cbe
000002f0: 97b7 acbd 92de e2be 32e8 d9bd 6bd0 353f
00000300: a7cc 8d3e 117d 383f 0d99 00bf 64d9 233f
00000310: d3b9 49bd 6c2c 86be 9031 bb3e a40c c93e
00000320: 695f b43e f282 e23e 775e 12bf 949f f53d
00000330: bf8f 2a3f 63ba 1a3f ba22 77be 5eb1 f03e
00000340: ca5f fcbe b72e e5be 62f9 dcbe efcd 493f
00000350: a655 3a3e 5fda 86be 4cec bf3d 4fc7 0e3f
00000360: 95ac f2be 35e4 ecbd f64d 27bf af73 d03e
00000370: dbae 94be bc55 b4be b4a6 29bf ca7b 4dbf
00000380: e481 c23d 91e0 2dbf 77f3 8d3e 3e48 b4be
00000390: bc55 db3e a41f 1abd 3551 e83e 5187 07bf
000003a0: 91bf fabe 9f74 aabe 0770 95be 8bd4 11bf
000003b0: 46cb 9c3d d5a8 41be 6a42 1cbf e531 113e
000003c0: 0246 cd3e 849f da3d e441 103f 3618 253d
000003d0: 2bca 11bf 2d12 91bd 0366 19bf bf45 f33e
000003e0: 69c3 823e a981 bebe 9044 7ebe 12ae e23d
000003f0: 6a7d b53c cdcd e63e 7a46 98be 77ea 333e

net.0.bias f4 [128]
-0.24224354 0.48660216 0.21865503 0.5368369 0.5134059 0.23296113 -0.75028527 0.060885202
-0.32820892 -0.30137363 0.25679782 -0.88946295 -0.26076272 -0.4720032 0.50833905 -0.016038118
0.39564112 0.3082116 0.008382615 -0.1659912 -0.057044018 0.49390498 -0.010096133 -0.6239213
0.8214608 -0.8253023 0.1339036 0.67962396 -0.54306877 0.7569386 -0.7451246 0.54269165
0.31079867 0.32912827 0.82255423 -0.0063496167 -0.41911137 -0.14193381 -0.64261305 0.76761043
0.28953573 -0.11474749 0.3284588 0.59309125 0.012700834 0.2349028 -0.0014561536 -0.55543685
0.040043823 -0.3221641 0.68049586 -0.16889219 0.36683497 -0.29919457 0.0011981685 -0.7144942
0.17323068 0.112409994 -0.4230693 0.82556313 0.1702431 0.8014815 0.65149254 -0.06818943
0.5113857 -0.84103 -0.40629244 -0.30374345 0.5471794 0.34362075 0.23054852 0.57126844
-0.11248371 0.16498633 0.16542819 -0.21897729 0.22318564 -0.8084618 -0.96401924 0.51375043
0.2557793 0.489394 -0.8025743 -0.6042099 -0.38971514 0.3366895 0.5821721 -0.40988106
0.7064313 0.8030949 0.30527297 0.37140742 0.6905509 0.16231896 0.18506509 0.50843304
-0.74655265 0.692415 0.11031481 -0.48666438 -0.4269635 -0.017168721 -0.55284625 -0.7009101
0.23824285 -0.60878575 0.22995292 0.7308087 -0.7038606 -0.31611717 0.73136276 -0.037139792
-0.7349213 -0.05874605 -0.82242674 0.2252811 0.31557792 0.6531381 0.12627448 -0.29846773
0.39845055 0.6190432 -0.40614438 0.1324728 0.32203254 0.39958188 0.15694644 0.0016865226
00000000: b10e 78be eb23 f93e 1be7 5f3e 256e 093f
00000010: 926e 033f 5d8d 6e3e b212 40bf c362 793d
00000020: 000b a8be a54d 9abe 017b 833e d8b3 63bf
00000030: b182 85be 67aa f1be 8222 023f 5f62 83bc
00000040: 7991 ca3e e9cd 9d3e 3c57 093c 99f9 29be
00000050: fda6 69bd 1de1 fc3e 406a 25bc 4eb9 1fbf
00000060: 414b 523f 0347 53bf 061e 093e d6fb 2d3f
00000070: 8e06 0bbf bac6 413f 7cc0 3ebf d7ed 0a3f
00000080: 0121 9f3e 8083 a83e ea92 523f 7210 d0bb
00000090: c495 d6be 1957 11be 4a82 24bf 1e82 443f
000000a0: 073e 943e bb00 ebbd c02b a83e d4d4 173f
000000b0: 2917 503c 5c8a 703e 68dc beba 1c31 0ebf
000000c0: fe04 243d b1f2 a4be fa34 2e3f 13f2 2cbe
000000d0: cbd1 bb3e 0830 99be dd0b 9d3a 18e9 36bf
000000e0: 6263 313e 3637 e63d 8a9c d8be 1b58 533f
000000f0: 3554 2e3e e42d 4d3f 37c8 263f e6a6 8bbd
00000100: 2cea 023f be4d 57bf 9005 d0be 4384 9bbe
00000110: f313 0c3f 0fef af3e e914 6c3e a63e 123f
00000120: dc5d e6bd 2df2 283e 0266 293e 953b 60be
00000130: c78a 643e 5af7 4ebf f7c9 76bf 2685 033f
00000140: 81f5 823e da91 fa3e 8275 4dbf 80ad 1abf
00000150: be88 c7be 9162 ac3e 3b09 153f eedb d1be
00000160: afd8 343f a197 4d3f bd4c 9c3e 1d29 be3e
00000170: f2c7 303f f136 263e b481 3d3e ab28 023f
00000180: 131e 3fbf 1c42 313f bbec e13d 132c f9be
00000190: f69a dabe 6ba5 8cbc 5587 0dbf d86e 33bf
000001a0: eff5 733e 62d9 1bbf c778 6b3e 4716 3b3f
000001b0: 3530 34bf 1cda a1be 973a 3b3f e51f 18bd
000001c0: cd23 3cbf b39f 70bd 8f8a 52bf 17b0 663e
000001d0: 6e93 a13e 0f34 273f 194e 013e c3d0 98be
000001e0: b601 cc3e 9d79 1e3f 28f2 cfbe f3a6 073e
000001f0: 73e1 a43e ff95 cc3e 91b6 203e 4f0e dd3a

net.2.weight f4 [128, 128]
-0.10027947 0.0509199 -0.025530785 -0.06975713 -0.04548036 -0.0822041 0.23281103 -0.022446588
0.03310194 0.05699569 0.06803234 -0.18807276 -0.0025767921 -0.13284956 -0.053266127 0.098855026
0.039393596 -0.00010068455 0.049731687 -0.06524361 -0.094986804 -0.05785115 0.00028098948 0.08589012
0.043527313 -0.2091357 -0.048789427 0.006554753 0.023267454 -0.05496803 0.6459358 -0.0502069
0.022990322 -0.10477054 -0.06532426 -0.072521605 0.028000446 0.0011975776 -1.7364905 0.04046866
0.10052683 -0.071897075 -0.04152044 0.05339677 0.021791844 0.06626252 0.020681877 -0.004803691
0.0046905526 0.062024303 -0.074593365 -0.042603105 -0.031752374 0.032946907 -0.20184444 0.37079462
-0.09784288 -0.082893915 0.054872565 0.02443843 0.043397166 -0.0444372 -0.08289651 -0.04167408
0.064241245 0.017682077 0.057962086 0.030519845 0.087802015 0.062225997 0.09530146 0.033826556
-0.056211982 0.03763293 0.014721304 -0.0065652477 -0.17941412 0.43174973 -0.3265837 0.11423756
-0.04757125 -0.060164172 -0.388203 -0.056339428 -0.006251549 -0.1678046 -0.04404722 0.07550272
-0.18015447 -0.09054614 -0.04956833 0.055552214 0.08608484 -0.031047199 -0.005122578 -0.04216433
0.043786194 0.06318693 0.080177166 0.2427354 0.022596382 0.06322121 -0.12078732 -2.3510613
0.030842584 0.003128352 -0.074508294 -0.004155588 0.06124406 -0.025546486 -0.001006512 0.04073846
-0.007969545 0.009557896 -0.046452615 -0.021745676 0.07444831 -0.1354176 -0.03842559 0.27165857
0.17602427 0.02504974 -0.0017214308 0.02371089 -0.0070535536 0.14714192 0.111878715 -0.13536717
0.0017544191 -0.014652755 -0.062580846 -0.015154134 0.009036755 -0.03966765 -0.08171371 -0.059047483
0.004477275 0.065027714 -0.05710854 -0.07947078 -0.025180478 -0.010089727 0.084592424 0.076367766
-0.022897793 -0.036171596 0.030791052 -0.016069278 0.078458436 0.05988651 0.012008961 0.047484495
0.024572715 0.069388114 0.047277145 0.0190189 -0.017980976 -0.054224435 0.039003123 0.05601591
0.043264963 0.065967366 0.07651311 0.04135483 -0.03923102 0.053229596 -0.05544089 0.06481875
0.029952684 0.02293122 0.0015100401 0.021321887 0.018564839 0.059016082 0.031781916 -0.067296475
0.013459566 -0.10156872 0.018683428 0.055100515 0.07792245 -0.03283249 -0.061536744 -0.0061994093
-0.009076233 -0.057234425 -0.121567085 0.07930578 -0.08942616 0.022725187 0.06815874 0.07055748
0.03317431 0.044100158 0.01761067 -0.02956319 0.0145295 -0.03058477 -0.011316072 0.061082706
0.007686175 -0.025169075 0.06533745 -0.012607422 -0.088502556 -0.071374096 -0.02964747 0.042486344
0.06008029 -0.0057127755 -0.02284293 -0.006516308 -0.009421748 -0.011869171 0.098906346 -0.062342174
0.058881015 -0.07582904 -0.010121303 -0.0091577545 -0.00439059 -0.08177589 0.026121913 0.05043136
-0.072612286 -0.0026379141 -0.043343414 -0.004310194 -0.071637906 0.03673419 -0.011620658 0.037955526
0.04956498 0.04559849 -0.036682203 -0.077593304 -0.005899823 -0.030285282 0.08276196 -0.02321245
0.0328938 0.006461223 0.07601744 0.04511426 0.0467454 0.025104186 -0.0039326563 -0.015707357
-0.11189728 -0.051058795 0.011267937 -0.057291646 -0.045907743 -0.062690966 -0.0006423379 0.13810253
00000000: 535f cdbd 6391 503d f025 d1bc d4dc 8ebd
00000010: 9d49 3abd a05a a8bd 0466 6e3e e8e1 b7bc
00000020: e695 073d 5074 693d 8a54 8b3d 2596 40be
00000030: 66df 28bb b709 08be 952d 5abd 8174 ca3d
00000040: 2e5b 213d 9b26 d3b8 74b3 4b3d 719e 85bd
00000050: 7188 c2bd 54f5 6cbd c551 9339 29e7 af3d
00000060: b249 323d ab27 56be 6cd7 47bd 41c9 d63b
00000070: 639b be3c 2826 61bd 0c5c 253f c0a5 4dbd
00000080: 3356 bc3c f091 d6bd bac8 85bd 3586 94bd
00000090: 3161 e53c 09f8 9c3a 5245 debf 77c2 253d
000000a0: 03e1 cd3d c63e 93bd 5611 2abd 92b6 5a3d
000000b0: cf84 b23c a5b4 873d 0a6d a93c 4868 9dbb
000000c0: 35b3 993b 320d 7e3d 68c4 98bd 9880 2ebd
000000d0: c70e 02bd 56f3 063d 4fb0 4ebe cbd8 bd3e
000000e0: d961 c8bd 49c4 a9bd 0ec2 603d 1a33 c83c
000000f0: 3ac1 313d c803 36bd a5c5 a9bd 71b2 2abd
00000100: ea90 833d 01da 903c a769 6d3d c104 fa3c
00000110: 8bd1 b33d b0e0 7e3d 692d c33d b78d 0a3d
00000120: 893e 66bd fd24 1a3d a031 713c 4a21 d7bb
00000130: 56b8 37be 4d0e dd3e fb35 a7be 62f5 e93d
00000140: 12da 42bd b56e 76bd 8bc2 c6be 2cc4 66bd
00000150: cbd9 ccbb f8d4 2bbe dc6a 34bd 2ca1 9a3d
00000160: 6a7a 38be 4170 b9bd 2908 4bbd b88a 633d
00000170: 404d b03d b256 febc 4cdb a7bb 81b4 2cbd
00000180: 2759 333d 2668 813d ed33 a43d a18f 783e
00000190: 0c1c b93c 1f7a 813d 585f f7bd ca77 16c0
000001a0: 96a9 fc3c 0a05 4d3b ce97 98bd 992b 88bb
000001b0: 0ddb 7a3d dd46 d1bc f0ec 83ba 5fdd 263d
000001c0: b292 02bc b998 1c3c 1945 3ebd fd23 b2bc
000001d0: 5b78 983d e9aa 0abe 2764 1dbd d516 8b3e
000001e0: b53f 343e 1d35 cd3c a2a1 e1ba 573d c23c
000001f0: 7f21 e7bb 5fac 163e ab20 e53d b19d 0abe
00000200: 89f4 e53a 1c12 70bc 632a 80bd 0b49 78bc
00000210: e60e 143c 8c7a 22bd 8559 a7bd c6db 71bd
00000220: 1bb6 923b 402d 853d a5ea 69bd 94c1 a2bd
00000230: 4a47 cebc 624f 25bc cb3e ad3d b466 9c3d
00000240: 2794 bbbc ab28 14bd 843d fc3c b8a3 83bc
00000250: d1ae a03d 8f4b 753d 3cc1 443c 1a7f 423d
00000260: b84c c93c 5b1b 8e3d aea5 413d 86cd 9b3c
00000270: d74c 93bc 711a 5ebd bdc1 1f3d f070 653d
00000280: 9a36 313d e619 873d e8b2 9c3d af63 293d
00000290: b5b0 20bd 4707 5a3d fd15 63bd b1bf 843d
000002a0: 555f f53c 41da bb3c 8aec c53a 3dab ae3c
000002b0: 4a15 983c d9ba 713d c12d 023d bcd2 89bd
000002c0: 8385 5c3c 4303 d0bd fd0d 993c 14b1 613d
000002d0: ce95 9f3d 5c7b 06bd f40d 7cbd 6a24 cbbb
000002e0: 7bb4 14bc a56e 6abd 2af8 f8bd 126b a23d
000002f0: 1025 b7bd 2c2a ba3c cf96 8b3d 7180 903d
00000300: c9e1 073d 5ea2 343d 4044 903c 812e f2bc
00000310: 240d 6e3c e98c fabc 0c67 39bc dc31 7a3d
00000320: 4fdc fb3b 602f cebc a4cf 853d 5c8f 4ebc
00000330: d440 b5bd 952c 92bd 40df f2bc 2906 2e3d
00000340: c016 763d 3c32 bbbb 1921 bbbc c186 d5bb
00000350: ad5d 1abc e976 42bc 698f ca3d 825a 7fbd
00000360: 382d 713d 414c 9bbd d2d3 25bc 680a 16bc
00000370: f0de 8fbb 1e7a a7bd 9ffd d53c 1d91 4e3d
00000380: c0b5 94bd dbe0 2cbb dd88 31bd 873c 8dbb
00000390: e5b6 92bd 9776 163d 9364 3ebc 4177 1b3d
000003a0: a604 4b3d 7bc5 3a3d 1440 16bd 3de9 9ebd
000003b0: 4d53 c1bb d718 f8bc 1a7f a93d 0928 bebc
000003c0: a6bb 063d abb8 d33b 08af 9b3d bbc9 383d
000003d0: 1b78 3f3d 4ba7 cd3c 83dd 80bb b7ac 80bc
000003e0: 672a e5bd 0723 51bd 279d 383c a5aa 6abd
000003f0: c209 3cbd 1f64 80bd 9162 28ba c06a 0d3e

net.2.bias f4 [128]
-0.09267475 -0.0347492 0.33751437 0.050057307 -0.072092436 -0.12973917 -0.054886155 0.036340814
-0.12978174 -0.0056844833 0.12179415 -0.13157134 -0.1050168 -0.0422733 0.04888537 -0.015635576
-0.06318247 -0.06905362 0.0042698407 0.04119097 -0.074551344 0.016374458 -0.1177376 0.10377552
0.05162567 0.032587934 -0.13145818 -0.055883527 0.007928679 -0.057812646 0.025549049 0.07802636
-0.05904498 0.117952295 -0.025373418 0.023394598 -0.043799743 -0.002986364 -0.04652836 0.045426246
-0.017582454 0.0047409697 -0.15196435 0.10392807 -0.120245345 0.017260881 0.016936552 0.0260796
-0.15572657 0.039718274 -0.049240336 -0.08354051 -0.0070650517 -0.010827679 0.08050837 -0.030572765
-0.11017743 -0.071247466 0.05491081 -0.13135757 0.11665558 -0.010803385 -0.081723645 -0.15576594
0.014788144 0.018385062 -0.042618107 -0.19480336 0.1910056 0.009126677 0.10144677 -0.02314766
0.112263195 -0.0032513142 0.07538209 -0.1783031 -0.045560334 0.04937401 -0.01846287 -0.062919
-0.1524185 -0.02754285 -0.0129953725 0.028035535 0.09970296 -0.038841702 -0.02574734 0.102768764
0.008843012 -0.028109223 -0.11806659 0.029382417 0.00064765237 0.042374194 0.04861519 -0.028324353
-0.017163139 -0.1079738 0.04626814 -0.08542327 -0.083945125 0.04390249 0.016739137 0.042073477
-0.0114254 0.06018305 -0.086330764 0.027815897 0.05531168 -0.09838965 -0.07784403 -0.051818002
-0.12721296 -0.03947649 -0.04318246 -0.015253638 -0.014856114 -0.05182609 -0.0031014257 -0.07286767
-0.04300442 0.022401499 0.08586409 -0.0231195 0.023523625 -0.082723424 -0.0026723896 -0.19784358
00000000: 42cc bdbd 2d55 0ebd afce ac3e e408 4d3d
00000010: 33a5 93bd 58da 04be 4ed0 60bd 1bda 143d
00000020: 81e5 04be e744 babb 366f f93d a3ba 06be
00000030: 0c13 d7bd c526 2dbd 073c 483d 2e16 80bc
00000040: d065 81bd fc6b 8dbd 05ea 8b3b ddb7 283d
00000050: 60ae 98bd ba23 863c 6920 f1bd 4388 d43d
00000060: 7075 533d ed7a 053d f99c 06be 20e6 64bd
00000070: 4ae7 013c f4cc 6cbd 3d4c d13c 49cc 9f3d
00000080: 26d9 71bd f990 f13d eadb cfbc 07a6 bf3c
00000090: 5c67 33bd e0b6 43bb 8694 3ebd df10 3a3d
000000a0: 1409 90bc 235a 9b3b 8b9c 1bbe 3dd8 d43d
000000b0: 3143 f6bd b166 8d3c 86be 8a3c e3a4 d53c
000000c0: c976 1fbe a1af 223d 3cb0 49bd 4917 abbd
000000d0: f381 e7bb 9466 31bc 93e1 a43d bc73 fabc
000000e0: b4a4 e1bd 31ea 91bd 28ea 603d 9982 06be
000000f0: 1fe9 ee3d ae00 31bc ba5e a7bd 1b81 1fbe
00000100: f949 723c 459c 963c 5390 2ebd 887a 47be
00000110: f996 433e 0f88 153c 53c3 cf3d 29a0 bdbc
00000120: 3fea e53d 0014 55bb ed61 9a3d 1695 36be
00000130: 799d 3abd 673c 4a3d 723f 97bc addb 80bd
00000140: 9813 1cbe 8ba1 e1bc 8bea 54bc c7aa e53c
00000150: 1131 cc3d 7a18 1fbd 16ec d2bc 6e78 d23d
00000160: 48e2 103c 5045 e6bc e5cc f1bd 65b3 f03c
00000170: 37c7 293a 9090 2d3d b920 473d 7908 e8bc
00000180: b699 8cbc 5e21 ddbd a983 3d3d 65f2 aebd
00000190: 6ceb abbd 19d3 333d 8420 893c 3d55 2c3d
000001a0: 9a31 3bbc 8082 763d 2fce b0bd 2ade e33c
000001b0: 808e 623d 8380 c9bd b16c 9fbd 1d3f 54bd
000001c0: 1d44 02be 1ab2 21bd 17e0 30bd 65ea 79bc
000001d0: 0f67 73bc 9847 54bd 4a41 4bbb a53b 95bd
000001e0: 6725 30bd 5983 b73c 83d9 af3d 1b65 bdbc
000001f0: 9eb4 c03c e66a a9bd 4223 2fbb 8297 4abe

net.4.weight f4 [1, 128]
0.00031330058 -0.0006598263 -0.26824293 -0.58767 -0.26222265 0.083485425 0.23759657 0.00035111644
-0.64020926 -0.0022824702 -0.36005124 -0.19622883 0.0015333042 0.4550597 -0.08554623 -0.04461569
-0.25243375 0.16624478 0.16112974 0.1967817 0.14506891 0.43762338 0.13812816 -0.20580336
0.2519514 -0.26545382 0.30432546 0.06877569 0.00067065423 0.26169592 -0.19267523 -0.29746822
-0.2559819 -0.2018478 0.00028254138 -0.17848416 -0.0038981538 -0.19386312 -0.080091506 -0.60588866
-0.28150123 0.24523373 0.019267341 0.08421998 0.34952387 0.013553624 0.085928895 0.13656087
0.070456386 -0.2902809 0.69784975 -0.4557323 0.0783082 -0.66298854 0.25587213 -0.0041662473
0.12959626 0.15621723 -6.0137285e-05 -0.62705374 -0.31108382 0.0015541016 0.084010124 0.030572684
-0.25126326 -0.901047 -0.08973374 0.26263204 0.2345977 -0.19789459 -0.02150513 -0.4035262
-0.052161433 0.093621425 -0.11455449 0.36588952 0.14482194 0.41358092 0.18397714 0.025816632
0.122776926 0.65442246 -0.20018855 -0.15317094 -0.4005416 0.33660462 -0.21508445 0.1127427
-0.03068735 0.14976464 0.032869287 0.25664365 -0.17747447 0.2531299 0.18294178 0.14542805
0.30458158 0.20850213 0.0003157774 0.087789536 -0.16172604 -0.094771765 -0.17341638 0.9324699
-0.31871378 -0.041484084 0.00026875018 0.18432926 -0.2617047 0.15199053 -0.45201546 -0.13703586
-0.042578805 0.33033648 0.0028161407 0.11135818 0.1424779 -0.061964247 0.014462259 -0.38175455
0.2173299 -0.2069319 -0.10566336 -0.10716238 0.032467935 0.14430635 -0.10852485 -0.42411795
00000000: 7e42 a439 32f8 2cba 2357 89be 8b71 16bf
00000010: 0c42 86be 68fa aa3d 844c 733e 0d16 b839
00000020: c1e4 23bf 7f95 15bb a358 b8be 36f0 48be
00000030: 27f9 c83a 96fd e83e dd32 afbd f1be 36bd
00000040: ff3e 81be 123c 2a3e 32ff 243e 2481 493e
00000050: f28c 143e 2c10 e03e 7871 0d3e 1ebe 52be
00000060: c6ff 803e 90e9 87be 8cd0 9b3e 45da 8c3d
00000070: d8ce 2f3a 02fd 853e a84c 45be c14d 98be
00000080: 0f10 83be 31b1 4ebe 1022 9439 8dc4 36be
00000090: 2b78 7fbb 0e84 46be 0407 a4bd 851b 1bbf
000000a0: ee20 90be 8d1e 7b3e 8bd6 9d3c 867b ac3d
000000b0: cbf4 b23e 0510 5e3c 7dfb af3d 9dd6 0b3e
000000c0: 704b 903d b39f 94be 48a6 323f be55 e9be
000000d0: 0d60 a03d 9eb9 29bf ac01 833e 0485 88bb
000000e0: e2b4 043e 69f7 1f3e eb3b 7cb8 9886 20bf
000000f0: 6146 9fbe ffb2 cb3a 800d ac3d 9173 fa3c
00000100: 94a5 80be 04ab 66bf 53c6 b7bd b577 863e
00000110: 613a 703e e1a4 4abe 872b b0bc fc9a cebe
00000120: 3aa7 55bd 97bc bf3d 8b9b eabd df55 bb3e
00000130: 344c 143e e1c0 d33e 8164 3c3e 677d d33c
00000140: 7872 fb3d 3b88 273f 3afe 4cbe d8d8 1cbe
00000150: ca13 cdbe 7157 ac3e 193f 5cbe a5e5 e63d
00000160: 0a64 fbbc e75b 193e f2a1 063d cc66 833e
00000170: debb 35be 3e9a 813e 1755 3b3e 17eb 143e
00000180: 1ef2 9b3e 9581 553e ed8e a539 00cb b33d
00000190: 839b 25be b317 c2bd 1094 31be 59b6 6e3f
000001a0: 742e a3be 37eb 29bd 0ae7 8c39 cfc0 3c3e
000001b0: 29fe 85be 68a3 1b3e 926e e7be 2153 0cbe
000001c0: 1d67 2ebd dd21 a93e 008f 383b c20f e43d
000001d0: bae5 113e 39ce 7dbd 1cf3 6c3c 5575 c3be
000001e0: bb8b 5e3e f5e5 53be 0866 d8bd f377 dbbd
000001f0: 19fd 043d 0bc5 133e 4742 debd fd25 d9be
