checkpoints/nd/dim_2/width_256/method_sort-out.pt (torch, 267979 bytes, 8 tensors)

net.0.model.bias f4 [128]
0	0x3f13cb27	0.5773186
1	0xbdbce588	-0.09223467
2	0xbf1066a9	-0.56406647
3	0x3f2ffee1	0.6874829
4	0x3cc8cc79	0.024511563
5	0x3f218cf4	0.631057
6	0xbebd39e8	-0.3695824
7	0x3f1fae94	0.6237576
8	0x3e1a82cc	0.15088958
9	0x3f2fec1b	0.68719643
10	0xbf0996e6	-0.5374588
11	0x3e87cd46	0.265238
12	0xbeda6e3e	-0.42662233
13	0xbebc9a19	-0.36836317
14	0xbee722db	-0.4514378
15	0xbee7c1ac	-0.45264947
16	0xbf037a90	-0.5135889
17	0xbe410724	-0.1885038
18	0x3efa8080	0.48926163
19	0x3daea2d0	0.08527148
20	0x3f33ee98	0.7028594
21	0x3da70c4f	0.081566446
22	0x3ea13030	0.31482077
23	0x3ebea4e2	0.3723517
24	0xbf1b1ed5	-0.6059392
25	0x3ed750bf	0.42053792
26	0x3f208a4c	0.62711024
27	0xbf043231	-0.51639086
28	0xbf08bd1a	-0.53413546
29	0xbf145b6b	-0.5795199
30	0x3cb5f3a9	0.022210913
31	0x3f0e2944	0.55531716
32	0x3f1f06f5	0.6211999
33	0xbea2bed2	-0.3178621
34	0x3e14e462	0.14540246
35	0xbebeeb9a	-0.37289125
36	0x3ef47ac6	0.4774992
37	0xbeac95e2	-0.33708102
38	0x3ee3dfa7	0.4450657
39	0xbe38c77c	-0.18044847
40	0x3eb226db	0.3479527
41	0x3e518eb4	0.20464593
42	0xbee61a1f	-0.44941804
43	0xbd65dc02	-0.05611802
44	0x3f175618	0.59115744
45	0xbe492f5e	-0.19646975
46	0x3f00defa	0.50340235
47	0xbf013d77	-0.5048441
48	0x3ec6634c	0.38747633
49	0xbe98231b	-0.29714283
50	0x3f1e85b1	0.61922747
51	0xbf1768e2	-0.59144413
52	0x3eea866e	0.45805687
53	0xbee7d793	-0.45281658
54	0x3efeceac	0.49767053
55	0x3dd3d880	0.103440285
56	0xbf1e022d	-0.6172207
57	0x3eeb8964	0.46003258
58	0x3f317c68	0.69330454
59	0x3dc29d6d	0.09502683
60	0x3d3d45db	0.046209197
61	0xbe17a230	-0.14807963
62	0xbee4fcb9	-0.44724062
63	0x3deb79e3	0.114978574
64	0xbf00ce07	-0.5031437
65	0xbed2643d	-0.410921
66	0xbf0fb858	-0.5614066
67	0x3f017fc7	0.505856
68	0xbe39637c	-0.18104357
69	0x3f34c34f	0.7061052
70	0x3f24fa01	0.64443976
71	0x3f23446d	0.63776284
72	0x3ea11f48	0.31469178
73	0xbed7fd78	-0.4218557
74	0x3f1deddb	0.61691064
75	0xbf034d68	-0.5128999
76	0xbf1813a8	-0.59404993
77	0xbea41f7f	-0.3205528
78	0xbe90859c	-0.28226936
79	0x3efe5c55	0.4967982
80	0xbf1b0e58	-0.6056876
81	0xbce193ae	-0.02753624
82	0xbeafe76f	-0.34356257
83	0xbce1892b	-0.027531227
84	0xbe1985a9	-0.14992394
85	0x3f1d04f2	0.6133567
86	0xbf08bc89	-0.5341268
87	0xbe91075a	-0.2832592
88	0xbef7c3d4	-0.48391593
89	0xbeb3b7d9	-0.35101202
90	0xbec6d3fc	-0.38833606
91	0xbd92b7ae	-0.0716394
92	0x3f181f4e	0.5942277
93	0xbd5bfd38	-0.053708285
94	0xbf0d0329	-0.55082947
95	0x3f081e62	0.5317136
96	0xbdf343f3	-0.11878195
97	0xbf021a72	-0.508216
98	0x3f16fe58	0.5898185
99	0xbe3c978a	-0.18417183
100	0x3e3711dc	0.17877907
101	0xbebc2e8f	-0.3675427
102	0xbf0f4f21	-0.55980116
103	0x3ec512df	0.3849096
104	0x3d90f518	0.07077998
105	0x3d00250d	0.031285334
106	0x3f0c4c7f	0.54804224
107	0xbf051d64	-0.5199797
108	0x3d83fc74	0.06444636
109	0x3b0e4c06	0.0021712794
110	0xbe8d7101	-0.27625278
111	0xbf0f2a84	-0.5592425
112	0xbf144519	-0.57917935
113	0xbf101aa3	-0.56290644
114	0x3e3f3422	0.18672231
115	0xbee2a5e9	-0.44267204
116	0xbe2a42bb	-0.16627018
117	0x3c02987c	0.007970925
118	0x3e613a64	0.2199493
119	0xbdca6caf	-0.09884011
120	0x3f0de3ad	0.5542553
121	0xbe1c4f45	-0.15264614
122	0xbe2895e9	-0.16463436
123	0xbd161a56	-0.03664621
124	0xbd46a3ae	-0.04849594
125	0x3e55dfe8	0.20886195
126	0xbf0b1491	-0.54328257
127	0x3ebde651	0.3708978

net.0.model.parametrizations.weight.original f4 [128, 2]
0	0x00000000	0.0
1	0x00000000	0.0
2	0x3b83152c	0.0040003266
3	0x00000000	0.0
4	0x3c4358cf	0.011923029
5	0xbb82fd89	-0.003997509
6	0xbc2df7bb	-0.010618146
7	0xbaf0188f	-0.0018317866
8	0xbc8b26dd	-0.016986305
9	0xbbf11c8f	-0.007358141
10	0x3b8eaea6	0.004354316
11	0x3b402e1c	0.0029324358
12	0x3a430999	0.000744009
13	0x3babe1fa	0.0052454444
14	0xbb531954	-0.0032211142
15	0xbbc9ebd1	-0.0061621447
16	0x3b5c01a2	0.003357031
17	0xbbb52fec	-0.0055293944
18	0xbc41e553	-0.01183446
19	0xbc35f7d1	-0.011106447
20	0x3bb97f50	0.005660929
21	0xbbc6be92	-0.006065198
22	0x3bd722c1	0.0065654223
23	0xb8ab8489	-8.178602e-05
24	0x3b4b0c02	0.00309825
25	0xbb7e45a8	-0.0038798843
26	0x3a6541bd	0.00087454525
27	0x3b76d9b6	0.0037666387
28	0x3c52b4b5	0.012860467
29	0x3bc70991	0.0060741385
30	0xbb96d676	-0.0046032025
31	0xba0c0525	-0.0005341343
32	0xbc12e8d0	-0.00896664
33	0x3c786076	0.015159717
34	0x3c278b8c	0.010226142
35	0x39c925d6	0.00038365897
36	0xbaf0c107	-0.0018368074
37	0x3bd0885a	0.0063639106
38	0x3b9a6de5	0.0047128075
39	0xbbd321e3	-0.0064432486
40	0x3a742f31	0.00093148934
41	0x3bb5bb04	0.0055459756
42	0xbaecdfe0	-0.0018072091
43	0x3bdb277c	0.0066880565
44	0x3bedef51	0.0072611948
45	0x3bbfb781	0.005850733
46	0xbbc3751b	-0.005964888
47	0x3bff3722	0.0077885548
48	0xbbaa6c49	-0.005200897
49	0x3acb6f4a	0.0015520838
50	0xbc32f321	-0.010922224
51	0x3b6ab32a	0.0035812357
52	0x3b9292f7	0.004473086
53	0xbbf64570	-0.007515602
54	0xbbef86aa	-0.0073097544
55	0xbadf7c2d	-0.0017050557
56	0x3ba4fc82	0.005034984
57	0x3c35102d	0.01105122
58	0xbb8debe9	-0.004331101
59	0x3aae4725	0.0013296349
60	0xbba102f0	-0.0049136803
61	0x3b765757	0.003758868
62	0x3bae93a9	0.005327661
63	0xbbc538d0	-0.0060187355
64	0xbb85957a	-0.004076657
65	0xbbec0c76	-0.007203634
66	0x3c176944	0.009241406
67	0x3c17abfd	0.009257314
68	0xbb63a99f	-0.0034738553
69	0xbc696895	-0.014246126
70	0x3be78fb2	0.0070666904
71	0xbb04993a	-0.0020232932
72	0x3b577ac5	0.0032879573
73	0xbb87b28c	-0.0041411575
74	0x3ba91031	0.005159401
75	0xbc29669b	-0.010339404
76	0xbc08ec50	-0.008357123
77	0xbb168153	-0.0022965267
78	0xbc570e4b	-0.013125966
79	0xbb8f31a7	-0.0043699327
80	0xbc1ad645	-0.0094505
81	0xb883a4e9	-6.277284e-05
82	0x3c376022	0.011192353
83	0xbbe57845	-0.0070028626
84	0x3c767950	0.015043572
85	0x379991d7	1.8306933e-05
86	0xbb0d81b6	-0.0021592206
87	0xbb8a700a	-0.004224782
88	0x3a063cf6	0.0005120778
89	0xbac3b95b	-0.001493256
90	0xbc126da9	-0.008937278
91	0x3a108c04	0.0005514028
92	0xbc37c56b	-0.011216502
93	0xbb4d4665	-0.0031322476
94	0x394dddc0	0.00019632932
95	0x3a8ac2f7	0.0010586669
96	0x3907ef10	0.00012963661
97	0xbbb314bd	-0.0054651187
98	0xbc1f1b54	-0.009711105
99	0x3a30c7d5	0.00067436445
100	0xbc15a4cb	-0.009133528
101	0xbbcf164d	-0.006319797
102	0x3bdf9be6	0.0068240045
103	0xbc15cf5c	-0.009143677
104	0xbc242f31	-0.010021017
105	0xbb66f971	-0.0035243894
106	0xbc01e006	-0.0079269465
107	0x3c1a0fa5	0.009403144
108	0xbb28eb4a	-0.0025775009
109	0x3c2d6931	0.010584162
110	0xba94e3b2	-0.0011359362
111	0x3aca510f	0.0015435534
112	0xbbc0d551	-0.0058848043
113	0xbb4f1750	-0.0031599589
114	0xbc499292	-0.0123030115
115	0x39e7e824	0.00044232712
116	0x3b407374	0.002936569
117	0xbc6b8145	-0.014374082
118	0xbafc336e	-0.0019241401
119	0x3c6ee9ac	0.014582079
120	0x3c088b66	0.008334016
121	0x3bba988c	0.0056944545
122	0xbb329fe8	-0.0027255956
123	0xbbedef5c	-0.0072612
124	0xb90750a7	-0.00012904649
125	0x3b87d7b8	0.0041455887
126	0xbb8ed8b5	-0.0043593296
127	0x3be85e5f	0.007091328
128	0xbc2e4ea3	-0.010638866
129	0x3bbb13fd	0.00570917
130	0xbb84ac62	-0.00404887
131	0xbb2d5cdb	-0.0026453051
132	0xbc782dc5	-0.015147631
133	0xbb29a49e	-0.0025885473
134	0xbbaa2269	-0.0051920903
135	0x3a3a5a75	0.0007108816
136	0x3b87725c	0.0041335057
137	0x3bfe5641	0.007761747
138	0x3b9ca1c7	0.0047800275
139	0xbbf03454	-0.0073304567
140	0xba8114cf	-0.000984812
141	0x3a8a9cf2	0.0010575338
142	0xbc19b200	-0.009380817
143	0xbb134980	-0.002247423
144	0x3bb66e23	0.0055673285
145	0xb97ceeb4	-0.00024121517
146	0x3bf4512f	0.007455967
147	0xbbe1036d	-0.0068668635
148	0x3b139a6c	0.0022522463
149	0x3c2206c3	0.009889307
150	0x39c26aed	0.0003708223
151	0xbaf89439	-0.0018965072
152	0x3b51cbac	0.0032012267
153	0x3b078682	0.0020679538
154	0x399942cd	0.00029232205
155	0xbc2a5044	-0.010395113
156	0x3c154ea5	0.009112989
157	0xbba37a35	-0.0049889334
158	0x3b99b643	0.0046909167
159	0x3b1766d5	0.0023102064
160	0xbb47f73b	-0.003051235
161	0x3baa2490	0.005192347
162	0xb93d8b4f	-0.00018076341
163	0xbbd3c381	-0.006462515
164	0x3b9e8fc0	0.0048389137
165	0x3b2cdadb	0.0026375565
166	0xbb92e316	-0.004482637
167	0xbbe44e2a	-0.0069673257
168	0xbc15d304	-0.009144548
169	0xbb8c1a1c	-0.0042755734
170	0x3b8113f4	0.003939146
171	0xbab87c30	-0.0014075097
172	0xbc27a511	-0.010232226
173	0xbc385756	-0.011251291
174	0x3c4d6374	0.0125359185
175	0xb9cf124e	-0.00039495755
176	0x3b845b53	0.004039207
177	0x3c373b07	0.011183507
178	0x3c171360	0.009220928
179	0x3b4ca084	0.0031223604
180	0xbb42e378	-0.0029737633
181	0xbaa3f9db	-0.0012510376
182	0xbbd7a145	-0.006580504
183	0x3bb5f7cc	0.0055532213
184	0xb8e73c87	-0.000110262125
185	0xbb3278fc	-0.0027232757
186	0x3b6a87a7	0.0035786422
187	0xbbe5f5a3	-0.0070178076
188	0x3b6634b5	0.003512663
189	0xbb1837b8	-0.002322657
190	0xbbd0c045	-0.0063705766
191	0xbb0ab77f	-0.00211665
192	0xb99269f5	-0.00027926234
193	0xbb12fc4a	-0.0022428208
194	0xbc2362d5	-0.009972294
195	0x3b589ce2	0.0033052494
196	0xbb0d4a9c	-0.0021559363
197	0x3b729403	0.0037014491
198	0xbbdfb467	-0.0068269256
199	0xbb63ad0f	-0.0034740602
200	0x3af51820	0.0018699206
201	0xbc5ed3a1	-0.013600261
202	0xbb53f5d8	-0.003234258
203	0x3a8a754d	0.0010563523
204	0x393b73a1	0.00017876785
205	0x3ab194ad	0.0013548337
206	0x3b3972bd	0.002829715
207	0x3bb3a16f	0.005481891
208	0x3b943a6e	0.004523567
209	0x3be8c1fa	0.007103202
210	0x3ba4dc6d	0.0050311596
211	0x3b19266d	0.002336885
212	0xbbac95cb	-0.00526688
213	0xb9d03614	-0.00039713143
214	0xbb339827	-0.0027403922
215	0x3c4697b2	0.012121128
216	0xbc25fb06	-0.010130649
217	0xbab1e4f9	-0.0013572267
218	0xbb282f8f	-0.0025663113
219	0x3a2ae584	0.0006519186
220	0x3bd5e66d	0.006527713
221	0xbbfcb69a	-0.0077121975
222	0xbbaebc1e	-0.005332484
223	0xbb2540b5	-0.002521557
224	0x3bf76328	0.007549662
225	0xbc8fc32c	-0.01754912
226	0x3ad7ecbe	0.0016473753
227	0x36975f64	4.5112556e-06
228	0x3b40c62d	0.0029414997
229	0xbb8825d9	-0.0041549024
230	0xbbcdb6fe	-0.006277918
231	0xbb997041	-0.004682571
232	0xbb4aceb1	-0.0030945952
233	0xbb8a35d8	-0.0042178445
234	0x3c331603	0.010930541
235	0xbc674d33	-0.014117527
236	0x3b8118a1	0.0039397036
237	0xbaf0f60d	-0.0018383876
238	0xbb60cf25	-0.0034303155
239	0x3c203884	0.009779099
240	0xbbdc1ed5	-0.0067175427
241	0xbac0f99e	-0.0014722829
242	0x3b60abfc	0.0034282198
243	0x3bc11a2f	0.005893014
244	0xbb82e282	-0.003994287
245	0x3c514a33	0.012774038
246	0xbab24dcd	-0.0013603509
247	0x3b46d2f1	0.0030338133
248	0x3a79b085	0.00095248997
249	0xbb728de4	-0.0037010843
250	0x3bffc227	0.007805127
251	0x3a090a37	0.00052276574
252	0x3c4fe58b	0.012689005
253	0x3bb8cc30	0.0056395754
254	0xbb9f2835	-0.004857088
255	0xbc05786e	-0.008146388

net.0.model.parametrizations.weight.0.base f4 [128, 128]
0	0xbe35c9e0	-0.1775279
1	0xbc4dcfcc	-0.01256175
2	0xbc488980	-0.012239814
3	0x3e3dddea	0.18541685
4	0xbe518cc2	-0.20463851
5	0x3e115930	0.14194179
6	0x3df07c81	0.11742497
7	0x3cb12e64	0.021628566
8	0xbdb0284e	-0.086014375
9	0x3e0dd4cd	0.13850708
10	0xbdeb6724	-0.11494282
11	0xbe09139e	-0.1338639
12	0xbda1c926	-0.07899694
13	0xbe60725c	-0.21918625
14	0xbd06a0af	-0.032868084
15	0x3cde15d8	0.027110025
16	0x3ca01bf6	0.019544583
17	0x3c021cac	0.007941406
18	0x3caf60ab	0.0214084
19	0xbda3c796	-0.07997052
20	0x3b129bbf	0.0022370664
21	0xbd7e2370	-0.062045515
22	0x3d665be1	0.056239966
23	0x3d1472c0	0.036242247
24	0xbd6772d4	-0.056505993
25	0xbd36fc55	-0.044674236
26	0x3e1ef0f9	0.15521611
27	0x3c79aa88	0.015238412
28	0xbce13e9c	-0.027495675
29	0x3d9409b5	0.07228414
30	0xbe3d7290	-0.18500733
31	0x3c83aaef	0.016072718
32	0xbd73e044	-0.05954005
33	0x3d57cd2c	0.0526859
34	0xbd913b79	-0.07091422
35	0x3cdcc542	0.026949529
36	0x3dfc4550	0.12317908
37	0xbd02ca85	-0.03193142
38	0xbd22e36d	-0.03976767
39	0xbe324e47	-0.17412673
40	0xbe21a92a	-0.15787187
41	0x3e1b6397	0.1517471
42	0x3df74308	0.12073332
43	0xbd9fb2de	-0.07797788
44	0xbdaaf8ef	-0.083482616
45	0xbd8fa062	-0.070130125
46	0xbcbd09dd	-0.023075992
47	0xbcf9b9c5	-0.03048409
48	0x3d2aad2c	0.041669056
49	0xbd0e7306	-0.034777664
50	0x3e231c78	0.15928829
51	0xbda8fc04	-0.08251193
52	0x3d13104e	0.03590422
53	0xbe02d950	-0.1277821
54	0xbdb2fd6e	-0.08739744
55	0xbdd9f6b7	-0.1064276
56	0xbd09f0cc	-0.033676907
57	0x3d929644	0.07157567
58	0xbc39f95f	-0.011350959
59	0x3deafa56	0.11473529
60	0xbb33d8ae	-0.0027442384
61	0x3e14d77d	0.14535327
62	0xbcf7ee60	-0.030265033
63	0xbdec1371	-0.11527146
64	0xbd0ec065	-0.03485145
65	0x3e5c390b	0.21506135
66	0x3e21cec7	0.15801536
67	0xbcc2be99	-0.023772525
68	0xbd8d110c	-0.06888017
69	0x3c4f4ea8	0.01265303
70	0x3df9fd56	0.12206523
71	0x3b63685f	0.0034699661
72	0xbca69d11	-0.020338567
73	0x3bcd410d	0.006263858
74	0x3c2d7cf2	0.010588871
75	0x3dddb2e6	0.10825138
76	0xbbb8f2a4	-0.0056441594
77	0x3d685e57	0.056730594
78	0x3c2d2ee8	0.010570265
79	0x3d48670e	0.048926406
80	0xbb8d66f9	-0.004315254
81	0x3c272020	0.01020053
82	0x3db882d0	0.090093255
83	0x3c57c2c3	0.013168993
84	0xbd3ee5b2	-0.046605773
85	0xbe487f9a	-0.19579926
86	0xbc0f6a6c	-0.0087534
87	0x3d929e8b	0.07159146
88	0x3cece648	0.0289184
89	0xbd23f88f	-0.040031966
90	0xbc1e861d	-0.00967553
91	0xbdafb597	-0.085795574
92	0xbb6fc782	-0.0036587422
93	0x3de0ddb1	0.10979784
94	0x3d05a85c	0.032631263
95	0xbd8fec9e	-0.07027553
96	0x3cc600e6	0.02417035
97	0xbc8cd55b	-0.01719158
98	0xbbc0c55c	-0.005882902
99	0xbd8f7c1c	-0.07006094
100	0xbcea2d59	-0.028586077
101	0x3dcbe392	0.09955515
102	0x3e0b1fd0	0.13586354
103	0x3be10977	0.0068675834
104	0x3dafc84e	0.08583127
105	0xbd91aff8	-0.071136415
106	0x3d9f0e4e	0.077664
107	0xbd8138ba	-0.06309648
108	0x3b5ef787	0.003402205
109	0xbcab989f	-0.020946799
110	0x3db93f5e	0.090452895
111	0x3bdb1ba1	0.006686643
112	0x3d17bf98	0.037047952
113	0xbd815b7d	-0.06316278
114	0x3d49e8ad	0.049294163
115	0x3cd3321a	0.025780726
116	0x3ba045f6	0.0048911525
117	0x3e4140cc	0.18872374
118	0x3dd7c2a9	0.10535175
119	0x3d641646	0.055685304
120	0x3e1a2df5	0.15056594
121	0xbdea0762	-0.114271894
122	0xbcc24b75	-0.023717621
123	0xbd276bf0	-0.04087442
124	0xbd83ff3a	-0.06445165
125	0x3d883af1	0.06651867
126	0x3e06a1c3	0.13147645
127	0xbdb89b0e	-0.09013949
128	0xbbdedf65	-0.006801533
129	0x3ba65300	0.0050758123
130	0x3ca4d5ee	0.02012154
131	0xbd8d7140	-0.06906366
132	0x3d9fe8ea	0.07808097
133	0xbde56bff	-0.11202239
134	0xbd15dbe2	-0.03658665
135	0x3d4aac8f	0.04948097
136	0x3d0fdd21	0.035122994
137	0xbc892232	-0.016739938
138	0x3da4f224	0.08053997
139	0xbe26c506	-0.16286096
140	0xbe0c183f	-0.13681124
141	0x3e02aed4	0.12762004
142	0xbc8eead8	-0.017445967
143	0x3e5be770	0.21475005
144	0xbd01fe52	-0.03173668
145	0xbdb3ec40	-0.087852955
146	0xbd089dbc	-0.033353552
147	0xbd4b9f43	-0.04971243
148	0x3d83b31a	0.06430645
149	0xbc415c4f	-0.011801793
150	0xbdd97267	-0.10617524
151	0xbe0c681d	-0.13711591
152	0xbda8a147	-0.08233886
153	0xbd674190	-0.05645901
154	0xbc8481fa	-0.016175259
155	0xbe1ec489	-0.1550466
156	0xbd5ae284	-0.05343868
157	0x3e0c3ca1	0.13695003
158	0xbdb7f914	-0.08983055
159	0x3de3a170	0.11114776
160	0x3c8976a6	0.016780209
161	0x3e0df6f3	0.13863735
162	0x3d501b27	0.050807144
163	0x3d9604ba	0.0732512
164	0xbca72504	-0.020403393
165	0x3d77b92a	0.06047932
166	0x3cdae2ac	0.026719414
167	0xbddff588	-0.10935503
168	0x3e15c829	0.14627136
169	0xbc8c198a	-0.017102022
170	0x3d358464	0.04431571
171	0xbd82867b	-0.06373306
172	0xbd4ff62e	-0.050771885
173	0x3da2185a	0.07914801
174	0xbdb3e596	-0.087840244
175	0xbd7fbb3e	-0.062434427
176	0xbd825983	-0.06364729
177	0x3d480853	0.048836064
178	0x3d3a3ab4	0.04546614
179	0xbd45dc96	-0.04830607
180	0x3d469816	0.048484884
181	0xbd705d3e	-0.058682673
182	0xbd6a8826	-0.057258748
183	0x3d9722f9	0.073797174
184	0x3da2657c	0.07929513
185	0xbda04c48	-0.078270495
186	0xbd1879ff	-0.03722572
187	0xbd9df2a9	-0.077122994
188	0x3da81ce5	0.08208636
189	0x3d2808e2	0.041024096
190	0xbd7e421f	-0.062074777
191	0xbd5d9f25	-0.05410685
192	0xbdea5d84	-0.11443618
193	0x3de422f7	0.111394815
194	0xbe04f0d1	-0.12982489
195	0x3c832ca3	0.016012495
196	0x3d4341d8	0.047670215
197	0xbd8252a7	-0.06363421
198	0xbe1b5cf2	-0.15172175
199	0xbdbb47fd	-0.0914459
200	0xbde9b5cb	-0.114116274
201	0x3e0e7bcf	0.13914417
202	0xbda22b73	-0.079184435
203	0xbdd9638a	-0.10614689
204	0x3c3fc854	0.011705477
205	0x3e054df5	0.1301802
206	0xbd98004a	-0.0742193
207	0xbb89ed8e	-0.004209227
208	0xbd4e84c0	-0.05041957
209	0x3d137535	0.03600045
210	0x3c10e440	0.008843482
211	0xbe3d8e3e	-0.18511292
212	0x3c846e6e	0.016165938
213	0xbe4f69f7	-0.20255266
214	0xbcc00d33	-0.023443794
215	0xbcb788ae	-0.022404041
216	0x3e3c6db7	0.18401228
217	0xbdc23b4b	-0.094839655
218	0x3bb93b63	0.0056528314
219	0xbda8e181	-0.082461365
220	0x3b9a880b	0.0047159246
221	0xbcc32a9b	-0.023824027
222	0xbcd3348b	-0.02578189
223	0x3e1354a7	0.14387761
224	0x3e573fbb	0.21020405
225	0x3d5aa1ee	0.053377084
226	0xbd9e9c6b	-0.07744678
227	0x3dcb5ca3	0.099297784
228	0xbe127c90	-0.1430533
229	0x3d5a2033	0.053253364
230	0xbdf7d646	-0.12101416
231	0xbbbb3f96	-0.005714367
232	0xbd885f22	-0.0665877
233	0xbdc387af	-0.09547364
234	0x3b99bf9e	0.004692032
235	0x3d94bfc6	0.072631404
236	0xbe3b5069	-0.18292393
237	0x3c531ccb	0.012885283
238	0xba081aee	-0.0005192001
239	0xbd3c6ba0	-0.046001077
240	0xbd123bb7	-0.03570148
241	0x3aa2cdd1	0.0012420957
242	0x3da6b9e9	0.08140928
243	0x3c5ae274	0.013359655
244	0xbe05f555	-0.13081868
245	0x3d93b0a3	0.07211425
246	0xbe5e1bec	-0.21690339
247	0xbc8a373b	-0.016872039
248	0xbd50168d	-0.050802756
249	0xbd70ea17	-0.058816995
250	0x3b33045c	0.002731583
251	0xbd3e231b	-0.046420198
252	0xbc3e6cca	-0.011622617
253	0xbde1061b	-0.10987493
254	0x3d13fb12	0.03612811
255	0xbe13c163	-0.1442924

net.2.model.bias f4 [128]
0	0x3c2510eb	0.010074834
1	0xbd681976	-0.056664906
2	0xbd6c9547	-0.05775955
3	0x3d4a1b27	0.0493423
4	0xbdb078d6	-0.086167976
5	0x3da63ab2	0.08116664
6	0x3dc068d4	0.093949944
7	0x3d0d62e9	0.034518156
8	0xbc50942c	-0.012730639
9	0x3cadb80c	0.021205924
10	0x3d9af4a4	0.07566193
11	0xbba3b962	-0.0049964646
12	0x3d3d6938	0.046242923
13	0xbeebe2c0	-0.46071434
14	0x3d3b0885	0.04566242
15	0x3da710c4	0.08157495
16	0xbc940997	-0.018070979
17	0x3d66020b	0.056154292
18	0x3da5064c	0.08057842
19	0xbd3beaf3	-0.045878362
20	0x3da35fe6	0.079772756
21	0xbd878cd7	-0.0661866
22	0xbc8d1a1d	-0.017224366
23	0xbd5fbefc	-0.054625496
24	0x3a3644fe	0.00069530297
25	0x3cee74ce	0.029108431
26	0x3cf70ff3	0.030158972
27	0xbba76c2f	-0.005109332
28	0x3beacb83	0.007165374
29	0x3dd52d7e	0.104090676
30	0xbcfae0ad	-0.030624712
31	0x3d89561b	0.067058764
32	0xbd6c78b4	-0.0577323
33	0x3c603f07	0.013686902
34	0xbd2ddaff	-0.04244518
35	0xbd54a10c	-0.0519114
36	0xbd48b2b1	-0.04899854
37	0x3d82961d	0.06376288
38	0x3c24b9db	0.010054077
39	0x3d5754b7	0.052571025
40	0xbd7531ca	-0.059861936
41	0xbc5f445f	-0.013627141
42	0x3bb9a638	0.005665567
43	0xbd1a2623	-0.037634026
44	0x3c89cac8	0.016820326
45	0x3e1b6f31	0.15179135
46	0xbd5fee3d	-0.05467056
47	0xbcae7899	-0.02129774
48	0x3d49a254	0.049227074
49	0xbc1c3229	-0.0095334435
50	0xbdbb32b5	-0.09140531
51	0x3dd13278	0.10214704
52	0x3d8b4eed	0.06802163
53	0x3d5b1ec6	0.053496145
54	0xbd62f16a	-0.05540601
55	0xbc83fc20	-0.016111434
56	0x3dd9eae5	0.10640506
57	0x3d560225	0.05224814
58	0x3d0b9455	0.034077007
59	0x3d3c188c	0.045921847
60	0x3ead7821	0.33880714
61	0xbd82002f	-0.06347691
62	0xbd7686dc	-0.060187206
63	0xbd1bb36a	-0.0380129
64	0xbdb1519a	-0.086581424
65	0xbd8f530b	-0.06998261
66	0xbc5e891b	-0.013582493
67	0x3e047acc	0.12937468
68	0xbd30e213	-0.04318435
69	0x3e03318c	0.1281187
70	0x3db3d942	0.08781673
71	0xbccc01e7	-0.02490325
72	0x3d4b7bb2	0.049678512
73	0xbd7e78fc	-0.0621271
74	0xbdf33dbf	-0.118770115
75	0x3d8cb8a7	0.06871157
76	0xbd95a04c	-0.07305965
77	0x3c43bf5c	0.011947479
78	0x3c8a6bf9	0.016897188
79	0x3d1f2f67	0.038863566
80	0x3c86d902	0.0164609
81	0x3b728c71	0.003700998
82	0xbcb277e7	-0.02178569
83	0xbd46d1a9	-0.04853979
84	0xbc7c8528	-0.015412606
85	0x3d0abab8	0.033869475
86	0x3cae0780	0.02124381
87	0xbb80bb02	-0.003928543
88	0xbd9beb43	-0.07613232
89	0x3d0dbd12	0.03460414
90	0x3b829da0	0.0039860755
91	0xbdafdb39	-0.08586735
92	0x3db6c735	0.089247145
93	0x3c83f16d	0.016106332
94	0xbd317ecc	-0.043333814
95	0x3cb8a58b	0.022539875
96	0xbb84f75d	-0.0040578083
97	0x3d6374a3	0.055531155
98	0xbda43791	-0.08018411
99	0x3cf950be	0.030434009
100	0xbdcced86	-0.100062415
101	0xbdb83253	-0.089939736
102	0xbd93b3e0	-0.07212043
103	0xbca4e6a4	-0.02012951
104	0xbd4f9d68	-0.050687224
105	0x3d1f9c3f	0.038967367
106	0x3cfbfef9	0.030761229
107	0x3d81e4aa	0.06342442
108	0x3d841896	0.06450002
109	0x3d31c79e	0.04340326
110	0x3e16b627	0.14717923
111	0x3d8c3266	0.0684555
112	0x3d394856	0.045235
113	0xbcae168b	-0.021250984
114	0x3dbbeff6	0.09176628
115	0xbd5a801c	-0.05334483
116	0xbbcb941c	-0.0062127244
117	0xbd0b8c27	-0.034069207
118	0xbd9a1e84	-0.07525352
119	0x3c67edfa	0.014155859
120	0xbdc6f483	-0.09714606
121	0xbdd293a8	-0.102820694
122	0xbd7f0830	-0.062263668
123	0xbc0923fe	-0.008370398
124	0x3c75f2b3	0.015011477
125	0x3d6ea00c	0.0582581
126	0x3d8acc6f	0.06777274
127	0x3cbc0417	0.022951169

net.2.model.parametrizations.weight.original f4 [128, 128]
0	0x00000000	0.0
1	0x00000000	0.0
2	0x00000000	0.0
3	0x00000000	0.0
4	0x00000000	0.0
5	0x00000000	0.0
6	0x00000000	0.0
7	0x00000000	0.0
8	0x00000000	0.0
9	0x00000000	0.0
10	0x00000000	0.0
11	0x00000000	0.0
12	0x00000000	0.0
13	0x00000000	0.0
14	0x00000000	0.0
15	0x00000000	0.0
16	0x00000000	0.0
17	0x00000000	0.0
18	0x00000000	0.0
19	0x00000000	0.0
20	0x00000000	0.0
21	0x00000000	0.0
22	0x00000000	0.0
23	0x00000000	0.0
24	0x00000000	0.0
25	0x00000000	0.0
26	0x00000000	0.0
27	0x00000000	0.0
28	0x00000000	0.0
29	0x00000000	0.0
30	0x00000000	0.0
31	0x00000000	0.0
32	0x00000000	0.0
33	0x00000000	0.0
34	0x00000000	0.0
35	0x00000000	0.0
36	0x00000000	0.0
37	0x00000000	0.0
38	0x00000000	0.0
39	0x00000000	0.0
40	0x00000000	0.0
41	0x00000000	0.0
42	0x00000000	0.0
43	0x00000000	0.0
44	0x00000000	0.0
45	0x00000000	0.0
46	0x00000000	0.0
47	0x00000000	0.0
48	0x00000000	0.0
49	0x00000000	0.0
50	0x00000000	0.0
51	0x00000000	0.0
52	0x00000000	0.0
53	0x00000000	0.0
54	0x00000000	0.0
55	0x00000000	0.0
56	0x00000000	0.0
57	0x00000000	0.0
58	0x00000000	0.0
59	0x00000000	0.0
60	0x00000000	0.0
61	0x00000000	0.0
62	0x00000000	0.0
63	0x00000000	0.0
64	0x00000000	0.0
65	0x00000000	0.0
66	0x00000000	0.0
67	0x00000000	0.0
68	0x00000000	0.0
69	0x00000000	0.0
70	0x00000000	0.0
71	0x00000000	0.0
72	0x00000000	0.0
73	0x00000000	0.0
74	0x00000000	0.0
75	0x00000000	0.0
76	0x00000000	0.0
77	0x00000000	0.0
78	0x00000000	0.0
79	0x00000000	0.0
80	0x00000000	0.0
81	0x00000000	0.0
82	0x00000000	0.0
83	0x00000000	0.0
84	0x00000000	0.0
85	0x00000000	0.0
86	0x00000000	0.0
87	0x00000000	0.0
88	0x00000000	0.0
89	0x00000000	0.0
90	0x00000000	0.0
91	0x00000000	0.0
92	0x00000000	0.0
93	0x00000000	0.0
94	0x00000000	0.0
95	0x00000000	0.0
96	0x00000000	0.0
97	0x00000000	0.0
98	0x00000000	0.0
99	0x00000000	0.0
100	0x00000000	0.0
101	0x00000000	0.0
102	0x00000000	0.0
103	0x00000000	0.0
104	0x00000000	0.0
105	0x00000000	0.0
106	0x00000000	0.0
107	0x00000000	0.0
108	0x00000000	0.0
109	0x00000000	0.0
110	0x00000000	0.0
111	0x00000000	0.0
112	0x00000000	0.0
113	0x00000000	0.0
114	0x00000000	0.0
115	0x00000000	0.0
116	0x00000000	0.0
117	0x00000000	0.0
118	0x00000000	0.0
119	0x00000000	0.0
120	0x00000000	0.0
121	0x00000000	0.0
122	0x00000000	0.0
123	0x00000000	0.0
124	0x00000000	0.0
125	0x00000000	0.0
126	0x00000000	0.0
127	0x00000000	0.0
128	0xbcf2836c	-0.029603682
129	0x00000000	0.0
130	0x00000000	0.0
131	0x00000000	0.0
132	0x00000000	0.0
133	0x00000000	0.0
134	0x00000000	0.0
135	0x00000000	0.0
136	0x00000000	0.0
137	0x00000000	0.0
138	0x00000000	0.0
139	0x00000000	0.0
140	0x00000000	0.0
141	0x00000000	0.0
142	0x00000000	0.0
143	0x00000000	0.0
144	0x00000000	0.0
145	0x00000000	0.0
146	0x00000000	0.0
147	0x00000000	0.0
148	0x00000000	0.0
149	0x00000000	0.0
150	0x00000000	0.0
151	0x00000000	0.0
152	0x00000000	0.0
153	0x00000000	0.0
154	0x00000000	0.0
155	0x00000000	0.0
156	0x00000000	0.0
157	0x00000000	0.0
158	0x00000000	0.0
159	0x00000000	0.0
160	0x00000000	0.0
161	0x00000000	0.0
162	0x00000000	0.0
163	0x00000000	0.0
164	0x00000000	0.0
165	0x00000000	0.0
166	0x00000000	0.0
167	0x00000000	0.0
168	0x00000000	0.0
169	0x00000000	0.0
170	0x00000000	0.0
171	0x00000000	0.0
172	0x00000000	0.0
173	0x00000000	0.0
174	0x00000000	0.0
175	0x00000000	0.0
176	0x00000000	0.0
177	0x00000000	0.0
178	0x00000000	0.0
179	0x00000000	0.0
180	0x00000000	0.0
181	0x00000000	0.0
182	0x00000000	0.0
183	0x00000000	0.0
184	0x00000000	0.0
185	0x00000000	0.0
186	0x00000000	0.0
187	0x00000000	0.0
188	0x00000000	0.0
189	0x00000000	0.0
190	0x00000000	0.0
191	0x00000000	0.0
192	0x00000000	0.0
193	0x00000000	0.0
194	0x00000000	0.0
195	0x00000000	0.0
196	0x00000000	0.0
197	0x00000000	0.0
198	0x00000000	0.0
199	0x00000000	0.0
200	0x00000000	0.0
201	0x00000000	0.0
202	0x00000000	0.0
203	0x00000000	0.0
204	0x00000000	0.0
205	0x00000000	0.0
206	0x00000000	0.0
207	0x00000000	0.0
208	0x00000000	0.0
209	0x00000000	0.0
210	0x00000000	0.0
211	0x00000000	0.0
212	0x00000000	0.0
213	0x00000000	0.0
214	0x00000000	0.0
215	0x00000000	0.0
216	0x00000000	0.0
217	0x00000000	0.0
218	0x00000000	0.0
219	0x00000000	0.0
220	0x00000000	0.0
221	0x00000000	0.0
222	0x00000000	0.0
223	0x00000000	0.0
224	0x00000000	0.0
225	0x00000000	0.0
226	0x00000000	0.0
227	0x00000000	0.0
228	0x00000000	0.0
229	0x00000000	0.0
230	0x00000000	0.0
231	0x00000000	0.0
232	0x00000000	0.0
233	0x00000000	0.0
234	0x00000000	0.0
235	0x00000000	0.0
236	0x00000000	0.0
237	0x00000000	0.0
238	0x00000000	0.0
239	0x00000000	0.0
240	0x00000000	0.0
241	0x00000000	0.0
242	0x00000000	0.0
243	0x00000000	0.0
244	0x00000000	0.0
245	0x00000000	0.0
246	0x00000000	0.0
247	0x00000000	0.0
248	0x00000000	0.0
249	0x00000000	0.0
250	0x00000000	0.0
251	0x00000000	0.0
252	0x00000000	0.0
253	0x00000000	0.0
254	0x00000000	0.0
255	0x00000000	0.0

net.2.model.parametrizations.weight.0.base f4 [128, 128]
0	0x3da197a0	0.07890248
1	0xbce65708	-0.028117672
2	0xbdce8483	-0.10083868
3	0x3d8838b8	0.06651443
4	0xbe2253aa	-0.15852228
5	0xbe061178	-0.13092601
6	0xbdb3f736	-0.08787386
7	0x3c99d09c	0.01877623
8	0xbda046b6	-0.07825987
9	0x3d92587a	0.07145782
10	0xbd0ed7f8	-0.034873933
11	0x3e0a3eb4	0.13500482
12	0x3d829e9a	0.06377907
13	0xbc517324	-0.012783799
14	0xbe0de359	-0.13856257
15	0x3db6d2f7	0.08926957
16	0x3dc5501a	0.09634419
17	0x3d333cdc	0.043759212
18	0x3c027758	0.007963024
19	0xbdc19465	-0.09452132
20	0x3dec750f	0.11545765
21	0xbdbf9c32	-0.09355964
22	0xbd664e3b	-0.05622695
23	0xbcf9cafc	-0.030492298
24	0xbd67b820	-0.05657208
25	0x3d5e8e75	0.054335076
26	0x3e108db7	0.1411656
27	0x3df54e0f	0.11977779
28	0xbccfac0c	-0.025350593
29	0xbcae8db6	-0.021307807
30	0xbda4549c	-0.080239505
31	0x3e14374a	0.14474216
32	0x3c82117a	0.015877474
33	0xbdb68838	-0.089127004
34	0x3d857e62	0.06518246
35	0x3d27c6d6	0.04096111
36	0x3e070105	0.13183983
37	0xbd3628dd	-0.044472564
38	0xbb8423a2	-0.004032568
39	0x3e81eae2	0.25374514
40	0xbcb04a2d	-0.021519745
41	0x3c84e583	0.016222721
42	0xbd4840fa	-0.04889009
43	0x3da39663	0.07987668
44	0x3c972f9b	0.018455317
45	0xbd66e787	-0.056373145
46	0x3d922241	0.0713544
47	0xbcfccee7	-0.030860377
48	0x3d9d13fd	0.07669828
49	0xbda14c79	-0.07875914
50	0x3df8d7bc	0.12150523
51	0x3d8c9138	0.06863636
52	0xbd4c63fc	-0.04990004
53	0xbda767c8	-0.081740916
54	0x3be9b49d	0.0071321265
55	0xbbf510c7	-0.0074788067
56	0xbe006748	-0.12539399
57	0x3cd01758	0.025401756
58	0xbdd21d98	-0.10259551
59	0x3ccaa039	0.024734603
60	0x3ce7ce62	0.028296653
61	0x3c1c2a1d	0.009531525
62	0x3dc3097e	0.09523295
63	0x3db56d37	0.08858722
64	0x3d49c6c6	0.04926183
65	0xbe22bb7a	-0.15891829
66	0x3d2fd3a5	0.04292645
67	0xbd8e1527	-0.06937628
68	0xbd40f086	-0.04710438
69	0x391652b7	0.00014335928
70	0xbc9c5b2e	-0.019086447
71	0x3d01fe0e	0.031736426
72	0xbe2080e5	-0.1567417
73	0xbdd8d6a0	-0.105878115
74	0xbd9110b0	-0.07083261
75	0x3dbdf6cf	0.09275591
76	0x3d782951	0.060586277
77	0xbe101382	-0.14069942
78	0xbd5d2810	-0.053993285
79	0x3db2fcb0	0.087396026
80	0x3e5143a2	0.20435956
81	0x3cb4f09b	0.022087386
82	0x3df070a2	0.11740233
83	0x3d2eb143	0.04264952
84	0xbd5baf85	-0.053634185
85	0x3ded6dd7	0.11593216
86	0x3d87bd10	0.06627858
87	0xbdb3a17d	-0.08771036
88	0xbd50f187	-0.05101159
89	0x3e2c6393	0.1683486
90	0x3e8cb84e	0.27484363
91	0xbd7fc0ee	-0.06243985
92	0xbe1373e2	-0.14399675
93	0xbd8e23f0	-0.06940448
94	0x3d4def9a	0.05027733
95	0xbe01472d	-0.12624808
96	0x3c1bdc8b	0.009513031
97	0x3d30bb8a	0.0431476
98	0xbd23a7f5	-0.0399551
99	0xbdcefa13	-0.101062916
100	0xbd661a41	-0.05617738
101	0x3db66122	0.08905245
102	0x3c236b93	0.009974378
103	0x3d3e6767	0.04648533
104	0x3dececb1	0.11568583
105	0xbc2d66b7	-0.010583571
106	0xbcb03808	-0.021511093
107	0xbe0d2fdb	-0.13787787
108	0x3d838a49	0.0642286
109	0xbd2463b5	-0.04013415
110	0x3d961b95	0.073294796
111	0x3d98fecd	0.074704744
112	0xbe1d2073	-0.1534441
113	0xbda1bc96	-0.07897298
114	0xbbb4bb32	-0.0055154795
115	0xbd96c46d	-0.07361684
116	0xbe0805a9	-0.13283409
117	0x3dd705e6	0.10499172
118	0xbdbb0f70	-0.09133804
119	0x3ceaa1f7	0.028641684
120	0x3de8aa12	0.11360563
121	0x3cb0454e	0.021517422
122	0x3dbc72b3	0.09201565
123	0x3d0df63d	0.03465866
124	0xbd3afc42	-0.045650728
125	0xbd4c4519	-0.049870584
126	0xbca75852	-0.020427857
127	0xbdb420f0	-0.08795345
128	0x3e346012	0.17614773
129	0xbceff500	-0.02929163
130	0x3d00b8a2	0.03142608
131	0xbdd275a4	-0.102763444
132	0xbe029f9e	-0.12756202
133	0xbbe46f1c	-0.006971253
134	0x3c58bd22	0.0132286865
135	0x3d8630e2	0.065522924
136	0xbd4488c8	-0.047982007
137	0xbda2e8e6	-0.07954578
138	0xbe0ca543	-0.13734917
139	0x3d0746aa	0.033026375
140	0xbd09ec00	-0.033672333
141	0xbd344266	-0.044008635
142	0xbde79ea5	-0.11309556
143	0x3e211385	0.15730102
144	0xbc8835c3	-0.016627198
145	0x3daccc8a	0.0843745
146	0x3d87dd75	0.066340365
147	0xbc04b17c	-0.008098956
148	0x3e2e874c	0.17043799
149	0x3e961442	0.2931233
150	0x3da88705	0.08228878
151	0xbe1ad06b	-0.15118568
152	0xbd22a9b3	-0.03971262
153	0xbddace46	-0.10683875
154	0xbe040ab5	-0.1289471
155	0x3cbe3a79	0.023221241
156	0x3d11e66a	0.03562013
157	0xbd0a1e31	-0.0337202
158	0x3b90cbd0	0.0044188276
159	0x3debbb04	0.1151028
160	0xbc824a38	-0.01590453
161	0xbd8418b0	-0.06450021
162	0xbcd1d444	-0.025613911
163	0x3bdfda7c	0.0068314653
164	0xbd011818	-0.03151712
165	0xbd4b9811	-0.04970557
166	0x3d680be0	0.05665195
167	0x3d98ee06	0.07467274
168	0x3d5d4c62	0.054027922
169	0xbe1269fa	-0.1429824
170	0xbb4c79e2	-0.0031200578
171	0xbd9ef7ad	-0.07762084
172	0xbd825691	-0.063641675
173	0x3d2abc45	0.041683454
174	0xbd06abf6	-0.03287884
175	0xbcd844d5	-0.02640001
176	0xbe75ea82	-0.24015239
177	0xbde1b2f2	-0.11020459
178	0xbd08db42	-0.033412226
179	0x3baeb6ca	0.0053318487
180	0x3e1994f5	0.14998229
181	0x3d155075	0.036453683
182	0x3d2f6b58	0.04282698
183	0xbc5e5aaa	-0.013571421
184	0xbddee499	-0.10883445
185	0x3d626eaa	0.05528132
186	0xbe10719f	-0.14105843
187	0xbdad610c	-0.08465776
188	0x3db5418e	0.08850394
189	0xbd1505e7	-0.036382582
190	0xbc940ce6	-0.018072557
191	0x3db59948	0.08867127
192	0xbcfc04d3	-0.03076402
193	0x3df6dd8e	0.12053977
194	0x3e0a11f0	0.13483405
195	0x3dda4fd4	0.10659757
196	0x3d81afc6	0.06332354
197	0x39ed2c15	0.00045237006
198	0xbc60b634	-0.013715316
199	0x3d1838d6	0.037163578
200	0xbbf41ec4	-0.0074499566
201	0x3e4c7dfe	0.19969937
202	0xb9f07700	-0.0004586503
203	0xbd83b16b	-0.06430324
204	0xbd0bf28c	-0.034166858
205	0xbd8f0bd8	-0.06984681
206	0xbd7ca48e	-0.06168037
207	0x3d79a17f	0.06094503
208	0xbdc3b59b	-0.09556123
209	0xbd1272aa	-0.035753883
210	0x3ccdb845	0.02511228
211	0xbdc9f76a	-0.098616436
212	0xbc8ed3d4	-0.017434992
213	0xbd7a3bac	-0.061092064
214	0x3d0f7671	0.035025064
215	0x3c81550c	0.015787624
216	0x3d83bac8	0.0643211
217	0xbcf3f1d7	-0.029778404
218	0x3c4917b4	0.012273718
219	0xbdb05fc4	-0.08612016
220	0x3dfea9aa	0.124347046
221	0xbdd7c7b2	-0.10536136
222	0x3db4aec4	0.088223964
223	0xbe6db672	-0.23214129
224	0x3cd23ef9	0.025664793
225	0xbdfbe21c	-0.12298986
226	0xbc872716	-0.01649813
227	0x3ca06246	0.01957811
228	0x3bbb01c4	0.0057069976
229	0x3d1c2965	0.038125414
230	0x3d4deeb1	0.050276462
231	0x3d2c38a8	0.04204622
232	0x3dc5e7b8	0.096633375
233	0x3e253aea	0.16135755
234	0x3e6f14e2	0.2334781
235	0x3c8df571	0.01732895
236	0xbd06708e	-0.032822184
237	0x3c1391e4	0.009006951
238	0xbd0354ab	-0.032063168
239	0xbc16422e	-0.009171052
240	0x3e08a0ae	0.13342544
241	0xbd8b8bdc	-0.068137854
242	0x3d32577c	0.043540463
243	0xbdc095ba	-0.09403558
244	0x3c0d5938	0.008627228
245	0xbcdbd68d	-0.026835704
246	0xbcb87bbe	-0.022519942
247	0xbbdf4d48	-0.0068146326
248	0xbd577bd4	-0.052608326
249	0x3da49e86	0.080380484
250	0xbe17bcc8	-0.14818108
251	0x3e13324c	0.14374655
252	0x3c941b90	0.01807955
253	0x3e04f985	0.12985809
254	0x3c4b7523	0.012418064
255	0x3c273d1a	0.010207439

net.4.model.parametrizations.weight.original f4 [1, 128]
0	0x00000000	0.0
1	0xbda6936c	-0.08133587
2	0xbcf0b2b9	-0.029382097
3	0xbdf196fc	-0.11796376
4	0xbd0d0429	-0.034427796
5	0xbdbdf347	-0.09274917
6	0xbb164b54	-0.0022933083
7	0xbd82f44d	-0.06394253
8	0x3e229fc5	0.1588126
9	0x3cc6ba5e	0.024258789
10	0x3e06477f	0.13113211
11	0xbd083e99	-0.033262823
12	0xbbaf2d15	-0.0053459504
13	0xbd925fc7	-0.07147174
14	0xbdd40b77	-0.10353749
15	0xbd56ba0d	-0.052423526
16	0xbdbd62fb	-0.09247395
17	0xbd7dc4f0	-0.061955392
18	0x3c30c299	0.010788583
19	0xbc901050	-0.017585903
20	0x3de2739d	0.11057208
21	0xbd9581da	-0.07300158
22	0x3da035a2	0.0782273
23	0xbd33a5d3	-0.043859314
24	0x3d7ef0ff	0.06224155
25	0x3d5fb60c	0.054616973
26	0xbdc831a7	-0.097750954
27	0xbc005954	-0.0078337975
28	0x3d8cf45b	0.068825446
29	0xbcc41a10	-0.023938209
30	0xbd2bf4d3	-0.04198153
31	0x3d392954	0.04520543
32	0x3e067862	0.1313186
33	0x3cca1b15	0.024671117
34	0xbdd49fe6	-0.10382061
35	0x3dd592f6	0.10428421
36	0x3c3e9c32	0.01163392
37	0x3c6e151e	0.014531402
38	0x3d689c08	0.056789428
39	0x3db0e9a0	0.086383104
40	0x3d81d2ec	0.06339058
41	0xbd7c41b1	-0.061586086
42	0x3db05cae	0.08611427
43	0xbcd65662	-0.026164237
44	0xbbb8e7cd	-0.005642867
45	0xbbc0fa9d	-0.0058892504
46	0xbe0bb952	-0.13644913
47	0x3dd7f161	0.10544086
48	0xbd8af663	-0.06785276
49	0x3da46bf1	0.08028401
50	0xbdbd1586	-0.09232621
51	0x3c72ef13	0.014827508
52	0x3d50bf78	0.05096385
53	0xbc0ce8c9	-0.008600422
54	0xbdc744d5	-0.097299255
55	0xbd327f0d	-0.043578196
56	0x3dbe6611	0.09296811
57	0x3d354644	0.044256464
58	0x3cd966d8	0.026538298
59	0x3cffd606	0.031229984
60	0xba55cd91	-0.0008155937
61	0xbd0d4653	-0.034490895
62	0x3d6afe97	0.057371702
63	0x3e2bbe57	0.16771828
64	0x3d10d0d1	0.035355393
65	0x3d817858	0.06321782
66	0x3dbbbaa3	0.091664575
67	0xbcb3ea23	-0.021962231
68	0xbc4d32c6	-0.012524312
69	0xbc06df2a	-0.008231917
70	0xbd94545e	-0.07242654
71	0x3d8ebf50	0.06970084
72	0x3d6cdf28	0.057830006
73	0x3d9d33f0	0.07675922
74	0x3d26741b	0.04063807
75	0xbc9aa34b	-0.018876692
76	0xbd256ee6	-0.040388964
77	0xbdd4462e	-0.10364948
78	0x3b26747b	0.0025399018
79	0x3d69c57c	0.0570731
80	0x3d9e2d8b	0.077235304
81	0xbd933b5b	-0.071890555
82	0x3bfe7744	0.0077656824
83	0x3dc434db	0.09580394
84	0xbc2bf45b	-0.010495271
85	0xbd0a1dbd	-0.033719767
86	0x3df405a7	0.119151406
87	0x3d5790b9	0.052628253
88	0xbd9a2021	-0.07525659
89	0x3cfefc47	0.031126155
90	0xbd8da2e3	-0.06915834
91	0xbd31bc14	-0.043392256
92	0x3dc4cfd3	0.09609952
93	0x3d8a7220	0.06760049
94	0xbdbde4aa	-0.0927213
95	0x3cd059d4	0.025433458
96	0x3d7ee1bf	0.062227007
97	0x3c0544fc	0.008134123
98	0xbdb46694	-0.08808628
99	0xbc042e4a	-0.008067677
100	0x3d8b8165	0.068117894
101	0x3da6b582	0.081400886
102	0x3d3024f5	0.043003995
103	0x3d3f6760	0.046729445
104	0xbd25f0bb	-0.04051278
105	0x3d995c54	0.07488313
106	0x3bb23783	0.0054387464
107	0x3d815cec	0.063165516
108	0xbd3ab144	-0.04557921
109	0x3d74a7b8	0.05973026
110	0xbd161fb5	-0.036651332
111	0x3c904d4d	0.017614985
112	0x3dbb4507	0.09144025
113	0xbb91a6e4	-0.0044449437
114	0x3d802728	0.062574685
115	0xbd30611c	-0.04306136
116	0xbd4e878e	-0.050422244
117	0x3e07607b	0.13220398
118	0x3d763df9	0.060117695
119	0x3d6c3ef1	0.057677213
120	0xbca96ce2	-0.020681802
121	0x3cb37e7f	0.021910904
122	0xbb847c01	-0.0040431027
123	0x3dcfdfea	0.1015013
124	0xbd8d6f74	-0.069060236
125	0xbcd183fb	-0.025575629
126	0xbc9c59f6	-0.019085865
127	0x3caca81d	0.021076256

net.4.model.parametrizations.weight.0.base f4 [128, 128]
0	0x3c049000	0.008090973
1	0xbe089b78	-0.13340557
2	0xbdafc61e	-0.0858271
3	0xbdf0880b	-0.11744698
4	0xbd9dd664	-0.077069074
5	0x3db35645	0.08756689
6	0xbdc4e16e	-0.0961331
7	0xbd294ea4	-0.041334763
8	0x3d1b60ec	0.03793423
9	0x3dc62627	0.09675246
10	0x3d312cd8	0.043255657
11	0xbce886a2	-0.02838451
12	0x3d73673e	0.05942463
13	0x3d715fef	0.05892938
14	0xbc3084ee	-0.01077388
15	0xbd80944b	-0.06278285
16	0xbcad1764	-0.021129318
17	0x3de6052f	0.112314574
18	0xbda085f9	-0.07838053
19	0xbca5fab4	-0.020261146
20	0xbd90d340	-0.07071543
21	0xbda99b05	-0.08281521
22	0xbd775293	-0.060381483
23	0x3e33127f	0.17487524
24	0xbde9ea44	-0.11421636
25	0x3e29f6ea	0.16598096
26	0xbd73a116	-0.059479795
27	0x3dc5c8e5	0.09657458
28	0x3e0693f3	0.13142376
29	0xbdd32bbf	-0.10311078
30	0x3cefb4e8	0.029261068
31	0x3ded44ee	0.11585413
32	0xbd874196	-0.066043064
33	0xbdc0e80b	-0.09419259
34	0x3d642393	0.05569799
35	0xbe184d2c	-0.14873189
36	0x3c3846a8	0.0112473145
37	0xbcea3f19	-0.02859454
38	0x3d8970a8	0.067109406
39	0x3da262a1	0.07928968
40	0x3db53797	0.088484935
41	0x3b92d7a7	0.004481274
42	0x3dc40b0a	0.09572418
43	0x3e0233b4	0.12715036
44	0x3c93fcaa	0.018064816
45	0xbd8ed125	-0.06973485
46	0x3e4a1f73	0.1973856
47	0xbe34ba7b	-0.17649262
48	0xbe044085	-0.12915237
49	0x3e02d716	0.12777361
50	0x3c0a2d1e	0.008433608
51	0x3c90c420	0.017671645
52	0xbd2a7afd	-0.041621197
53	0xb9c249ab	-0.0003705745
54	0xbd53bd51	-0.051694218
55	0x3cc70c6f	0.024297921
56	0x3d42fabd	0.047602404
57	0xbdfe00f5	-0.12402526
58	0xbdb59595	-0.08866421
59	0xbd81e7fe	-0.06343077
60	0x3e2013d0	0.15632558
61	0x3d954e14	0.07290283
62	0x3d33232a	0.043734707
63	0x3c555626	0.013021028
64	0x3dc36cc9	0.095422335
65	0xbd0636e3	-0.032767188
66	0x3d8d3016	0.06893937
67	0xbe161181	-0.14655115
68	0xbde9ea34	-0.11421624
69	0xbd26039c	-0.040530786
70	0x3de53dac	0.111934036
71	0x3c95cd5a	0.018286396
72	0xbbb7e0d7	-0.00561152
73	0xbd2ed912	-0.042687483
74	0xbe0cadf0	-0.13738227
75	0xbdca299b	-0.09871217
76	0xbc368d33	-0.011142063
77	0x3d419942	0.0472653
78	0x3d899d75	0.06719486
79	0xbe4de073	-0.20105152
80	0xbd9975c0	-0.07493162
81	0x3c4fc38d	0.0126809
82	0x3d3ae68c	0.045630023
83	0x3c393775	0.011304726
84	0xbdf468b5	-0.11934034
85	0x3d689832	0.05678577
86	0x3b5410fd	0.0032358759
87	0x3d198bf6	0.037486993
88	0x3d1a84f6	0.037724458
89	0xbd81ee3c	-0.06344268
90	0x3d34a0f6	0.044098817
91	0x3e10fa3b	0.14157955
92	0x3d1d63e4	0.03842534
93	0x3d543a45	0.051813383
94	0xbd63fd28	-0.05566135
95	0xbd1ccf50	-0.038283646
96	0x3da8f2bf	0.08249425
97	0x3d6aae5e	0.057295196
98	0x3cdaf5cd	0.026728535
99	0xbdeb70ff	-0.11496162
100	0xbdc30fb6	-0.09524481
101	0xbc8b920e	-0.017037418
102	0xbd74f11b	-0.05980025
103	0x3b2bbe96	0.0026206127
104	0xbe59a888	-0.21255696
105	0xbbdc5e81	-0.006725133
106	0x3e28792e	0.16452476
107	0xbdd72c88	-0.105065405
108	0xbb976f8b	-0.0046214513
109	0x3d83a772	0.06428422
110	0xbe0f52d6	-0.13996443
111	0xbe162691	-0.1466315
112	0x3cd70692	0.02624825
113	0x3d4149f5	0.04718967
114	0x3e206907	0.15665065
115	0xbd8b1a92	-0.06792177
116	0xbe37b7cc	-0.17941207
117	0xbdad01b2	-0.08447589
118	0xbd15cac7	-0.036570337
119	0xbd068d74	-0.032849744
120	0x3dd1b06a	0.102387264
121	0xbd3925da	-0.045202114
122	0xbdf1a26f	-0.1179856
123	0x3c5e6b66	0.0135754105
124	0xbda63656	-0.081158325
125	0x3dc790d4	0.09744421
126	0x3d5deba4	0.054179803
127	0xbd46c9dc	-0.04853235
128	0x3d880179	0.06640906
129	0x3ca3aaf0	0.01997897
130	0xbde39660	-0.11112666
131	0x3dd29d52	0.10283913
132	0x3d7ae3ee	0.061252527
133	0xbdd1d390	-0.102454305
134	0xbd81a084	-0.06329444
135	0xbc077976	-0.008268705
136	0xbd5935e3	-0.053029906
137	0xbb977f4d	-0.0046233297
138	0x3e1b65f9	0.15175618
139	0xbd638553	-0.05554707
140	0x3dc59c4b	0.09648951
141	0x3d2982f2	0.041384645
142	0xbda6a455	-0.081368126
143	0x3c4d2c77	0.012522808
144	0xbc15aeb0	-0.009135887
145	0x3d3536b6	0.04424163
146	0xbdf4029f	-0.119145624
147	0x3d73deca	0.05953864
148	0xbd203442	-0.039112337
149	0xbd3761a2	-0.044770844
150	0xbda00cb3	-0.07814922
151	0x3ce173cc	0.027521037
152	0x3d5d62e8	0.054049402
153	0xbe234e01	-0.15947725
154	0x3e0b2087	0.13586627
155	0xbcc6b3be	-0.02425563
156	0x3d418d01	0.047253612
157	0xbdd1da26	-0.10246687
158	0xbda4ea4c	-0.08052501
159	0x3c2d3f34	0.010574151
160	0x3d08a805	0.03336336
161	0x3da65672	0.08121957
162	0x3e40ce9a	0.18828812
163	0xbdb3e39c	-0.087836474
164	0xbe274e5e	-0.16338488
165	0x3decd8e9	0.1156481
166	0xbdac7359	-0.08420438
167	0xbd636e37	-0.05552503
168	0xbd80774e	-0.062727556
169	0x3c6a99ff	0.014318942
170	0x3d89e5ef	0.067333095
171	0x3deb335c	0.114844054
172	0xbde9d65e	-0.114178404
173	0xbd30a82e	-0.04312914
174	0xbd5f8401	-0.054569248
175	0x3d374866	0.04474678
176	0xbdbc04f5	-0.09180633
177	0xbce0d935	-0.027447322
178	0x3e4692e7	0.19391976
179	0x3da04fea	0.078277424
180	0xbd385496	-0.045002542
181	0xbe06a5b9	-0.13149156
182	0xbd47f09a	-0.04881344
183	0xbce3b626	-0.027796816
184	0xbccbc090	-0.024872094
185	0x3d0ea385	0.034823913
186	0x3d654088	0.055969745
187	0xbe1d5836	-0.15365681
188	0xbd25251a	-0.040318586
189	0x3e58f0ad	0.2118556
190	0xbdae2b32	-0.085043326
191	0x3d4c70fb	0.049912434
192	0xbe0be658	-0.13662088
193	0xbca4b790	-0.02010706
194	0x3d5f9f9a	0.054595567
195	0x3da947f2	0.082656756
196	0xbd514a59	-0.051096294
197	0xbd98379b	-0.07432481
198	0x3d5dde8a	0.054167308
199	0xbd81c7e5	-0.06336955
200	0x3c090f94	0.0083655305
201	0x3a95c834	0.0011427463
202	0x3e34759b	0.17622988
203	0x3d974e04	0.07387927
204	0x3d891d86	0.06695084
205	0x3d8fd4ce	0.07023011
206	0x3d30c106	0.04315283
207	0xbc819d98	-0.015822217
208	0x3dcbe843	0.0995641
209	0x3d178bd3	0.03699858
210	0xbdaaf832	-0.08348121
211	0xbddb9244	-0.10721257
212	0x3d93d07a	0.07217498
213	0x3d2960f9	0.041352246
214	0x3c6e7014	0.014553089
215	0xbe1e424c	-0.15454978
216	0xbddf2172	-0.10895051
217	0xbc4dd7f8	-0.012563698
218	0xbd8510be	-0.06497334
219	0x3cc0148a	0.023447294
220	0xbd900e7f	-0.07034015
221	0x3d53af94	0.051681116
222	0x3df910b1	0.12161387
223	0x3d301b08	0.04299453
224	0x3d0f61a7	0.035005238
225	0x3c3259a9	0.010885634
226	0xbe2f208f	-0.17102264
227	0x3d0de61f	0.03464329
228	0x3cab0bca	0.020879645
229	0xbd4636ad	-0.048391987
230	0xbe4ff228	-0.20307219
231	0xbe2782f2	-0.16358545
232	0x3b6143cd	0.0034372688
233	0xbd35de91	-0.04440171
234	0x3d9f5790	0.07780373
235	0xbd84b4e4	-0.06479815
236	0xbcf4cab9	-0.029881822
237	0x3e0bffa5	0.1367174
238	0xbde9b394	-0.11411205
239	0xbd940e15	-0.072292484
240	0xbd7144cf	-0.05890351
241	0xbc807340	-0.015679955
242	0x3d8f9650	0.07011092
243	0x3c4fc587	0.0126813715
244	0x3d900751	0.070326455
245	0x3e037889	0.1283895
246	0xbc7b9084	-0.015354279
247	0x3e4aa00a	0.19787613
248	0x3e028c01	0.1274872
249	0x3d0fb9dc	0.03508936
250	0x3dd772ae	0.1051992
251	0x3e49fbbf	0.1972494
252	0x3dd21c3b	0.10259291
253	0x3de5fbc0	0.11229658
254	0x3c4adfd5	0.012382467
255	0xbc95ea7d	-0.01830029
