checkpoints/nd/dim_2/width_256/method_wgan.pt (torch, 70103 bytes, 5 tensors)

net.0.module.weight f4 [128, 2]
0.036034953 -0.03912316 0.035820507 -0.035661235 0.035798885 0.025931302 -0.035777345 -0.02940563
0.03979682 -0.025654567 0.04 0.04 -0.036398645 0.03853085 0.035812736 0.03037483
0.04 -0.04 -0.036382068 0.038522292 -0.04 -0.04 -0.04 0.04
-0.03579692 0.037702266 0.03589456 -0.031503595 -0.03582479 -0.028313067 -0.035825573 -0.029206375
0.04 0.04 0.038305644 -0.012703872 0.04 -0.04 -0.04 -0.04
-0.035242107 -0.03948846 0.039656624 0.03943287 0.03990825 0.029021911 0.035831716 0.0326449
0.03582471 0.029699657 0.03966954 0.031348094 0.04 0.04 -0.04 -0.03147872
-0.035827704 0.037627745 0.04 0.04 0.035824858 -0.03762498 0.03870896 0.037624005
0.0358288 -0.018894566 0.04 -0.04 -0.04 0.04 -0.03410202 0.03882782
-0.03965407 0.03972433 -0.026769908 0.04 0.0358397 -0.03756966 -0.04 -0.04
0.03581036 -0.037620433 -0.035822157 0.037590284 0.03988115 -0.026459128 -0.035838164 0.03761753
-0.034978267 -0.038612712 -0.04 -0.04 0.035818752 0.028657222 0.039663523 0.039402295
-0.037222486 -0.04 0.035858642 -0.037674762 -0.03582582 -0.028777594 -0.04 0.04
0.039667405 0.039372705 0.035833605 0.031137923 -0.035790768 0.037775647 0.04 -0.04
-0.04 -0.0372375 -0.035784345 -0.026572926 -0.04 0.04 -0.03578856 0.03768439
0.04 0.04 -0.04 0.04 0.035831627 -0.03761113 -0.03575141 0.037816804
-0.04 -0.04 -0.04 0.04 -0.035808407 -0.02244475 0.035808634 0.028220182
0.035788268 -0.03764944 0.04 -0.04 -0.04 -0.04 0.04 0.04
-0.022112599 0.03962346 -0.03583423 0.037620008 0.04 -0.04 0.037212852 -0.039712556
-0.035795126 0.004003661 -0.035819475 -0.029962033 -0.04 0.015429034 0.03640245 0.039252043
-0.03582913 0.037685074 0.04 -0.04 0.03574948 0.036393248 -0.03702573 -0.04
-0.035781242 -0.022068558 -0.04 0.04 0.03545193 -0.03878945 -0.035800263 0.00073810155
-0.035763256 0.03777708 0.04 0.04 -0.04 -0.04 0.036405876 0.039253168
-0.04 -0.04 -0.035810076 0.037739024 0.04 0.04 0.038548574 -0.028619468
0.04 0.04 -0.033932168 -0.039854616 0.035852823 -0.03755465 0.035835147 0.031583115
-0.035838697 -0.032481175 -0.04 -0.04 -0.03580369 0.037682682 0.04 -0.04
0.03582094 -0.037630327 -0.04 -0.04 0.04 -0.04 -0.04 0.04
0.036040984 -0.039130215 0.03639278 0.039397858 0.03582572 -0.037596468 0.04 0.04
-0.04 -0.04 -0.04 0.04 0.04 -0.04 0.028221529 0.04
0.03582566 -0.037658077 -0.03689911 -0.027634105 -0.04 -0.04 0.030834101 -0.03663963
-0.04 0.04 -0.04 -0.04 0.031921767 0.03918861 0.03581849 0.026957694
-0.035792135 -0.03167685 -0.04 -0.04 0.04 -0.04 -0.035811935 0.037708513
00000000: 6399 133d 9b3f 20bd 86b8 123d 8411 12bd
00000010: daa1 123d e26d d43c 448b 12bd 13e4 f0bc
00000020: fe01 233d 8729 d2bc 0ad7 233d 0ad7 233d
00000030: bf16 15bd 86d2 1d3d 60b0 123d a3d4 f83c
00000040: 0ad7 233d 0ad7 23bd 5d05 15bd 8dc9 1d3d
00000050: 0ad7 23bd 0ad7 23bd 0ad7 23bd 0ad7 233d
00000060: cb9f 12bd b16d 1a3d 2d06 133d ea09 01bd
00000070: 04bd 12bd cef0 e7bc d6bd 12bd 3542 efbc
00000080: 0ad7 233d 0ad7 233d 61e6 1c3d e723 50bc
00000090: 0ad7 233d 0ad7 23bd 0ad7 23bd 0ad7 23bd
000000a0: 075a 10bd a7be 21bd fc6e 223d 5c84 213d
000000b0: d576 233d 5cbf ed3c 47c4 123d a9b6 053d
000000c0: eebc 123d b24c f33c 877c 223d dc66 003d
000000d0: 0ad7 233d 0ad7 233d 0ad7 23bd d5ef 00bd
000000e0: 12c0 12bd 8d1f 1a3d 0ad7 233d 0ad7 233d
000000f0: 16bd 123d a71c 1abd 498d 1e3d a11b 1a3d
00000100: 38c1 123d c7c8 9abc 0ad7 233d 0ad7 23bd
00000110: 0ad7 23bd 0ad7 233d 8fae 0bbd ec09 1f3d
00000120: 4e6c 22bd fbb5 223d 914c dbbc 0ad7 233d
00000130: a6cc 123d a5e2 19bd 0ad7 23bd 0ad7 23bd
00000140: e2ad 123d e217 1abd 41ba 12bd 45f8 193d
00000150: 6b5a 233d d0c0 d8bc 0acb 12bd d714 1a3d
00000160: 5f45 0fbd 5d28 1ebd 0ad7 23bd 0ad7 23bd
00000170: afb6 123d 8dc2 ea3c 3876 223d 4d64 213d
00000180: 9b76 18bd 0ad7 23bd 83e0 123d da50 1abd
00000190: 18be 12bd fdbe ebbc 0ad7 23bd 0ad7 233d
000001a0: 4a7a 223d 4645 213d 42c6 123d f514 ff3c
000001b0: 5799 12bd a3ba 1a3d 0ad7 233d 0ad7 23bd
000001c0: 0ad7 23bd 5986 18bd 9b92 12bd 77af d9bc
000001d0: 0ad7 23bd 0ad7 233d 0697 12bd f25a 1a3d
000001e0: 0ad7 233d 0ad7 233d 0ad7 23bd 0ad7 233d
000001f0: 2fc4 123d 210e 1abd 1270 12bd cbe5 1a3d
00000200: 0ad7 23bd 0ad7 23bd 0ad7 23bd 0ad7 233d
00000210: d6ab 12bd 0dde b7bc 13ac 123d 032e e73c
00000220: b896 123d 4d36 1abd 0ad7 233d 0ad7 23bd
00000230: 0ad7 23bd 0ad7 23bd 0ad7 233d 0ad7 233d
00000240: 7b25 b5bc 364c 223d eac6 12bd 7017 1a3d
00000250: 0ad7 233d 0ad7 23bd 816c 183d a2a9 22bd
00000260: e99d 12bd 2531 833b 71b7 12bd f072 f5bc
00000270: 0ad7 23bd 0fca 7c3c bc1a 153d c0c6 203d
00000280: 91c1 12bd aa5b 1a3d 0ad7 233d 0ad7 23bd
00000290: 0c6e 123d 1611 153d 4ba8 17bd 0ad7 23bd
000002a0: 5a8f 12bd 1fc9 b4bc 0ad7 23bd 0ad7 233d
000002b0: 0b36 113d b0e1 1ebd 4ca3 12bd 287d 413a
000002c0: 7e7c 12bd 24bc 1a3d 0ad7 233d 0ad7 233d
000002d0: 0ad7 23bd 0ad7 23bd 541e 153d eec7 203d
000002e0: 0ad7 23bd 0ad7 23bd 96ad 12bd 3c94 1a3d
000002f0: 0ad7 233d 0ad7 233d 1ce5 1d3d 6073 eabc
00000300: 0ad7 233d 0ad7 233d 75fc 0abd 983e 23bd
00000310: 69da 123d e8d2 19bd e0c7 123d 4c5d 013d
00000320: 99cb 12bd fb0a 05bd 0ad7 23bd 0ad7 23bd
00000330: e4a6 12bd 2859 1a3d 0ad7 233d 0ad7 23bd
00000340: fab8 123d 4222 1abd 0ad7 23bd 0ad7 23bd
00000350: 0ad7 233d 0ad7 23bd 0ad7 23bd 0ad7 233d
00000360: b69f 133d 0147 20bd 9810 153d a65f 213d
00000370: fdbd 123d c1fe 19bd 0ad7 233d 0ad7 233d
00000380: 0ad7 23bd 0ad7 23bd 0ad7 23bd 0ad7 233d
00000390: 0ad7 233d 0ad7 23bd d630 e73c 0ad7 233d
000003a0: edbd 123d 5b3f 1abd 8523 17bd eb60 e2bc
000003b0: 0ad7 23bd 0ad7 23bd cc97 fc3c 7013 16bd
000003c0: 0ad7 23bd 0ad7 233d 0ad7 23bd 0ad7 23bd
000003d0: 66c0 023d 3c84 203d 69b6 123d 62d6 dc3c
000003e0: c69a 12bd 96bf 01bd 0ad7 23bd 0ad7 23bd
000003f0: 0ad7 233d 0ad7 23bd 89af 12bd 3e74 1a3d

net.0.module.bias f4 [128]
0.090656854 0.4974358 0.668967 0.43185565 -0.13593552 -0.31462023 0.17130175 0.60450333
-0.6779153 0.171223 -0.54510087 -0.5621575 0.24625789 0.38630477 0.23058715 0.20537543
-0.21360452 0.041774105 -0.6243968 -0.4612438 0.014701582 -0.171603 -0.084753096 0.4108027
0.25875685 -0.15438357 -0.2327214 -0.5116157 0.36972484 -0.49706957 0.2358129 -0.1295615
0.57803506 -0.45116708 -0.46209365 0.08172361 0.020708593 -0.3041571 0.73264176 -0.6050294
0.42434505 0.33159852 -0.13763526 0.26757747 -0.115300566 -0.531422 0.49655133 -0.17150004
-0.09905835 0.74242014 0.6798392 -0.5263528 -0.17163503 0.3944955 0.44331318 -0.51644707
-0.5143439 0.30108878 -0.4828203 0.5336926 -0.54118466 -0.4145896 0.28033194 0.39642054
-0.24860124 -0.40925053 0.26570693 0.23329298 0.19482617 -0.65201706 -0.21319705 -0.25937304
-0.0015658947 0.6344879 -0.51342905 -0.019870073 0.27583575 0.39930323 -0.7003784 0.027400991
0.58159596 -0.46136713 0.47052532 -0.09868654 0.66413504 -0.60765386 0.12448548 0.514525
0.5181521 -0.35361433 -0.5780069 0.02740966 -0.34201628 0.46114835 -0.36681774 0.061638832
-0.6187107 -0.010478053 0.62512654 0.40408367 0.32101014 -0.41539308 0.63991266 -0.3525663
0.6740071 -0.58410263 -0.3489029 -0.21527977 0.09066261 0.40208277 0.20032664 -0.26472273
-0.5631772 -0.20690562 -0.33483362 -0.4265326 0.43886605 0.09995894 -0.38006392 0.33517954
-0.4768991 -0.4157951 -0.071167976 0.48353234 0.3476968 -0.47710013 -0.4987716 0.24005727
00000000: 4daa b93d e8af fe3e 6c41 2b3f 2f1c dd3e
00000010: ae32 0bbe e715 a1be ba69 2f3e bbc0 1a3f
00000020: db8b 2dbf 1555 2f3e bb8b 0bbf 8ee9 0fbf
00000030: 072b 7c3e bdc9 c53e 0a1f 6c3e f04d 523e
00000040: 25bb 5abe 531b 2b3d 78d8 1fbf 2628 ecbe
00000050: e7de 703c b2b8 2fbe 0893 adbd bb54 d23e
00000060: c77b 843e ba16 1ebe 854e 6ebe 3ff9 02bf
00000070: 934c bd3e e77f febe f078 713e c5ab 04be
00000080: 1bfa 133f 5fff e6be 8a97 ecbe b55e a73d
00000090: 11a5 a93c 7bba 9bbe 698e 3b3f 35e3 1abf
000000a0: c143 d93e 48c7 a93e 42f0 0cbe eaff 883e
000000b0: b422 ecbd 460b 08bf fa3b fe3e b59d 2fbe
000000c0: 1bdf cabd 3f0f 3e3f f109 2e3f 0fbf 06bf
000000d0: 18c1 2fbe 50fb c93e f2f9 e23e e035 04bf
000000e0: 0bac 03bf 4f28 9a3e 3934 f7be 14a0 083f
000000f0: 148b 0abf 1745 d4be ab87 8f3e a2f7 ca3e
00000100: 5391 7ebe 4989 d1be bd0a 883e 5be4 6e3e
00000110: 8380 473e 97ea 26bf 5450 5abe 8bcc 84be
00000120: b53e cdba cd6d 223f 1670 03bf 90c6 a2bc
00000130: 583a 8d3e 7971 cc3e 004c 33bf 0b78 e03c
00000140: 79e3 143f 5038 ecbe b2e8 f03e 2b1c cabd
00000150: c104 2a3f 348f 1bbf 3ef2 fe3d e9b7 033f
00000160: 9ea5 043f f00c b5be 43f8 13bf 398a e03c
00000170: c21c afbe a31b ec3e 89cf bbbe 0079 7c3d
00000180: d363 1ebf 24ac 2bbc 4b08 203f 0ee4 ce3e
00000190: 715b a43e 67ae d4be 51d1 233f 9283 b4be
000001a0: bb8b 2c3f c087 15bf 67a3 b2be 4d72 5cbe
000001b0: 52ad b93d cbdd cd3e 6d22 4d3e bd89 87be
000001c0: 622c 10bf 11df 53be 506f abbe 7b62 dabe
000001d0: 0db3 e03e 46b7 cc3d bd97 c2be a79c ab3e
000001e0: 1e2c f4be 18e3 d4be 84c0 91bd 8d91 f73e
000001f0: 5105 b23e 7846 f4be fe5e ffbe 93d1 753e

net.2.module.weight f4 [128, 128]
0.036158457 0.03608857 0.0360775 -0.034274507 0.04 -0.028245162 -0.03607825 0.03599679
-0.04 -0.036078405 0.04 -0.04 -0.02049718 0.036063846 -0.0054885643 -0.0045516915
-0.033337872 0.036819015 0.010293356 0.04 -0.03736597 -0.03993024 0.039652064 0.015024472
0.035520848 -0.039974336 -0.04 -0.04 -0.03602595 -0.01931119 0.036076136 0.00607578
0.0361347 0.04 -0.04 -0.036128554 0.039662786 -0.04 0.03612755 -0.017779542
0.036094856 -0.036028806 0.04 -0.036033027 -0.03624305 0.04 0.027549047 -0.03993015
0.04 0.014670214 -0.033870623 0.04 -0.039935086 0.016540289 -0.036019623 -0.04
-0.0372507 -0.03449811 0.032382224 -0.0060082804 -0.04 0.04 0.036080536 -0.019651566
-0.04 -0.04 -0.034590386 0.0354723 0.036072247 -0.027605848 0.008059615 0.006952597
0.03963692 -0.035393585 -0.04 0.038733084 -0.03545918 0.00081836653 -0.04 0.03694458
-0.013697539 -0.04 0.035882086 0.04 -0.033887286 0.0043372056 0.031435195 -0.025213782
-0.0062893173 -0.04 -0.0056885076 0.036943592 -0.04 -0.036018766 0.04 0.03625455
-0.0030227508 0.039579194 0.036115915 0.035735976 -0.03448224 0.04 -0.003475189 0.04
0.02381625 0.04 -0.04 0.03174921 0.029712671 -0.007086278 0.026226196 -0.04
-0.034928884 -0.04 -0.04 -0.04 0.036095757 -0.024063483 0.04 -0.0076494594
-0.04 0.04 0.036755674 0.028015137 -0.034428943 0.04 0.04 -0.036034767
0.04 -0.04 -0.03801182 -0.04 0.04 0.04 0.04 0.026303912
-0.034681525 0.04 -0.023145657 -0.04 -0.04 0.04 -0.04 -0.04
0.04 -0.04 0.01950201 0.04 0.022539312 -0.01082822 0.03242473 0.04
-0.04 0.04 -0.0352659 -0.04 -0.0046643075 0.04 -0.04 -0.020486202
-0.02219277 0.04 0.033044223 0.04 0.04 0.04 -0.034931444 0.011042727
0.04 0.04 -0.04 -0.0003676364 0.036640014 0.029514804 -0.000953014 -0.007031327
0.035894774 -0.037028365 0.04 -0.04 -0.04 0.010423369 0.015308652 0.027618239
-0.04 0.02436856 -0.04 0.04 0.04 -0.04 0.015288948 0.04
-0.013654704 0.034203578 -0.04 0.022286905 0.026612574 0.01553634 -0.04 0.0026741964
0.04 -0.04 0.025280839 -0.03871996 -0.04 -0.04 0.04 0.04
-0.04 0.04 0.04 0.018876003 0.04 0.019000135 0.014832414 0.04
-0.006677557 0.04 -0.006968834 0.04 0.0077020307 -0.032423645 -0.013635359 -0.04
-0.04 0.013466181 -0.04 -0.04 0.021956695 0.026192538 -0.035887863 0.04
-0.0303302 -0.04 0.01701247 0.04 -0.04 0.021942893 0.023798786 0.037129592
0.014312153 -0.04 -0.04 0.04 0.04 0.04 0.04 0.024428692
-0.023638176 0.03265681 0.037960865 -0.04 -0.0011561724 -0.04 0.04 -0.013457193
00000000: e41a 143d 9cd1 133d 00c6 133d 6d63 0cbd
00000010: 0ad7 233d 6662 e7bc c9c6 13bd 5f71 133d
00000020: 0ad7 23bd f3c6 13bd 0ad7 233d 0ad7 23bd
00000030: b4e9 a7bc afb7 133d 6ad9 b3bb 5b26 95bb
00000040: 4b8d 08bd 89cf 163d 77a5 283c 0ad7 233d
00000050: 0f0d 19bd e48d 23bd 346a 223d 3429 763c
00000060: 4f7e 113d 21bc 23bd 0ad7 23bd 0ad7 23bd
00000070: f28f 13bd 8032 9ebc 92c4 133d 5617 c73b
00000080: fb01 143d 0ad7 233d 0ad7 23bd 89fb 13bd
00000090: 7275 223d 0ad7 23bd 7bfa 133d 67a6 91bc
000000a0: 33d8 133d f192 13bd 0ad7 233d 5e97 13bd
000000b0: 9873 14bd 0ad7 233d 8aae e13c cc8d 23bd
000000c0: 0ad7 233d 565b 703c ecbb 0abd 0ad7 233d
000000d0: f992 23bd 807f 873c 5089 13bd 0ad7 23bd
000000e0: 3194 18bd e44d 0dbd 39a3 043d 1ce1 c4bb
000000f0: 0ad7 23bd 0ad7 233d 2fc9 133d 52fc a0bc
00000100: 0ad7 23bd 0ad7 23bd a6ae 0dbd 674b 113d
00000110: 7ec0 133d a925 e2bc 7a0c 043c 9cd2 e33b
00000120: 535a 223d ddf8 10bd 0ad7 23bd 95a6 1e3d
00000130: a53d 11bd a687 563a 0ad7 23bd 3353 173d
00000140: a56b 60bc 0ad7 23bd 18f9 123d 0ad7 233d
00000150: 65cd 0abd 1e1f 8e3b 31c2 003d 228d cebc
00000160: 9e16 cebb 0ad7 23bd a966 babb 2a52 173d
00000170: 0ad7 23bd 6a88 13bd 0ad7 233d a77f 143d
00000180: 5819 46bb cb1d 223d 48ee 133d e35f 123d
00000190: 403d 0dbd 0ad7 233d ffbf 63bb 0ad7 233d
000001a0: 4c1a c33c 0ad7 233d 0ad7 23bd 760b 023d
000001b0: fd67 f33c 0234 e8bb 52d8 d63c 0ad7 23bd
000001c0: 9711 0fbd 0ad7 23bd 0ad7 23bd 0ad7 23bd
000001d0: 25d9 133d c820 c5bc 0ad7 233d 51a8 fabb
000001e0: 0ad7 23bd 0ad7 233d 1e8d 163d 0080 e53c
000001f0: 5d05 0dbd 0ad7 233d 0ad7 233d 3199 13bd
00000200: 0ad7 233d 0ad7 23bd 48b2 1bbd 0ad7 23bd
00000210: 0ad7 233d 0ad7 233d 0ad7 233d 4d7b d73c
00000220: 370e 0ebd 0ad7 233d f69b bdbc 0ad7 23bd
00000230: 0ad7 23bd 0ad7 233d 0ad7 23bd 0ad7 23bd
00000240: 0ad7 233d 0ad7 23bd aec2 9f3c 0ad7 233d
00000250: 5da4 b83c d968 31bc cbcf 043d 0ad7 233d
00000260: 0ad7 23bd 0ad7 233d fa72 10bd 0ad7 23bd
00000270: 0cd7 98bb 0ad7 233d 0ad7 23bd aed2 a7bc
00000280: 9dcd b5bc 0ad7 233d 6159 073d 0ad7 233d
00000290: 0ad7 233d 0ad7 233d 4614 0fbd 8eec 343c
000002a0: 0ad7 233d 0ad7 233d 0ad7 23bd 53bf c0b9
000002b0: d713 163d 08c9 f13c b0d3 79ba 0c67 e6bb
000002c0: 6606 133d 0eab 17bd 0ad7 233d 0ad7 23bd
000002d0: 0ad7 23bd c7c6 2a3c 24d1 7a3c a53f e23c
000002e0: 0ad7 23bd 93a0 c73c 0ad7 23bd 0ad7 233d
000002f0: 0ad7 233d 0ad7 23bd 7f7e 7a3c 0ad7 233d
00000300: fbb7 5fbc 0d19 0c3d 0ad7 23bd 0793 b63c
00000310: 9d02 da3c 228c 7e3c 0ad7 23bd 9241 2f3b
00000320: 0ad7 233d 0ad7 23bd c319 cf3c d298 1ebd
00000330: 0ad7 23bd 0ad7 23bd 0ad7 233d 0ad7 233d
00000340: 0ad7 23bd 0ad7 233d 0ad7 233d d9a1 9a3c
00000350: 0ad7 233d 2ca6 9b3c a703 733c 0ad7 233d
00000360: 68cf dabb 0ad7 233d d15a e4bb 0ad7 233d
00000370: 5161 fc3b a8ce 04bd d766 5fbc 0ad7 23bd
00000380: 0ad7 23bd 42a1 5c3c 0ad7 23bd 0ad7 23bd
00000390: 87de b33c bc91 d63c 27ff 12bd 0ad7 233d
000003a0: 0a77 f8bc 0ad7 23bd bc5d 8b3c 0ad7 233d
000003b0: 0ad7 23bd 95c1 b33c acf5 c23c 3315 183d
000003c0: 857d 6a3c 0ad7 23bd 0ad7 23bd 0ad7 233d
000003d0: 0ad7 233d 0ad7 233d 0ad7 233d ae1e c83c
000003e0: d9a4 c1bc 26c3 053d da7c 1b3d 0ad7 23bd
000003f0: b58a 97ba 0ad7 23bd 0ad7 233d 8f7b 5cbc

net.2.module.bias f4 [128]
0.1496469 -0.03426681 0.05280113 -0.04365926 -0.029111935 -0.036765516 0.03217501 0.020259399
-0.06204468 0.1165683 -0.037591405 0.09725355 -0.074640274 0.08188772 0.0011302836 -0.063723646
-0.088168845 0.010644428 0.0138255665 -0.029031781 -0.048378233 0.074181646 0.15640156 0.17918684
0.08454262 -0.00024064796 -0.04446986 -0.06567475 0.069279864 -0.00819493 -0.057590242 0.06048672
-0.04571484 -0.008103826 -0.043551616 0.028404174 -0.040649265 0.02990481 0.0832594 0.0003711301
0.1501974 -0.038815174 -0.08130395 -0.07164068 0.11324893 -0.013724236 0.13803604 0.14693968
-0.06856749 0.07642881 0.02804838 -0.004322389 0.13439822 0.01207458 -0.041541513 -0.0049987845
0.00702785 -0.026052885 -0.04286051 0.009784559 0.09148852 0.027281314 0.08690498 0.027001241
-0.028261032 0.037941594 0.075378075 -0.07937612 0.07035555 0.1699249 -0.060841996 -0.0086606555
0.019522408 0.041823808 0.033328287 -0.05976125 0.0820537 -0.010166389 0.0070911334 -0.049047068
-0.06400141 0.018284928 0.08339965 0.03749691 0.031550154 -3.989534e-05 0.1033543 0.06997718
0.0034232934 0.097769596 -0.042757586 0.08628089 0.15243876 0.094703965 0.08348664 0.07453038
-0.080289915 0.015276255 -0.063931584 0.08059541 0.025698662 -0.07028166 0.072326384 0.050545935
0.07005943 0.1259313 0.04213435 0.002542885 0.03719609 0.11361657 -0.08784635 0.0022283038
0.077748366 -0.016688319 -0.047120217 -0.03818875 0.009126973 0.0790542 -0.04262534 0.13517594
0.057763614 0.020773139 -0.075325884 0.05680375 0.069453955 -0.08439378 0.1384894 0.043298263
00000000: 093d 193e 5b5b 0cbd ff45 583d 0dd4 32bd
00000010: 277c eebc 7097 16bd f1c9 033d 0af7 a53c
00000020: 9022 7ebd 5cbb ee3d 72f9 19bd df2c c73d
00000030: 00dd 98bd c0b4 a73d 0626 943a 8b81 82bd
00000040: de91 b4bd f865 2e3c a184 623c 0fd4 edbc
00000050: 4128 46bd 8cec 973d bb27 203e c17c 373e
00000060: ae24 ad3d 7256 7cb9 0726 36bd 7c80 86bd
00000070: 9ae2 8d3d 0744 06bc bfe3 6bbd ecc0 773d
00000080: 7c3f 3bbd e9c5 04bc 2e63 32bd dfaf e83c
00000090: d87f 26bd effa f43c e883 aa3d 3d94 c239
000000a0: 59cd 193e a9fc 1ebd af82 a6bd 59b8 92bd
000000b0: 0eef e73d 9edb 60bc 5259 0d3e 5b77 163e
000000c0: 1d6d 8cbd b586 9c3d b7c5 e53c d4a2 8dbb
000000d0: b09f 093e 76d4 453c 6f27 2abd d8cc a3bb
000000e0: e149 e63b dc6c d5bc 818e 2fbd 6a4f 203c
000000f0: 555e bb3d 107d df3c 3dfb b13d b531 dd3c
00000100: ae83 e7bc a568 1b3d d25f 9a3d f28f a2bd
00000110: 9216 903d cb00 2e3e 7535 79bd 6ce5 0dbc
00000120: 75ed 9f3c 714f 2b3d 3e83 083d 36c8 74bd
00000130: c50b a83d ed90 26bc bd5c e83b 94e5 48bd
00000140: 2c13 83bd 46ca 953c 70cd aa3d 5c96 193d
00000150: bc3a 013d 4c55 27b8 6bab d33d 3250 8f3d
00000160: 5559 603b 6d3b c83d 9422 2fbd 09b4 b03d
00000170: e818 1c3e 27f4 c13d 0bfb aa3d 62a3 983d
00000180: 0a6f a4bd 4249 7a3c 90ee 82bd 350f a53d
00000190: 0086 d23c d5ef 8fbd db1f 943d 4109 4f3d
000001a0: 527b 8f3d 22f4 003e 1195 2c3d 88a6 263b
000001b0: ed5a 183d ceaf e83d cae8 b3bd bc08 123b
000001c0: 893a 9f3d f1b5 88bc 2101 41bd cf6b 1cbd
000001d0: 4d89 153c 2be7 a13d e997 2ebd 906b 0a3e
000001e0: 8a99 6c3d 6e2c aa3c 7544 9abd 0dab 683d
000001f0: e03d 8e3d a5d6 acbd 2ad0 0d3e 8559 313d

net.4.module.weight f4 [1, 128]
0.036379363 -0.04 -0.03636226 0.038805444 0.021447605 0.04 0.037346784 0.037150487
-0.04 0.03643514 -0.04 0.03638364 0.027082438 0.036317397 -0.04 -0.039800763
0.04 0.04 -0.03904777 -0.04 -0.039594203 -0.039149266 0.03631595 0.03630774
-0.036337752 0.0041335835 -0.036471874 0.03459479 0.009865123 -0.03631721 -0.04 -0.03635278
-0.036338083 -0.036351074 -0.03631073 -0.04 -0.04 -0.023931518 -0.014460815 -0.036354028
0.03639597 0.03689633 -0.04 0.02897747 0.0363227 -0.0058918446 0.03630882 0.036329843
-0.04 0.021925591 -0.036299042 0.037270553 0.036344223 -0.036277365 -0.008319946 -0.04
0.04 -0.015169536 -0.036252774 0.037280228 0.036423225 -0.03631753 -0.036289915 0.0363473
0.031270687 0.036370482 -0.03629641 -0.04 -0.036261477 0.036335427 0.037635624 -0.03655932
0.036409963 0.039051734 -0.036329698 -0.027320292 0.0363928 -0.033087898 -0.04 -0.0065192664
0.033338513 -0.036375865 -0.036538344 0.036380637 -0.03628229 0.03471454 0.036394756 0.03191727
-0.04 0.036328837 -0.018490866 -0.036260236 0.036347624 -0.036279093 -0.036490276 -0.036403
-0.04 -0.03631125 -0.017892592 -0.011654729 0.035027992 0.017816126 0.036378894 -0.04
0.03638655 0.036379736 0.036370456 -0.036281377 0.03843868 0.036371537 0.014593101 -0.04
0.035119813 -0.04 0.04 0.037247054 -0.0076696198 0.03638377 -0.01788591 0.03631245
-0.036310535 -0.04 -0.039519448 0.024240697 0.03638484 0.015906295 0.036326922 0.03879544
00000000: 8702 153d 0ad7 23bd 98f0 14bd 75f2 1e3d
00000010: e3b2 af3c 0ad7 233d f1f8 183d 1c2b 183d
00000020: 0ad7 23bd 033d 153d 0ad7 23bd 0307 153d
00000030: fddb dd3c 8dc1 143d 0ad7 23bd 2006 23bd
00000040: 0ad7 233d 0ad7 233d 8ef0 1fbd 0ad7 23bd
00000050: 882d 22bd fb5a 20bd 09c0 143d 6db7 143d
00000060: e5d6 14bd 0373 873b 8863 15bd 44b3 0d3d
00000070: 53a1 213c 5bc1 14bd 0ad7 23bd a7e6 14bd
00000080: 3ed7 14bd dde4 14bd 8fba 14bd 0ad7 23bd
00000090: 0ad7 23bd 080c c4bc 0eed 6cbc f6e7 14bd
000000a0: f113 153d 9b20 173d 0ad7 23bd 2962 ed3c
000000b0: 1dc7 143d 6010 c1bb 8fb8 143d 9ace 143d
000000c0: 0ad7 23bd 4c9d b33c 4eae 14bd 02a9 183d
000000d0: aedd 143d 9397 14bd 6250 08bc 0ad7 23bd
000000e0: 0ad7 233d a589 78bc ca7d 14bd 27b3 183d
000000f0: 8530 153d b1c1 14bd bca4 14bd e8e0 143d
00000100: b115 003d 37f9 143d 8bab 14bd 0ad7 23bd
00000110: ea86 14bd 75d4 143d d027 1a3d 3abf 15bd
00000120: 9d22 153d b6f4 1f3d 73ce 14bd cece dfbc
00000130: 9e10 153d 2d87 07bd 0ad7 23bd 929f d5bb
00000140: f78d 083d dcfe 14bd 3ba9 15bd dd03 153d
00000150: bd9c 14bd d530 0e3d ab12 153d afbb 023d
00000160: 0ad7 23bd 8ccd 143d 287a 97bc 9d85 14bd
00000170: 3fe1 143d 6399 14bd d476 15bd 501b 15bd
00000180: 0ad7 23bd 1bbb 14bd 7c93 92bc 7af3 3ebc
00000190: 8379 0f3d 20f3 913c 0902 153d 0ad7 23bd
000001a0: 100a 153d eb02 153d 30f9 143d c89b 14bd
000001b0: e171 1d3d 52fa 143d e717 6f3c 0ad7 23bd
000001c0: cbd9 0f3d 0ad7 23bd 0ad7 233d 5e90 183d
000001d0: 6f51 fbbb 2607 153d 7985 92bc 5dbc 143d
000001e0: 5bba 14bd 0ad7 23bd 25df 21bd 6d94 c63c
000001f0: 4508 153d eb4d 823c 8acb 143d f8e7 1e3d
