checkpoints/nd/dim_2/width_2/method_3p-wgan.pt (torch, 69975 bytes, 5 tensors)

net.0.weight f4 [128, 2]
00000000: 378e fe3e 1c3b 133e 81e3 193f 4004 843d
00000010: eac6 a0be ea46 f0be d9db fd3e e059 c93e
00000020: 8996 c33e 6a91 f4be 0238 e4be f470 4dbe
00000030: ce6b 8f3e 920a 17bf dcc6 083f 9dfa 9b3d
00000040: c463 0e3f 765f cf3d 5957 2fbf 3370 45bf
00000050: 0bef 8e3d 35ef a73d d170 053f 239d fd3d
00000060: 7ec5 ae3e 0219 90be 942c 123c 4436 0c3f
00000070: 93ed 1c3f 45fa c33e ebea 1bbe adbb 413d
00000080: a5a4 a43e f133 923c 5f9a 9cbd 6c23 02bf
00000090: 0abc 06be 1dab 303f 220f f1be bc38 a2be
000000a0: e417 343f fdf3 31bf 9ae6 28bf c0ae b1bd
000000b0: a19f 033e 0689 873e ce63 d4be 8015 2dbe
000000c0: 5fb2 9dbe 72bb a0bd af4c 5dbe 56a1 023e
000000d0: 9ea7 e13e dcfa 483e 3d22 3d3f c046 813e
000000e0: f6a7 f6be b57c 363e 87f3 d83e 89e2 743e
000000f0: ab49 1abf b58a 01bf 8322 713e b2c4 08bf
00000100: 57a7 26be 7c6a 4cbe e3d9 0b3e 3d8c 49be
00000110: 2208 aabe 43a6 d6be f34f 0ebf e094 6f3e
00000120: 6b7c 133f c9cf 25bf 4a48 17bf 8d67 1f3f
00000130: cc31 133f f7c4 073f cded 71bb 4d5f 013e
00000140: cb6a 823d 6eae 99bd 20ca d4be 1592 32bf
00000150: fff7 943d 7c5e a73e d424 32bf dbcb 9abe
00000160: c30b fa3e 7e74 22bf b0fa ff3e befd 213e
00000170: f410 e93e c7d8 9ebe bbb2 293c f402 c3be
00000180: 3ea3 283f 5008 3a3f a587 5fbe 33fb 48be
00000190: 6521 fe3c d906 05be 3e0a a63e e247 e2be
000001a0: 4fd4 dcbe 069c 90be ef0e 8dbe 8bfb 2b3f
000001b0: 808d 1cbe 949c cfbe b69d bdbe 613f f7be
000001c0: 7349 8fbe 5805 9dbe dce7 403e 671f bf3e
000001d0: df1d f93e 2650 8c3d ebcf 7dbe 9b63 a93e
000001e0: 45f0 293f 4535 22bf 09ef 323f da26 203e
000001f0: d49b 773e 46a9 30bf 4b6d a3be b5f0 5bbe
00000200: 64d4 013f 122e 75be 1aa5 013f 6bde 90be
00000210: be4f 023f dfc9 253e c111 b7be 9118 033e
00000220: d6ce 2bbf c79b 36bf f06c 1cbf 6c71 253f
00000230: c4b1 26bf 643e 05bf 598d 1e3f ea8a 24bd
00000240: 3906 543e 9371 0dbe 5336 913e 6819 31bf
00000250: 0d77 e1be b777 a1be 4467 fe3e 275d 203f
00000260: 5ffe ac3e ceab 913e 2343 4dbe ceeb 843e
00000270: e6c7 f0be 71fa 0d3f 4bb0 32bf 86b5 c5bb
00000280: 5928 99be cebf 32bf 716b 983e edd8 84bd
00000290: 2cb9 17be e24a 28bf f721 cdbe 1756 f53e
000002a0: bfa6 f4be 97fe 55be b3f2 c03e 6ce1 c2bd
000002b0: 89c0 b7be f31b 0ebf d75f fabe db46 b33e
000002c0: b7c0 c63e 1a3f 0e3d 1969 143e 195a 9d3d
000002d0: b087 7d3e 135a 24bf b110 54be 75b3 33bf
000002e0: 6829 23bf 152e bdbe 2f15 a13e a725 29bf
000002f0: d764 e73e c5f4 aa3d 3a59 a6be fdc1 74bd
00000300: 7a4c 29bf f799 253f 48f8 2cbf e1a1 9e3d
00000310: 5255 24bf 402d 89be 524f 593e 2134 9fbc
00000320: 2017 2f3f c456 ef3d 0a12 b1bd 5cd1 1b3f
00000330: 5b6d 173e e31c ed3e 66ae b5be 1411 d73c
00000340: f00b 2bbf 5dbf 573d 8f41 b4bd 6f04 563e
00000350: cb21 e9be c378 993e 8582 c53e e228 27bf
00000360: 01c7 1e3f c48b 3f3c 6420 db3e fa0c 25bf
00000370: 21c6 693e cabe 0ebf df07 15be 9bb6 e6be
00000380: 7e5a 15be 354d 92be 4aec dbbe 7dd6 863e
00000390: c1e0 0b3d ebd8 5fbe 5605 2fbe 78af 8c3e
000003a0: f8bd 223f 1681 333e c786 343f 0ee5 a3be
000003b0: 5197 273f b334 b8be 3fea 243f 54d6 d13d
000003c0: 474a 183f bd0e 1b3f bb62 213f c6af 493e
000003d0: 6b31 2f3e 03d2 c53e c9e7 1bbe 08b0 1cbf
000003e0: b611 cabe 9f0e 0dbf d3fc 8bbe 99aa 993e
000003f0: 36ff 6dbe e84c 943e 69fd 40be f9ef bb3e
0.49717876 0.14378017 0.6011277 0.06446123 -0.3140176 -0.46929103 0.49581793 0.39326382
0.38200787 -0.47767192 -0.4457398 -0.2006262 0.28011936 -0.59000504 0.53428435 0.0761616
0.5562098 0.101256296 -0.68492657 -0.7712433 0.069791876 0.08199922 0.5212527 0.12383487
0.3413505 -0.2814408 0.008921761 0.547703 0.6130001 0.38276878 -0.15226333 0.047298122
0.32156864 0.017847033 -0.076466314 -0.508353 -0.13157669 0.690111 -0.47081858 -0.3168391
0.70348954 -0.6951292 -0.6597687 -0.08675909 0.12853862 0.26471728 -0.41482395 -0.16902733
-0.3080015 -0.07848252 -0.21611284 0.12756857 0.44073194 0.19626945 0.7388037 0.2524929
-0.4817502 0.1782101 0.42373297 0.23914541 -0.6026866 -0.50602275 0.23548321 -0.53425133
-0.16274773 -0.19962496 0.13657336 -0.19682403 -0.3320933 -0.41923723 -0.5559074 0.23396635
0.5761172 -0.6477018 -0.5909468 0.6226738 0.5749786 0.5303492 -0.0036915422 0.1263401
0.063680254 -0.07503973 -0.4156046 -0.69754153 0.07273864 0.32689273 -0.69587445 -0.30233654
0.48837098 -0.63459 0.49995947 0.15819451 0.45520747 -0.31024763 0.010357554 -0.3808819
0.6587409 0.72668934 -0.21829088 -0.19627075 0.031021783 -0.12990893 0.3242969 -0.44195467
-0.4313073 -0.28244036 -0.27550456 0.671807 -0.15288353 -0.40549147 -0.37034386 -0.48290542
-0.27985725 -0.3066814 0.18838447 0.37328646 0.48655602 0.068512246 -0.24786346 0.33083805
0.6638225 -0.6336253 0.6989599 0.1563982 0.24180537 -0.6900829 -0.3191932 -0.21478541
0.5071471 -0.23943356 0.5064255 -0.2829469 0.50902927 0.16190289 -0.35755733 0.1280234
-0.6711248 -0.7133145 -0.61103725 0.64626193 -0.65115 -0.52048326 0.6193443 -0.04017154
0.20705499 -0.13812856 0.2836176 -0.6917939 -0.4403614 -0.31536648 0.4968816 0.6264214
0.3378782 0.2845139 -0.20045142 0.25961155 -0.4702751 0.5546027 -0.6980025 -0.006033602
-0.29913595 -0.6982392 0.2976947 -0.06486688 -0.14816731 -0.6573926 -0.40064976 0.47917244
-0.47783467 -0.208979 0.37685165 -0.09515652 -0.3588908 -0.555114 -0.48901245 0.35014996
0.38818905 0.034728147 0.14493217 0.076832004 0.24758792 -0.6419994 -0.20709492 -0.70195705
-0.63735056 -0.3694922 0.31461474 -0.6607308 0.45194122 0.08347467 -0.3248995 -0.059755314
-0.6613232 0.64688057 -0.6756635 0.0774572 -0.6419269 -0.26792336 0.21221665 -0.019434037
0.6839466 0.11686471 -0.08646019 0.6086633 0.1478781 0.463111 -0.35484618 0.02625326
-0.6681509 0.052672733 -0.08801567 0.20900129 -0.45533594 0.29974946 0.3857614 -0.6529676
0.62022406 0.011691038 0.4279815 -0.64472926 0.22829486 -0.5575987 -0.14553784 -0.45061192
-0.14585301 -0.2857453 -0.42953712 0.26335517 0.03414989 -0.21860091 -0.17091879 0.27477622
0.6357112 0.17529711 0.70518154 -0.32010692 0.65465266 -0.35977706 0.6441993 0.10245958
0.5948834 0.60569364 0.63041276 0.19695958 0.17108695 0.3863679 -0.15225138 -0.612061
-0.39466637 -0.55100435 -0.27341327 0.30012968 -0.23241886 0.28964925 -0.18846668 0.36706522

net.0.bias f4 [128]
00000000: 18e2 013f 8823 d13e d07a 9f3e cbd8 b6be
00000010: 8b62 8cbe 5be8 4abf 7b73 f7bc e56e 3f3f
00000020: 7b82 903e 6fcb 09bf 000e c93d d4ad 523e
00000030: 33d2 273f 337c 443e bac0 22bf 1337 3d3f
00000040: 22df 3f3f 1c02 d73e 393c 52bf b360 5d3e
00000050: e07f 02bf bbcf 3f3f d502 2e3f e3c2 3fbf
00000060: 300c e1bd e3ef 0cbe 2ad5 21bc c6d6 333f
00000070: ac19 2dbf 2988 babd 0376 ee3e d0bd 8a3d
00000080: 1045 1cbf 0603 873e 127b 0c3f ec88 2e3f
00000090: b428 33be 8448 5b3e c7cd 0dbf 8768 38be
000000a0: e114 f4be 5926 d0be eb83 18bf 7c07 7cbc
000000b0: 1679 8fbd 7b25 173e 7483 6dbe c418 0f3f
000000c0: 44d9 3b3f 67e8 343f 4bbc 24bd 8891 27bf
000000d0: 7b02 2abe 08f6 42bf 6184 3d3e b4e3 133e
000000e0: 8e2c 21bf 23ac 023e 0caf d53e 61b6 383f
000000f0: 1757 b43e 0e37 9f3e a93f cbbd f672 eabe
00000100: 1e4a 26bd bbac 13be 6099 813e 7e07 04bf
00000110: 2097 a53e 1e6a d63d d435 ee3e 479a 00bf
00000120: 984b 26bf 68b6 edbe 6f75 1ebf 5da1 eebd
00000130: 077a d2be c94a 203f 717c 2fbf e147 1dbf
00000140: 6b4a 1b3f 9f16 173f eb09 b3be a88a 93be
00000150: 7e3b 2cbf 62c3 043f ee7e b0bd c40b 0f3e
00000160: d1a1 043f 58e3 863c 06f6 863e cbed b7be
00000170: c309 313e 1ece c93e 2a8a 133f b7cc 013f
00000180: 630a 093f 2006 043f acfa 763d 06f0 c4bd
00000190: 3c72 523e a91d d1be d719 96be 2368 38bf
000001a0: e7d6 98be 76f4 403f fdb8 44be 2c65 a43e
000001b0: e382 043f dbdb a5be d97b 283f ebbb 473f
000001c0: 923c 7ebe 6e7f 183f dbdf 0ebd d5e9 323f
000001d0: 391a d5be df2f 24bf 4b48 083f 0466 fdbe
000001e0: 4f48 2cbf 1d1b 2f3f e2ae b63e a805 41bc
000001f0: c052 9ebd 9262 aa3e 72ce bb3c 2836 113f
0.50735617 0.4084742 0.31148386 -0.35712275 -0.27418932 -0.79260796 -0.030206433 0.74778587
0.2822455 -0.5382604 0.098171234 0.20574123 0.65555114 0.19188003 -0.6357533 0.7391216
0.7494985 0.41993797 -0.8212314 0.21618919 -0.5097637 0.74926347 0.6797307 -0.7490675
-0.10988653 -0.13763385 -0.009877482 0.70249593 -0.676173 -0.09108002 0.4657441 0.06774485
-0.6104288 0.26369494 0.5487529 0.68177676 -0.17495996 0.21414381 -0.55392116 -0.18008624
-0.4767218 -0.40654257 -0.5957629 -0.015382644 -0.07005517 0.14760391 -0.23194677 0.55897164
0.73378396 0.7066712 -0.040218633 -0.6545644 -0.16602509 -0.76156664 0.1850753 0.1444233
-0.6295861 0.12760977 0.41735113 0.7215329 0.35222694 0.3109669 -0.099242516 -0.45790833
-0.040598027 -0.1442136 0.25312328 -0.5157393 0.32341862 0.10469459 0.46525443 -0.5023541
-0.64959097 -0.46428227 -0.6189794 -0.11651871 -0.41108724 0.62614113 -0.6854926 -0.61437804
0.6066043 0.5901889 -0.34968504 -0.28816724 -0.6727828 0.5186063 -0.0861796 0.13969332
0.5180941 0.016465828 0.26359576 -0.3592361 0.1728888 0.39415067 0.57632697 0.50702995
0.53531474 0.51571846 0.060297653 -0.09616093 0.2055139 -0.4084294 -0.2931659 -0.720339
-0.29851457 0.7537302 -0.19211192 0.32108438 0.5176222 -0.323943 0.65813977 0.78021115
-0.24827793 0.5956944 -0.034881454 0.6988805 -0.4162157 -0.64135545 0.5323531 -0.49491894
-0.67297834 0.68400747 0.356803 -0.011781134 -0.07730627 0.33278328 0.02292559 0.5672326

net.2.weight f4 [128, 128]
00000000: 4795 493d f078 8fbd c383 023e a7a7 ff3d
00000010: b7d5 e1bc 2961 cfbe eb50 aebb 7731 b33b
00000020: a451 d7bc 461b c0bc ee41 7b3c 41ed d53d
00000030: 1cd5 6bbd 0bed b5bd 0171 953d fa8d c5bc
00000040: 4740 363d 8f99 9ebd 8c8e bb3c a513 52bd
00000050: 5bc6 c43b 8041 5fbd 92a9 6cbc 0e26 ec3d
00000060: 4b27 31bc aea2 b23d 5068 b43d 33ce 9c3d
00000070: f7c0 8cbd a194 883d f4c1 aa3d bbb0 f3bc
00000080: 58be 90bd f64c d6ba a8c7 833d 95d0 8f3b
00000090: e938 273c bb05 9dbb 321e 16ba 552f 1f3e
000000a0: 3d6d e73c 0860 91bc 0c3d 85be 74af acbd
000000b0: c268 3bbd dd9a 493d 6655 1b3d dbc7 fdbd
000000c0: 616c c2bd 071b 183d 6a69 7dbd 0648 713d
000000d0: c21f 32bd 4bf3 86bd 97df fcbc a94c f5ba
000000e0: 3920 cebc 0824 113d 1ce4 813b 7ea4 953c
000000f0: 35ae 003d 0777 2b3d b7e9 1c3d d1d4 ab3c
00000100: 583a 853d fe7d 763d 6741 903d d812 50bd
00000110: 1bef a23d e20c 823d e9bc 153c 973a 2abd
00000120: 8ee1 523c 2ebf 75bd d5ad 7fbe c665 613d
00000130: 3e9b f5bc 9367 6e3c c655 173d a660 2cbe
00000140: ac7c cd3d 369e 8e3b b4cd afbd 06cd be3d
00000150: d4d4 39bd 131c ec3d cb8d ebbd 46a6 8c3d
00000160: f8b4 b43d 7e96 b8bc a8b4 053d 5059 5cbc
00000170: b9b0 cbbd 1b49 64bd cc1d 81bc 4b2a 733c
00000180: bf8b c93d 5b53 40bd 8925 4a3d d89e e4bc
00000190: 6c59 c8bc 00a2 643d 2628 58be dd95 55bd
000001a0: 5d23 0b3a 3693 d33d e585 533d 8d1f 8dbd
000001b0: 304a 043e 5efe a83d 1fde 8e3c 10be 993d
000001c0: cc4d 8bbd 8406 bd3d 846a acbd baa9 063e
000001d0: 3fc1 1bbb 8d8e 6ebc f18c 453d d911 3f3d
000001e0: aece fb3d 5671 eb3d cc5e 233d 70d7 08bd
000001f0: b5d2 143e eb36 09bc c786 d73c f565 a53d
00000200: f8a8 6a3d 90a3 763d 8be6 51bc 0345 ef3b
00000210: 8727 80bd ccaa 313e 4397 5c3d 85d4 693d
00000220: a282 dbbd 07d7 b9bd 6dec a93d de3e 7cbd
00000230: 55f6 ad3c 6462 9e3d deed 083c a954 943b
00000240: 697f 293d 1554 a4bd 0864 2c3d d4cd 83bd
00000250: 9e65 56bc e4b3 bcbd 9089 5e3d 67b7 b3bd
00000260: 6748 73be 101f 1abc 70d7 09bd 2d4d 4bbd
00000270: 4384 25be fe58 0dbd 2653 efbd cb73 503d
00000280: b087 9fbd f2b3 c0bc d7f5 03bd 54d6 3a3d
00000290: 7d68 29bc a064 95bd 1d81 0a3e 91e3 9b3d
000002a0: 70f5 60bd 6893 6ebd 070f 863e 490a 0a3e
000002b0: d86c 7e3c 26b6 93bd 333f 3dbd e578 2abc
000002c0: 1a3e 273e d627 aabc 2171 dc3c 6411 1dbd
000002d0: 0a9f 4fbe 6cd8 cabd bc3f 0ebd 11b9 9f3a
000002e0: 31bd 173d 1801 d83d 4df2 b23d 2416 343d
000002f0: 408f 6cbd c58b 5c3c 02ff c0bd 0bfe 333c
00000300: 726d 113d 423c 503d 1907 6d3d 59e2 abbd
00000310: b602 023c c750 29ba 3a45 263e ab16 813d
00000320: e537 0fbe b56b 4ebd 0bd4 943d bdb6 db3d
00000330: c4b5 733d a259 51bd 503a 8ebd 3a2a f03e
00000340: a34a 92bd 5be8 c03c 5da0 f9bd a541 84bc
00000350: 4574 c8bd 1d39 18bd 744f 02bd d5c1 c1bc
00000360: 7eb5 983d ce26 ac3d b3be 243d 01af 16be
00000370: e576 c53d c50a 043d fe9a 253d 5a3e a3bc
00000380: 42f5 b0bd e300 eb3c 6047 4abe c195 6e3c
00000390: 1079 aa3b 46e6 17bd 0d71 423e 77a9 e0bc
000003a0: f929 c43c 0ac9 97bd 6898 c2bd f679 b0bd
000003b0: f99e f1bd 5a98 ea3c 1e34 ae3d b929 a63d
000003c0: 582f b13c 045f 353d cbf3 89bd 1d6e c5bd
000003d0: 47be 4a3d d611 b83d 8d9b 763c bbe9 ccba
000003e0: 0e49 8bbc 3246 003d dfa5 9a3d c323 c0bd
000003f0: 193b 58bd 6933 c2bc c504 71bd bef3 adbb
0.049214628 -0.07005489 0.12745576 0.12483149 -0.027567727 -0.40503815 -0.005319705 0.005468543
-0.026284046 -0.023450505 0.015335543 0.10445643 -0.057576284 -0.08883103 0.072969444 -0.024115551
0.044494893 -0.07744133 0.02289512 -0.051288266 0.006005091 -0.054505825 -0.014444726 0.11530696
-0.010812591 0.08722435 0.088089585 0.07656517 -0.068727426 0.06668974 0.08337775 -0.029747358
-0.07067555 -0.001634984 0.06434566 0.0043888786 0.0102064395 -0.004791943 -0.00057265454 0.155454
0.028250331 -0.017745987 -0.26023138 -0.084319025 -0.0457542 0.049219955 0.03792324 -0.12391635
-0.09493328 0.03713515 -0.06186811 0.058906578 -0.043487318 -0.06589373 -0.030868335 -0.0018714863
-0.02516185 0.035434753 0.0039639603 0.018266913 0.031416137 0.04186156 0.038308825 0.020975502
0.06505269 0.06017875 0.070437245 -0.05079922 0.07955762 0.063501135 0.009139278 -0.041559782
0.012871159 -0.059996776 -0.24968655 0.0550287 -0.029981252 0.014551061 0.036947034 -0.16833743
0.10033545 0.0043523563 -0.08584157 0.09316449 -0.045368984 0.11528792 -0.11501654 0.06867652
0.088235795 -0.022532698 0.03264299 -0.013449028 -0.099458165 -0.05573378 -0.015761279 0.014841626
0.098411076 -0.046954494 0.049352203 -0.027907774 -0.024456702 0.055818558 -0.21109065 -0.052144874
0.0005307699 0.10330813 0.051641364 -0.068907835 0.12918925 0.08251642 0.0174399 0.07506955
-0.06801948 0.092297584 -0.08418754 0.13150683 -0.0023766307 -0.014560354 0.048230115 0.04664788
0.122952804 0.114962265 0.039885327 -0.033408582 0.14533503 -0.00837491 0.026309384 0.080760874
0.057290047 0.06021458 -0.012811313 0.007301928 -0.06257539 0.1735031 0.053855192 0.05708744
-0.107182756 -0.09074216 0.08297048 -0.061583392 0.021235624 0.0773361 0.008357493 0.004526694
0.041381273 -0.0802385 0.042087585 -0.06435743 -0.013085751 -0.09213999 0.05433041 -0.087752156
-0.23758088 -0.00940682 -0.033652723 -0.049634147 -0.16163735 -0.034508698 -0.11685781 0.05089168
-0.07789552 -0.023523305 -0.032216873 0.045614555 -0.010339853 -0.07294583 0.13525815 0.07611764
-0.054921567 -0.058246046 0.2618334 0.13480486 0.01552888 -0.072124764 -0.04620285 -0.0104048
0.16332284 -0.020770948 0.026909413 -0.038346663 -0.20275512 -0.099045604 -0.03472875 0.0012185891
0.03704566 0.105470836 0.087376215 0.043966427 -0.0577538 0.013461058 -0.09423639 0.0109858615
0.035504766 0.050838716 0.057868097 -0.08392782 0.007935217 -0.0006458875 0.16237345 0.06303152
-0.13986166 -0.050395686 0.072670065 0.10728214 0.059499517 -0.05111087 -0.06944716 0.46907216
-0.07143142 0.023548296 -0.1218879 -0.016144583 -0.09787802 -0.037163842 -0.031814054 -0.023651997
0.07456492 0.08405839 0.040220927 -0.14715196 0.09641818 0.032236833 0.040431015 -0.019927192
-0.08640529 0.028686946 -0.1975379 0.014562071 0.00520242 -0.03708484 0.18988438 -0.027424557
0.023945795 -0.07411392 -0.095017254 -0.08617012 -0.117979 0.0286371 0.08506034 0.08113427
0.02162902 0.044280067 -0.06735953 -0.09640143 0.04949787 0.08987777 0.015051735 -0.0015633622
-0.017002609 0.031316943 0.07551169 -0.09381821 -0.052790735 -0.023706155 -0.05884244 -0.0053085973

net.2.bias f4 [128]
00000000: bcd7 0dbe 2cb5 e03d ef52 923d 4032 3bbd
00000010: b2fc 7cbd 781a e8bd 04df b8bc 93d7 5cbd
00000020: 9030 79bd 010e 81bd e746 e4bc ed50 d23b
00000030: 7047 5b3b 39b6 613d 524e 3abd 8aa7 203e
00000040: 1d16 143c 68c4 14bd acbc 17bc d556 dbbd
00000050: 42e0 073e 5f8d 0e3e 490d 183d 12a9 e7bd
00000060: 8cec 3fbd aa98 af3d a3db 0cbd 08c4 99bc
00000070: 1ae2 0d3e 24a6 6fbd e628 abbd 94e8 c5bc
00000080: c30a 68bd 2ec0 23bb 611f 31bd 188e 133c
00000090: 4370 cdbd 3c38 8cbd c0be 573d cfb6 e8bc
000000a0: 3295 97bd b630 31bd 51aa 7dbc 9468 35bd
000000b0: dfb1 0cbe c5e6 8e3d e21c 603d 9c41 a83b
000000c0: 2967 eabd 1584 943d b6a4 773d b830 2ebe
000000d0: 0d0d 2a3d 7bdb 22be d7e3 a8bd efdc 553c
000000e0: 9fe7 2d3e ef1d bd3d 93c9 053c 1bda a53d
000000f0: d7f3 b2bd d3c4 c6bd df27 0d3d 59f7 98bd
00000100: aa18 053e edf3 653d 73bb 423e 9582 20bd
00000110: 7a9a abbd c125 0d3e 5941 a5bd 944f 3fbd
00000120: dfc9 09be a10e af3c 012b e83c 8c74 c03c
00000130: e8d3 1bbc 50ce f5bb c570 07be 733e bebd
00000140: 3226 99bd a407 a4bc b72f 90bd 42c7 8f3c
00000150: e0be 163d f9e5 f6bd 4454 7fbd 8f40 003c
00000160: 5917 a7bd 5d9a 9bbd da8b a1bc e254 413e
00000170: 26f6 2f3e a6b1 ed3a 9438 503d e627 0abe
00000180: 6ef9 313d 268d 4dbd d125 e9bd 9b5d c73c
00000190: bdfe ed3c b3a3 543d c040 a0bd debe b93c
000001a0: 3250 e13c 68cc de3d 1c49 893d 543f 8f3d
000001b0: 04bc b3bd db1c e8bc 52dc 073d cc5e 2abd
000001c0: a895 d8bc d34e 463d 5d7c 0d3e 9971 e73b
000001d0: 790a 04be f290 9c3c 0dbe b0bd d0ae 85bd
000001e0: 8a91 94bb d658 1ebe 8478 203d 63cc 0dbe
000001f0: 7e4b 00be 602e 34bd 2b50 c6bd dbfc c03c
-0.13851827 0.10972056 0.071447246 -0.04570222 -0.061764427 -0.113331735 -0.02256728 -0.053916525
-0.06083733 -0.06301499 -0.02786584 0.0064183385 0.0033459328 0.05510542 -0.04548485 0.15688911
0.009038475 -0.03632012 -0.0092612915 -0.10709921 0.13269141 0.13921116 0.037122045 -0.113115445
-0.046856448 0.0857404 -0.03438915 -0.018770233 0.13855782 -0.058508053 -0.0835741 -0.024158753
-0.05665089 -0.0024986374 -0.043242816 0.009006046 -0.10031178 -0.06846663 0.052672148 -0.028407482
-0.074015036 -0.043259345 -0.015482501 -0.044289187 -0.13739727 0.069776095 0.054715045 0.0051347744
-0.114454575 0.07251755 0.060459815 -0.17010772 0.041516352 -0.15904038 -0.08246582 0.013053163
0.16982888 0.09234225 0.008165735 0.08098241 -0.08737915 -0.0970551 0.034461852 -0.07469053
0.1299769 0.05614083 0.19016819 -0.039187033 -0.083790734 0.13783933 -0.08069105 -0.04670675
-0.13455914 0.02136928 0.028340818 0.023493074 -0.009510972 -0.007501401 -0.13226612 -0.09289255
-0.07477988 -0.020023175 -0.07040351 0.017551068 0.036803126 -0.120555826 -0.06233622 0.007827892
-0.0815875 -0.07597802 -0.019720007 0.18880036 0.17183742 0.0018134608 0.050835207 -0.13491783
0.043450765 -0.050183438 -0.11384166 0.024336627 0.029052133 0.05191393 -0.0782485 0.02267402
0.02750406 0.10878831 0.06703398 0.06994501 -0.087760955 -0.028334072 0.0331691 -0.04159431
-0.02643855 0.048415016 0.13816972 0.0070631024 -0.1289462 0.019112084 -0.08629999 -0.065274835
-0.004533951 -0.15463576 0.039177433 -0.13847499 -0.12528798 -0.04398954 -0.096832596 0.02355807

net.4.weight f4 [1, 128]
00000000: 44f0 a53c b2ac 11be f69a 9f3d b02e 5e37
00000010: 18bd 35bd 205f cf3d de6f ec3d 78b6 8c3c
00000020: e501 ecbd b7cd aebe b84d d5be e800 18be
00000030: 53e1 4fbe 8b4a ac3d a174 1bbe 70fb 06be
00000040: b853 f9be d11c 9a3d 534d 4abe 70d2 e73d
00000050: a932 15be 030d 9fbd 452f ad3d cf9b 2e3d
00000060: 0b9e 39be 992d 64be 75f3 0e3e ce0d 0fbe
00000070: f48e c7bd 60c9 093d ced8 893c b8e1 b93d
00000080: eb95 e03c 7345 94bc 98d7 083e 1948 c43d
00000090: 5da4 a33d 2910 2b3e 2a45 98be f0bc d9bd
000000a0: 2137 743d 6ce1 973d 514b 0b3e ac1d 2cbe
000000b0: 18de 9a3d 947b 00be 4f1c 75be 27f7 283d
000000c0: 4edc 0e3d a7fa f4bd 3478 d3bd 607d 8c3d
000000d0: e46b 613d fcca a93d 3ae9 adbe 8188 dabd
000000e0: fe41 32bd 64a5 aebd a36d 8a3d bccf fcbd
000000f0: 1a0a 763d 4dda bb3d 8bd9 28bf 1cfc 99be
00000100: 32fd 44bd 0113 44be b417 66be 174d 8bbd
00000110: 8cd4 123d 3667 c5bd 9e11 753d 0308 993e
00000120: 27cd 223e 2628 ad3d d845 0ebe 09a5 05be
00000130: 9966 9cbe d30b ac3d b89a 203e d2fc 9dbd
00000140: 77ca 81bd 2d5a abbd 5684 9cbd a6b4 7bbd
00000150: 0672 293e 81f5 843d 8ce3 f93d 91e0 f93d
00000160: 54b2 a33d 661d 2cbf c38e d13d 573d 60be
00000170: a8e8 40be 0a4f 49bd 4a75 ea3d 6b36 b73d
00000180: 8318 65bc 041a 0c3e 9089 133d 0f87 f9bd
00000190: acac 94be eb01 96be 591b 80be 5647 8cbe
000001a0: 345d 84be 5a81 28be 23c2 193c 3038 a4be
000001b0: fe79 c83e 159f 2b3e 8a31 06be 1818 c4bd
000001c0: 985f 53be c721 dfbd 6be8 12be b073 6a3d
000001d0: 9719 993d bb4e cc3d c22c a13c 2890 4abd
000001e0: 298e 3bbe 6e12 e03d f05f 1d3d 3b81 0e3e
000001f0: 2fe6 f2bc e1f1 2cbd 7601 413d 249b 5ebe
0.02025617 -0.14226034 0.07793228 1.3243101e-05 -0.044369787 0.101255655 0.115447745 0.017176852
-0.11523799 -0.34141323 -0.41660857 -0.14844096 -0.20300798 0.084126554 -0.15181209 -0.13181853
-0.48696685 0.075250275 -0.1975606 0.11319435 -0.14570107 -0.07766154 0.084562816 0.04262906
-0.18126695 -0.22283019 0.13960059 -0.1397011 -0.09744063 0.03363931 0.016827013 0.090762556
0.027415236 -0.018099522 0.13363492 0.09584064 0.07990334 0.16705383 -0.29740268 -0.1063174
0.059622888 0.07416043 0.1360295 -0.16808194 0.07561892 -0.12547141 -0.2393658 0.041251328
0.034878068 -0.11961871 -0.10325661 0.06859851 0.055034533 0.08290669 -0.33967 -0.10670567
-0.043519966 -0.085276395 0.06759193 -0.1234431 0.060068227 0.09172497 -0.65956944 -0.30075157
-0.04809303 -0.19147874 -0.2246998 -0.06801813 0.03584723 -0.096388265 0.059831254 0.29888925
0.15898572 0.08454923 -0.13893831 -0.13051237 -0.30547026 0.08400693 0.1568402 -0.07714237
-0.06337445 -0.08366809 -0.076424286 -0.061451577 0.16547403 0.06492139 0.12201604 0.12201036
0.07992998 -0.6723236 0.10232308 -0.218984 -0.18838751 -0.049147643 0.11448152 0.08945926
-0.013982895 0.13681799 0.03601986 -0.121839635 -0.29037988 -0.29298338 -0.25020865 -0.27398175
-0.25852358 -0.16455594 0.009384665 -0.32074118 0.39155573 0.16759904 -0.13104835 -0.09574908
-0.20641935 -0.108951144 -0.14346473 0.057239234 0.07475584 0.09975954 0.019674663 -0.049453884
-0.18315949 0.10941015 0.03842157 0.13916485 -0.029650776 -0.04222286 0.047120534 -0.21738869
