checkpoints/nd/dim_2/width_2/method_lsot-f.pt (torch, 69975 bytes, 5 tensors)

net.0.weight f4 [128, 2]
0	0xbe5ad069	-0.21368565
1	0xbe79cbc3	-0.24394135
2	0xbf20b1d7	-0.6277136
3	0xbd23a50e	-0.03995233
4	0xbf088868	-0.5333314
5	0x3f326d16	0.696977
6	0x3e927239	0.2860277
7	0x3de185a0	0.11011815
8	0xbe91e2ba	-0.2849329
9	0xbeb19553	-0.34684238
10	0xbe809504	-0.2511369
11	0x3ef1d938	0.47236037
12	0x3f3926f6	0.72325075
13	0xbd4779f9	-0.048700307
14	0x3f37ab5e	0.7174586
15	0xbdc7efee	-0.0976256
16	0x3f1e47ba	0.61828196
17	0xbf3c4f34	-0.73558354
18	0x3e89ec88	0.26938272
19	0x3f2c7865	0.6737121
20	0x3e31875d	0.17336793
21	0x3c7ed223	0.01555303
22	0x3ebfc302	0.37453467
23	0xbf1637a4	-0.5867865
24	0xbec73532	-0.38907772
25	0x3e9c9a93	0.3058668
26	0xbf1df434	-0.6170075
27	0x3f2db9b3	0.6786148
28	0x3e89cb62	0.2691298
29	0x3e5906bb	0.21193974
30	0xbdde39bf	-0.10850858
31	0xbe844e33	-0.2584091
32	0x3e877d8c	0.26462972
33	0xbec70245	-0.3886892
34	0x3f0a4717	0.54014724
35	0xbd562495	-0.05228098
36	0x3eaa27e1	0.3323355
37	0x3f022a72	0.50846016
38	0xbe4edf3f	-0.20202349
39	0x3f3acaf0	0.7296591
40	0xbf043ece	-0.5165833
41	0xbf0fad15	-0.5612348
42	0x3ea255fc	0.31706226
43	0x3e735763	0.23763804
44	0x3d48bb22	0.04900659
45	0xbeb22243	-0.34791765
46	0xbf3383a7	-0.7012276
47	0xbefd2a78	-0.49446464
48	0xbdc113f0	-0.09427631
49	0xbf1df0ed	-0.6169575
50	0x3e224c77	0.15849482
51	0x3ed9935d	0.42495242
52	0xbeca5f0b	-0.39525637
53	0xbe664b62	-0.22489694
54	0xbee65b7f	-0.4499168
55	0xbf2d718c	-0.67751384
56	0xbe97ef4f	-0.29674765
57	0x3e3b777d	0.183073
58	0x3eae32c2	0.340231
59	0xbe372457	-0.17884956
60	0xbd13ec3b	-0.03611396
61	0x3f0880e3	0.53321666
62	0xbf030354	-0.51176953
63	0x3c842d9b	0.016135028
64	0xbec81bca	-0.390837
65	0xbf254a70	-0.6456671
66	0xbecf7878	-0.40521598
67	0x3ec570f0	0.38562727
68	0xbf3dd5e1	-0.7415448
69	0xbee2b136	-0.44275826
70	0x3f32df8a	0.69872344
71	0xbe830987	-0.25593206
72	0x3e00e5f5	0.12587722
73	0x3ee6ae3e	0.4505481
74	0xbeed842f	-0.4638991
75	0xbe01af1f	-0.1266446
76	0x3ecb3229	0.39686707
77	0x3f14948e	0.58039176
78	0xbd5bab58	-0.053630203
79	0xbdd5761a	-0.10422917
80	0xbdb1128e	-0.08646117
81	0xbf2804ea	-0.656325
82	0x3f123db0	0.5712538
83	0xbeef603e	-0.46753114
84	0x3ec97380	0.39345932
85	0x3f23bb76	0.6395792
86	0x3e173094	0.14764625
87	0x3e999ee1	0.30004027
88	0x3e03c1de	0.12866923
89	0xbe41f6da	-0.18941823
90	0x3e830977	0.2559316
91	0x3e3e91ec	0.18610352
92	0x3e9d73de	0.30752462
93	0x3e831752	0.2560373
94	0xbf03267d	-0.51230603
95	0x3f3eac05	0.7448123
96	0x3efd0db8	0.4942453
97	0x3e4bf1c2	0.19916442
98	0xbc1231ab	-0.008922975
99	0x3e584cd0	0.21123052
100	0x3f356191	0.70852
101	0xbe914fa2	-0.28381068
102	0x3f123ade	0.57121074
103	0x3f0f467c	0.55966926
104	0xbf20feea	-0.6288897
105	0xbe9c221b	-0.3049477
106	0xbe083437	-0.13301168
107	0xbe113232	-0.14179304
108	0xbed7eac5	-0.42171302
109	0xbeaad5f7	-0.33366367
110	0x3e9485cc	0.2900833
111	0xbeeb0701	-0.4590378
112	0x3e18b22c	0.14911717
113	0xbf07f135	-0.5310243
114	0x3f06e2b5	0.5268968
115	0x3e8b6a0b	0.27229342
116	0xbe65e64b	-0.22451131
117	0x3c271626	0.010198152
118	0x3ebcca55	0.36873117
119	0xbeee89fa	-0.46589643
120	0x3ed0b7dd	0.40765277
121	0xbe899bc2	-0.26876646
122	0xbdf1ca0f	-0.11806118
123	0x3ee2e1e8	0.44312978
124	0x3ee67d09	0.4501727
125	0x3f1c1b18	0.6097884
126	0x3ebdf6e5	0.37102428
127	0xbde0c64b	-0.109753214
128	0xbe2bf105	-0.1679116
129	0xbeca8a36	-0.39558572
130	0xbf34799e	-0.70498073
131	0x3dca726f	0.09885108
132	0xbe6d114f	-0.23151134
133	0xbf2333b9	-0.637508
134	0xbf2e7b72	-0.6815711
135	0xbef2aa2e	-0.47395462
136	0x3f12919e	0.57253444
137	0x3f1dc12b	0.61622876
138	0x3e6efcc9	0.23338617
139	0xbe841767	-0.25799105
140	0x3f1e5217	0.6184401
141	0x3f158d8b	0.584191
142	0xbe801703	-0.25017557
143	0xbed4055f	-0.41410348
144	0x3ea4ca12	0.32185417
145	0x3ea7b2af	0.32753512
146	0xbe2e1ec4	-0.17003924
147	0xbf094ac7	-0.53629726
148	0x3e0d359c	0.13789982
149	0xbf2ce880	-0.67542267
150	0xbf0b6507	-0.5445103
151	0xbd9a5fc7	-0.07537799
152	0x3bae44fa	0.0053182812
153	0xbf0ba6cb	-0.5455138
154	0xbedac01f	-0.42724702
155	0x3e2706aa	0.16311136
156	0xbdc40ca9	-0.09572727
157	0x3f23b594	0.6394894
158	0x3d5c8516	0.05383786
159	0x3d2d569c	0.042318925
160	0x3f326062	0.6967832
161	0xbded29f5	-0.11580268
162	0xbef78ed7	-0.48351166
163	0x3dab2f5e	0.08358644
164	0x3d1d625f	0.038423892
165	0xbe4183e7	-0.18897973
166	0xbcdf1a63	-0.027234262
167	0x3ea71f60	0.32641125
168	0xbf12be2f	-0.5732145
169	0x3b212765	0.0024590131
170	0xbeaf3619	-0.3422096
171	0xbf13aa1e	-0.57681453
172	0xbf040c2b	-0.51581067
173	0xbe9c1fc8	-0.30492997
174	0xbf1ed199	-0.6203857
175	0xbf1fb14f	-0.62379926
176	0xbeca2208	-0.3947909
177	0xbf10ce8e	-0.5656518
178	0x3f102fe4	0.56323075
179	0x3ed545bd	0.4165477
180	0x3f2afca1	0.6679173
181	0xbe76e47a	-0.24110594
182	0xbf12b8af	-0.57313055
183	0x3ed22a2b	0.41047797
184	0x3e8f1726	0.27947348
185	0x3e022dfc	0.12712854
186	0x3e99df82	0.30053335
187	0x3e3eb5a3	0.18623976
188	0xbe139d08	-0.14415371
189	0xbee1e875	-0.44122663
190	0x3d2759a8	0.040856987
191	0xbdcb4759	-0.09925718
192	0x3e9303b2	0.28713757
193	0xbe1d7099	-0.15374984
194	0xbe9e4fc3	-0.30920228
195	0x3d612ae9	0.054972563
196	0xbf0b79ba	-0.54482615
197	0x3dcc13f4	0.09964743
198	0x3efe0bd1	0.4961839
199	0x3ec1ae29	0.37828186
200	0xbe1c7cf6	-0.15282044
201	0x3eb6aaad	0.3567709
202	0x3db0ae21	0.086269625
203	0x3de621f3	0.11236944
204	0xbf129634	-0.5726044
205	0x3f0d6e74	0.55246663
206	0x3eba69b0	0.36408758
207	0xbe98f711	-0.29875997
208	0xbd3b108a	-0.04567007
209	0x3c431096	0.01190581
210	0x3f0c0473	0.5469429
211	0x3eabf9a8	0.3358891
212	0x3eaa29a2	0.33234888
213	0x3e2de025	0.16980036
214	0x3db54e2a	0.08852799
215	0x3e93c655	0.28862253
216	0x3e356370	0.17713714
217	0x3e72feb2	0.23729971
218	0xbf00bdc0	-0.50289536
219	0x3d1557c1	0.03646064
220	0x3d93bdc7	0.072139315
221	0xbed0d459	-0.40787008
222	0x3e650992	0.22366932
223	0xbe1ab508	-0.1510812
224	0xbf11330e	-0.5671853
225	0xbe28c938	-0.16483009
226	0xbecc2f0b	-0.3987964
227	0xbef07317	-0.46962807
228	0x3d5f71b3	0.05455179
229	0x3dd86f16	0.10568063
230	0x3f00352e	0.50081146
231	0x3e68cc90	0.22734284
232	0x3ed829e9	0.42219475
233	0xbeb17582	-0.34659964
234	0x3eff3a0d	0.49848977
235	0x3e086ae1	0.13322021
236	0xbdd0754b	-0.10178622
237	0xbe1a445d	-0.15065141
238	0x3e8e468e	0.27788204
239	0x3ea04692	0.3130384
240	0xbeb9cd98	-0.36289668
241	0xbdcd4323	-0.10022571
242	0xbf3187b6	-0.69347703
243	0x3e45eba7	0.19328175
244	0xbee74134	-0.45166934
245	0x3e554b6e	0.20829555
246	0x3d2c02f4	0.041995004
247	0x3f2f955f	0.685873
248	0xbe06d408	-0.13166821
249	0x3ec7f35e	0.39052862
250	0x3d44e0c9	0.048065934
251	0x3cc25284	0.023720987
252	0xbf36fff9	-0.71484333
253	0x3d73fc2d	0.059566665
254	0x3f23db87	0.6400685
255	0x3f0a0a73	0.53922194

net.0.bias f4 [128]
0	0xbecdcc7b	-0.4019507
1	0x3eaaecf6	0.33383912
2	0x3f0e7b2c	0.55656695
3	0x3e8607b5	0.26177755
4	0x3f1ed536	0.62044084
5	0xbdfef81e	-0.12449668
6	0xbedd010f	-0.4316487
7	0xbe93c40c	-0.2886051
8	0xbe7cae85	-0.24675949
9	0x3f1102ac	0.566447
10	0xbf204f22	-0.6262075
11	0xbf23d00d	-0.63989335
12	0xbe34cc4c	-0.17656058
13	0xbed79128	-0.42102933
14	0x3e908e7b	0.28233704
15	0x3efa0362	0.48830706
16	0xbe9d585e	-0.3073148
17	0x3f299c85	0.66254455
18	0xbda6c9ef	-0.081439845
19	0xbde4be2a	-0.111690834
20	0xbe188308	-0.14893734
21	0xbe5fe471	-0.21864487
22	0x3f688513	0.90828055
23	0xbf1b0772	-0.60558236
24	0x3dc6ec57	0.09713047
25	0x3ee26d47	0.44223997
26	0x3ead47bb	0.33843789
27	0xbeb00961	-0.34382156
28	0x3f213937	0.6297793
29	0xbf0532c7	-0.52030605
30	0x3e86375a	0.26214105
31	0xbdba32e5	-0.090917386
32	0xbee7592a	-0.45185214
33	0xbef90cf7	-0.48642704
34	0xbeef3b64	-0.46725
35	0xbd55d00b	-0.05220036
36	0xbf06be4c	-0.5263412
37	0xbedce738	-0.43145156
38	0x3f4121ac	0.75442004
39	0x3ecea372	0.40359074
40	0x3e9ec4ba	0.31009465
41	0xbd44734d	-0.047961522
42	0x3e099cb0	0.13438678
43	0xbda881a1	-0.0822785
44	0x3f58066e	0.8438481
45	0x3ee6f616	0.45109624
46	0x3d67788a	0.05651144
47	0xbeb5ab24	-0.35482132
48	0x3f365975	0.7123025
49	0x3e9d4d7b	0.30723175
50	0xbef1c9e1	-0.47224334
51	0x3ed3e9fb	0.4138945
52	0xbf0d5d6f	-0.55220693
53	0x3efa16d8	0.48845553
54	0xbeec3e5c	-0.46141326
55	0x3dbdb7f7	0.09263604
56	0xbe64011e	-0.22266051
57	0x3eaa2fc2	0.3323956
58	0x3eacae8a	0.33726913
59	0x3eb58168	0.35450292
60	0x3d83b22b	0.06430467
61	0x3ea86bf3	0.3289486
62	0x3e994923	0.2993861
63	0xbf1358d1	-0.575574
64	0x3dde7984	0.10863021
65	0xbde9f5dd	-0.11423848
66	0x3e42b37c	0.1901378
67	0x3f0a2846	0.539677
68	0xbe6649e0	-0.22489119
69	0xbe3c50ba	-0.1839017
70	0x3cf92237	0.030411823
71	0xbf168bd9	-0.5880714
72	0xbf1a16bb	-0.60190934
73	0x3f30a7bb	0.69005936
74	0xbf0ebf44	-0.557606
75	0xbf003d86	-0.5009388
76	0x3ebaf961	0.36518386
77	0xbf23858b	-0.63875645
78	0x3edc4898	0.43024135
79	0x3e7bd636	0.24593434
80	0xbf2d0b21	-0.67595106
81	0xbf126cfa	-0.57197535
82	0x3f21b019	0.6315933
83	0x3f44af81	0.768303
84	0xbdc1be54	-0.0946013
85	0x3dcf372e	0.101179466
86	0x3f499c75	0.7875436
87	0xbd9bcae5	-0.076070584
88	0x3e6620d6	0.22473463
89	0xbe34d8ad	-0.1766078
90	0xbf007a99	-0.5018707
91	0xbf060cf5	-0.5236352
92	0xbed47085	-0.41492096
93	0x3e8c39bf	0.27387807
94	0x3efba105	0.49146286
95	0xbec79cd4	-0.38986838
96	0x3ec58228	0.38575864
97	0xbf132c72	-0.57489693
98	0xbe630eb9	-0.22173585
99	0x3f3baa31	0.73306566
100	0xbd3ad017	-0.045608606
101	0x3e27fd26	0.16405162
102	0x3eb2d702	0.34929663
103	0xbe74a3c5	-0.23890598
104	0xbf1b589e	-0.60682094
105	0xbef47a69	-0.47749642
106	0x3f4d5372	0.8020545
107	0xbcbdae4f	-0.023154406
108	0x3e569165	0.20953901
109	0x3f389a47	0.7211041
110	0x3f5ac56f	0.8545751
111	0x3f677ea4	0.90427613
112	0xbed10161	-0.40821365
113	0x3e8e6132	0.2780853
114	0x3ea1a7b5	0.31573263
115	0x3e54c370	0.20777678
116	0xbf22341b	-0.63360757
117	0x3ea9e310	0.33181047
118	0x3efee84b	0.497866
119	0x3e316c71	0.17326523
120	0x3f16c69b	0.588968
121	0xbe5e14ad	-0.21687575
122	0x3f3cbe80	0.7372818
123	0xbe8c7c57	-0.27438614
124	0x3e9d4e00	0.30723572
125	0x3eaf4fb9	0.3424051
126	0x3ecfdac3	0.4059659
127	0xbe0b4782	-0.13601497

net.2.weight f4 [128, 128]
0	0x3961a4fb	0.00021519132
1	0xbb8d9aee	-0.0043214476
2	0xbad4809a	-0.0016212643
3	0x3e13391c	0.14377254
4	0x3e136c49	0.14396776
5	0xbd4a7a8c	-0.049433276
6	0x3cc3f8c0	0.023922324
7	0x3b51423f	0.0031930355
8	0xbd3df5ad	-0.046376873
9	0x3dde6c3f	0.1086049
10	0xbd2afbfc	-0.041744217
11	0x3dd93cb3	0.106072806
12	0x3de6fdac	0.11278853
13	0x3dcbb54c	0.09946689
14	0x3dda1637	0.106487684
15	0x3dbd76b0	0.092511535
16	0xbd8b193a	-0.06791921
17	0x3dab7f37	0.08373874
18	0x3dc857b5	0.09782354
19	0x3dd53f14	0.10412422
20	0x3d2c4663	0.042059314
21	0xbb899814	-0.0041990373
22	0x3e0ec88c	0.1394369
23	0x3db5b89c	0.08873102
24	0x3d5a5e3c	0.053312525
25	0x3d936dfb	0.071987115
26	0x3db246dd	0.08704922
27	0x3d62deae	0.055388145
28	0x3c0775c8	0.008267827
29	0xbd88635f	-0.066595785
30	0x3d8dbfb4	0.0692133
31	0xbce91fb1	-0.028457494
32	0xbd0b1547	-0.03395584
33	0x3d1eb228	0.03874412
34	0x3d3eee01	0.046613697
35	0x3c9970be	0.018730517
36	0xbd8fbf63	-0.07018926
37	0x3dd4d08a	0.10391338
38	0x3c8b25c9	0.01698579
39	0x3e34a98c	0.17642802
40	0x3deef036	0.1166691
41	0xba5400f0	-0.0008087298
42	0xbc4ceb6e	-0.012507303
43	0x3d11707b	0.03550766
44	0x3d2b206c	0.041778967
45	0xbbd872b0	-0.0066054687
46	0xbd13ccb0	-0.036083877
47	0xbc8e7013	-0.017387426
48	0x3d061c7c	0.03274201
49	0x3d893583	0.0669966
50	0x3d8c7922	0.06859042
51	0x3c8b87fb	0.017032614
52	0x3d44b574	0.04802461
53	0xbc94eb11	-0.018178495
54	0xbe4a373b	-0.19747631
55	0x3dadb6b0	0.084821105
56	0x3d4d5f36	0.05013963
57	0xbbe45067	-0.0069675925
58	0x3d285f93	0.04110677
59	0x3dd69c92	0.10479082
60	0x3df44d17	0.11928766
61	0x3da42b6a	0.08016093
62	0x3d0fb2a1	0.035082463
63	0xbdc02d39	-0.093836255
64	0x3db1c6b7	0.0868048
65	0x3d7dcbfe	0.06196212
66	0x3d711c9f	0.058865186
67	0x3dc9d503	0.09855082
68	0x3d1bd48b	0.038044494
69	0x3d929179	0.07156653
70	0x3da1414f	0.07873785
71	0x3cd81f5d	0.026382143
72	0xbd85000a	-0.06494148
73	0x3cb58c64	0.02216167
74	0xbda9500f	-0.08267223
75	0x3d7e0d1f	0.062024232
76	0x3e0c3dc3	0.13695435
77	0xbc3c2e89	-0.011485704
78	0x3deee693	0.11665072
79	0x3d838ec0	0.06423712
80	0x3db82919	0.08992214
81	0x3ce2d24f	0.027688174
82	0x3daf7258	0.08566731
83	0x3c9db989	0.01925351
84	0x3d91ac76	0.071129724
85	0x3db1c74b	0.0868059
86	0x3e09563b	0.134118
87	0xbd3a935a	-0.04555068
88	0x3d9df222	0.07712199
89	0xbc2412db	-0.010014261
90	0x3dc7966b	0.09745487
91	0x3c86b110	0.016441852
92	0xbd740200	-0.05957222
93	0x3e1883dd	0.14894052
94	0x3df5aaf8	0.119955
95	0x3cac4985	0.02103115
96	0x3d7bd577	0.061482873
97	0x3dd9064a	0.10596903
98	0xbd226bac	-0.039653465
99	0x3c84e875	0.016224125
100	0x3c95fb0c	0.018308185
101	0x3e1e3d4b	0.15453069
102	0x3dffab7f	0.12483882
103	0x3d17196f	0.03688949
104	0x3c30a0f5	0.010780563
105	0x3d1b77a8	0.03795591
106	0x3d22fff0	0.039794862
107	0x3dcc4311	0.099737294
108	0xbce99416	-0.028512996
109	0x3c28f896	0.010313174
110	0x3e0ebd79	0.13939466
111	0x3d09d7e9	0.033653174
112	0x3daf451e	0.08558105
113	0xbd43474e	-0.047675423
114	0x3c39eb65	0.011347626
115	0xbc81eaf7	-0.01585911
116	0xbcb7d6f3	-0.022441363
117	0x3b911f55	0.004428784
118	0x3d91a49b	0.07111474
119	0x3dd4f643	0.10398533
120	0x3da7693e	0.0817437
121	0xbd105730	-0.0352394
122	0xbc359b9c	-0.011084463
123	0x3c00612c	0.007835668
124	0x3ddf0dc4	0.108912975
125	0x3d24f17e	0.040269367
126	0x3d8ebe87	0.06969934
127	0xbd2aa62b	-0.041662376
128	0x3d4c05b0	0.04981011
129	0xbc88b8db	-0.016689708
130	0x3d6a0021	0.05712903
131	0x3d7c1de3	0.06155194
132	0xbd6c2911	-0.05765635
133	0x3db0ad6d	0.08626828
134	0xbd9234c6	-0.07138972
135	0x3d44f4c4	0.04808499
136	0xbdb58fa0	-0.08865285
137	0x3c9fb4b1	0.01949534
138	0x3d2adf97	0.04171714
139	0x3d1df93b	0.038567763
140	0xbd8ec59f	-0.06971287
141	0x3c398acb	0.011324595
142	0xbd63fabd	-0.055659045
143	0x3d8d294a	0.06892641
144	0x3baada17	0.0052139866
145	0xbcc1cc98	-0.023657128
146	0x3b36afb0	0.0027875714
147	0xbd323380	-0.043506145
148	0x3d5c30f8	0.053757638
149	0x3d04fa6e	0.03246539
150	0xbdb412f8	-0.087926805
151	0x3c83645a	0.016039062
152	0xbd837685	-0.0641909
153	0x3ca56a9d	0.020192439
154	0x3d5864c7	0.052830484
155	0x3d2e9685	0.042624015
156	0xbd8e9f9a	-0.06964035
157	0xbb5c32e8	-0.0033599678
158	0xbd109b3d	-0.035304297
159	0x3d589769	0.05287877
160	0xbc8ed5cc	-0.01743593
161	0x3d93fb9e	0.072257265
162	0x3cc950f0	0.024574727
163	0xbd45fa5d	-0.04833447
164	0x3af15c67	0.0018414379
165	0xbdb01100	-0.085969925
166	0xbdb0b3dd	-0.08628056
167	0xbcdf02b6	-0.027222972
168	0x3d8fc94c	0.07020816
169	0xbd8cfb57	-0.06883877
170	0x3af7dcef	0.0018910448
171	0xbd8e4aa1	-0.06947828
172	0xbce302a2	-0.027711216
173	0x3d9418c3	0.072312854
174	0xbd4dbbdd	-0.05022799
175	0x3d91d62a	0.07120927
176	0xbc6d4d71	-0.0144837955
177	0xbd1e2c23	-0.03861631
178	0xbcb18314	-0.021668948
179	0xbd80beed	-0.06286416
180	0xbd3ac54b	-0.04559831
181	0x3d75b678	0.05998847
182	0x3caa1334	0.02076111
183	0xbd932166	-0.071841046
184	0x3da6d573	0.08146181
185	0xbd7ece5e	-0.062208526
186	0xbd651a49	-0.05593327
187	0x3c599d21	0.013282091
188	0xbda24a49	-0.07924325
189	0xbc3f8268	-0.011688806
190	0xbd832167	-0.06402855
191	0xbd49e9d9	-0.04929528
192	0x3d177c9d	0.036984075
193	0x3d8dac23	0.06917598
194	0xbc8c1386	-0.017099153
195	0xbd7ad733	-0.061240386
196	0xbd9f0a78	-0.07765669
197	0x3d86ba4c	0.06578502
198	0xbd0f71c2	-0.035020597
199	0x3b1fa64a	0.002436059
200	0x3d21d49d	0.039509404
201	0x3d4777f0	0.048698366
202	0xbd9f4334	-0.0777649
203	0x3c29cff3	0.01036452
204	0xbd4b44d2	-0.04962618
205	0xbd89e162	-0.067324415
206	0x3d0754c0	0.03303981
207	0x3cf894f1	0.030344458
208	0xbccfaab8	-0.02534996
209	0xbcfcd8a4	-0.030865021
210	0x3d7bd4ad	0.06148212
211	0x3d0ef2b9	0.034899447
212	0xbd035017	-0.0320588
213	0x3d785a70	0.060633123
214	0xbd7f53e5	-0.062335867
215	0x3bdc3e8a	0.0067213224
216	0x3bcf4242	0.006325037
217	0x3c324d55	0.010882695
218	0x3d7c5335	0.06160279
219	0xbc75b931	-0.014997766
220	0xbd9f9ea2	-0.07793929
221	0xbd080f8a	-0.033217944
222	0x3dabdfd8	0.08392304
223	0xbbb19b52	-0.005420127
224	0xbd81b2d1	-0.06332935
225	0xbca94ee2	-0.020667497
226	0xbd694e4b	-0.05695943
227	0x3d186484	0.037205234
228	0xbd99b28b	-0.075047575
229	0xbd729ebc	-0.059233412
230	0xbc2ed2fd	-0.010670421
231	0x3d76059d	0.060063947
232	0xbcc4ee4e	-0.024039414
233	0xbd2fdd09	-0.042935405
234	0xbdb3702b	-0.08761629
235	0x3d81779d	0.063216425
236	0x3d7ca4e4	0.06168069
237	0xbd5c6979	-0.053811524
238	0xbd6f99fb	-0.058496457
239	0xbcedc63b	-0.029025188
240	0x3b3e7267	0.0029059888
241	0x3da364f7	0.07978242
242	0xbcf67498	-0.030084893
243	0xbd85f36b	-0.06540569
244	0x3d551322	0.0520202
245	0xbb7d7802	-0.0038676267
246	0x3d058719	0.032599542
247	0x3ccdcd99	0.02512245
248	0x3d6d6223	0.05795492
249	0xbdae2bba	-0.08504434
250	0xbdb07fec	-0.08618149
251	0xbd9cc95e	-0.07655595
252	0x3d81aa60	0.063313246
253	0x3cea0e16	0.02857117
254	0xbdb09809	-0.086227484
255	0xbd60f978	-0.054925412

net.2.bias f4 [128]
0	0x3e03f38b	0.12885873
1	0x3d2c208c	0.042023227
2	0xbd22dca6	-0.039761208
3	0x3deca0a0	0.11554074
4	0x3d864720	0.06556535
5	0x3dc288b6	0.09498732
6	0x3db172f3	0.08664503
7	0xbd09fe31	-0.03368968
8	0x3d169c44	0.03677012
9	0x3c47b750	0.012189701
10	0x3d4f984e	0.05068236
11	0x3c78e8f7	0.015192262
12	0xbd0abfbe	-0.033874266
13	0x3d8be0cc	0.06829986
14	0x3d67389d	0.056450475
15	0x3d779f8d	0.060454894
16	0x3cc5a6bc	0.024127357
17	0xbd40d44b	-0.04707746
18	0x3df395a4	0.11893776
19	0xbceaf39d	-0.028680617
20	0x3d757d57	0.059933987
21	0x3db55322	0.08853747
22	0x3ccf4ed9	0.025306152
23	0x3dc7c52b	0.09754404
24	0x3c848c5e	0.016180214
25	0xbbbc6202	-0.005748988
26	0xbd864b2b	-0.06557306
27	0x3d2e17c0	0.04250312
28	0x3df052a5	0.11734513
29	0xbd821884	-0.06352332
30	0x3cdea6bd	0.027179116
31	0xbc5ffa9f	-0.013670593
32	0x3d3e444d	0.046451855
33	0x3e0c2c34	0.13688737
34	0xbd88867e	-0.06666277
35	0x3de2cdea	0.11074431
36	0x3ccc5490	0.024942666
37	0xbd372297	-0.04471072
38	0x3d1476be	0.036246054
39	0xbdbee1c4	-0.09320405
40	0x3d5d964a	0.054098405
41	0x3d55d2c2	0.052202947
42	0x3d9c676a	0.07636912
43	0xbd3c4e09	-0.045972858
44	0x3d8f033a	0.06983037
45	0xbbf8cbee	-0.0075926697
46	0x3c83f8de	0.01610988
47	0xbd1fc990	-0.039010584
48	0x3d110e3a	0.035413958
49	0x3b903732	0.004401111
50	0x3d8677d9	0.06565828
51	0x3d8ed845	0.06974844
52	0x3bafc601	0.00536418
53	0x3d8d5c6e	0.06902395
54	0xbd2a2990	-0.041543543
55	0x3c081c68	0.008307554
56	0x3c8e015e	0.017334636
57	0xbcc07339	-0.023492442
58	0x3cf07ec3	0.02935732
59	0x3de1c060	0.11023021
60	0x3d2613e3	0.04054631
61	0x3b320d57	0.0027168596
62	0x3d1366b3	0.035986613
63	0x3c90da77	0.017682297
64	0x3cba8fed	0.022773707
65	0xbd83bf8a	-0.064330176
66	0x3c89cb91	0.0168207
67	0x3e1882da	0.14893666
68	0x3d91eb36	0.07124941
69	0xbc9fcf17	-0.019507928
70	0x3e011101	0.12604143
71	0x3c330d25	0.010928427
72	0x3c3a5a98	0.011374138
73	0x3db1d7c5	0.08683733
74	0x3d1376b3	0.036001872
75	0x3c1b3de1	0.009475202
76	0x3d6569fa	0.05600927
77	0x3d13baf7	0.036066975
78	0xbd85ea6c	-0.06538853
79	0xbe03ff86	-0.12890443
80	0xbccfb825	-0.025356362
81	0xbc902607	-0.017596258
82	0x3cd1abe6	0.025594663
83	0x3d774f41	0.060378317
84	0x3d74f868	0.05980721
85	0xbd14809c	-0.036255464
86	0x3b59f337	0.003325654
87	0x3c5a352f	0.013318344
88	0xbdae58cf	-0.08513033
89	0xbdafec5c	-0.08590004
90	0x3d978d4d	0.07399998
91	0x3e196e66	0.1498352
92	0x3e601f2e	0.21886894
93	0x3d2f33cc	0.042774007
94	0x3dc65e3a	0.09685941
95	0x3d1cc6e4	0.038275614
96	0x3d77ae96	0.060469232
97	0x3df5d86f	0.12004172
98	0x3d7a500a	0.061111487
99	0x3d842e14	0.06454101
100	0x3ce3fdd9	0.027831005
101	0x3c208f2c	0.00979976
102	0xbb02b809	-0.001994612
103	0x3d949efb	0.072568856
104	0xbd17cfc0	-0.03706336
105	0x3cab3351	0.020898493
106	0x3c9088c4	0.01764334
107	0x3d0c49c1	0.034250025
108	0x3e0f1594	0.13973075
109	0x3c2b99e3	0.010473701
110	0x3e1aa5f7	0.15102373
111	0xbcb7d457	-0.022440119
112	0xbdf29468	-0.118447125
113	0x3d32b689	0.04363111
114	0x3d819cd2	0.06328739
115	0xbd8bde53	-0.06829514
116	0x3c862dbe	0.016379233
117	0x3d5472bc	0.05186723
118	0x3d8e35f2	0.06943883
119	0xbcaa1460	-0.020761669
120	0x3d8359eb	0.06413635
121	0x3d9fbbb4	0.077994734
122	0x3e0febcd	0.14054795
123	0x3ca1ab22	0.019734923
124	0x3d559ee1	0.05215347
125	0xbd6519b9	-0.055932734
126	0x3d68c9d0	0.05683309
127	0xbbedcfd0	-0.007257439

net.4.weight f4 [1, 128]
0	0x3e10f1a3	0.14154677
1	0xbd9185c5	-0.07105593
2	0x3da33686	0.07969384
3	0x3e245427	0.16047727
4	0xbcfb151c	-0.030649714
5	0x3e0be661	0.13662101
6	0x3e0b2e50	0.13591886
7	0xbceac873	-0.028660035
8	0x3e0655bb	0.13118641
9	0x3da9a964	0.08284262
10	0x3db26454	0.08710542
11	0xbd015014	-0.03157051
12	0xbcf00af0	-0.02930209
13	0xbdbb5fed	-0.09149156
14	0x3dc007cf	0.09376489
15	0x3dee0d06	0.11623578
16	0xbd6b9d83	-0.05752326
17	0xbd85cca7	-0.06533175
18	0x3e1ba4a5	0.15199526
19	0xbd921878	-0.07133573
20	0x3d8b9ab4	0.06816617
21	0x3e02aae1	0.12760498
22	0x3dd7557f	0.10514354
23	0x3da8c79b	0.08241197
24	0x3dcc831c	0.09985945
25	0x3e0ca799	0.13735808
26	0x3d5f654b	0.05453996
27	0x3e018d92	0.12651661
28	0x3d8dbb2e	0.06920467
29	0xbc688fd2	-0.014194446
30	0xbd4de8d4	-0.05027087
31	0xbd9f5162	-0.077791944
32	0xbd7986a2	-0.06091941
33	0x3de21b9d	0.11040423
34	0xbc5d38d7	-0.013502321
35	0xbe3dac43	-0.18522744
36	0xbd830f0c	-0.06399354
37	0xbea185f5	-0.31547514
38	0x3da3fee6	0.080076024
39	0xbeaad6c4	-0.33366978
40	0x3e12545d	0.14289995
41	0x3def10cc	0.116731256
42	0xbcfa705e	-0.030571159
43	0xbcc57728	-0.02410467
44	0x3d968c77	0.0735101
45	0x3def0d72	0.11672486
46	0x3d994775	0.074843325
47	0xbc79fa65	-0.015257453
48	0x3e12f269	0.14350285
49	0x3c529c51	0.012854652
50	0xbcb8d045	-0.022560248
51	0x3d9a23c5	0.07526354
52	0xbd17a00a	-0.03701786
53	0xbb2b4f7f	-0.0026139913
54	0xbc3b1fc2	-0.011421146
55	0x3dffa3c0	0.12482405
56	0xbd9fccbf	-0.07802724
57	0xbd82ba80	-0.06383228
58	0xbd299166	-0.04139843
59	0x3e2058b1	0.15658833
60	0x3e077ff2	0.13232401
61	0xbcf203e6	-0.029542875
62	0x3d98a1bb	0.07452723
63	0xbd7f0b1b	-0.06226645
64	0x3d83e9b9	0.064410634
65	0xbda34977	-0.07972997
66	0x3db1afd3	0.08676114
67	0x3dbb9ebc	0.091611356
68	0xbd7ffddf	-0.06249797
69	0xbd74a158	-0.059724182
70	0x3e21eec6	0.15813741
71	0x3dd22f48	0.102629244
72	0x3cc77c77	0.024351342
73	0xbd637af1	-0.055537168
74	0xbd9f932f	-0.07791745
75	0x3debc265	0.11511687
76	0x3dafc161	0.08581806
77	0x3d9c80dc	0.076417655
78	0xbc4ba236	-0.012428811
79	0xbeb09a61	-0.34492782
80	0xbbc4756c	-0.005995443
81	0x3e1f952a	0.15584245
82	0x3de4e260	0.1117599
83	0xbd7ff38f	-0.062488135
84	0x3c8a2395	0.01686267
85	0xbc614880	-0.0137501955
86	0xbd8e38e6	-0.06944446
87	0xbd8daf1a	-0.069181636
88	0xbd2ee9fd	-0.042703617
89	0xbbbe99a7	-0.0058166566
90	0x3de21287	0.1103869
91	0x3dd61249	0.10452706
92	0x3e030009	0.12792982
93	0x3e1aa151	0.151006
94	0x3e03d2b5	0.12873347
95	0xbc1bdf21	-0.009513647
96	0x3da7bf75	0.081908144
97	0x3e06986f	0.13144086
98	0x3dd12643	0.10212376
99	0xbd8fe1b1	-0.07025469
100	0x3e0e7427	0.13911496
101	0xbd6a6e21	-0.057233933
102	0xbd07de43	-0.03317095
103	0x3da801fc	0.082035035
104	0xbd674e8f	-0.056471404
105	0xbd8a17ce	-0.06742822
106	0x3d9f47f0	0.07777393
107	0xbc96c53f	-0.018404601
108	0x3dac4e20	0.08413339
109	0x3e170514	0.14748031
110	0x3ddacb36	0.10683291
111	0x3d8d074e	0.06886159
112	0xbe64a398	-0.22328031
113	0x3db3680b	0.08760079
114	0x3e10062e	0.14064857
115	0x3d105de8	0.035245806
116	0xbd09fe6d	-0.033689905
117	0xbbd7b412	-0.0065827454
118	0x3e0286c1	0.12746717
119	0xbd9e9c62	-0.077446714
120	0x3dc2e82c	0.095169395
121	0xbdb2cd4d	-0.08730564
122	0x3d8db161	0.06918598
123	0x3dece81e	0.1156771
124	0xbd466e52	-0.048445053
125	0xbe413d80	-0.18871117
126	0x3d947775	0.07249347
127	0xbcd1cc14	-0.025610007
