benchmarks/nd/dim_16/width_64/deg_8_seed_987.pt (torch, 5351 bytes, 2 tensors)

net.centers f4 [64, 16]
00000000: 10ef 613d c96b a2bf d2ec 0ac0 b6af f03f
00000010: 6e8f 8c3f 002f f3bd 6619 b73e 14e8 003f
00000020: 96fa 75bf fc49 823f 8c64 96bf 7c45 913f
00000030: 76e8 703f 8d18 1540 53e6 59bf 7f36 0140
00000040: 3eba bbbf 07aa 41bf 925d 1d40 e07d ae3f
00000050: cb00 183f 4a7a c93f 7a83 12c0 ca93 1cc0
00000060: d27e 923f 32fc 83bf da28 cd3f 70df c53f
00000070: bb34 2bbf c821 17c0 0e69 a8bf d84c d53e
00000080: 6e19 d73e 8c3e 0a3f 2076 1740 a37f b93f
00000090: 6955 873f 24b1 1640 ba40 d0bf e1e1 0c3f
000000a0: 218c 84bf c934 13c0 cc31 0d40 4efe 12c0
000000b0: e85a 553f 3f38 0740 2690 a8be 0469 673f
000000c0: 0fee 8ebf 66ec afbf b517 3fbf f40a f1bf
000000d0: 8978 283f b105 7dbf 3d4a 20bf e80a ee3d
000000e0: 1cac 523e 8784 0fbf 3aa9 c3bf 0ecc 9b3f
000000f0: 98c0 ec3e a1f8 13c0 ec5f 74be 25f6 0e3f
00000100: bbaf f33f 7d34 3c3f 6236 94be 669b b03f
00000110: 0eaa 9a3f 04cd 623e f5c6 27bf 4cb0 0e40
00000120: 10dd e93d c0c3 233e 89df 03c0 fcb4 1840
00000130: fe93 0c40 c026 a5be e9b7 333f 18cd 833d
00000140: 70d5 8cbf 4ce4 ba3f 34c9 54be 8cec 0c40
00000150: ac42 eabf 298e 683f 1e00 f8bf 8417 163f
00000160: 58a4 1640 96f9 cb3f 1201 db3f b49e ed3e
00000170: 68ec 39bf 12bb 1840 e17e 563f 1dc5 f93f
00000180: e880 873f 46e0 1cbf f6c6 fe3f 125c c83f
00000190: 6868 453f b429 2ebe f85d 24bf a094 c8bf
000001a0: 4ed6 413f aaf5 b93f d1bd 543f a243 14c0
000001b0: a4a1 483f 30f1 a13d d07c ab3f e0ca 92bf
000001c0: 2a79 223f d298 e43e 523e ba3f 259f 56bf
000001d0: 5a35 efbf 439e 7f3f 864d f2bf 40a3 503d
000001e0: 5c57 ea3f 6bc0 1d40 44d5 0fc0 d7c6 c03f
000001f0: 0e6c cbbe 9bd5 c53f 0421 0040 c152 06c0
00000200: b2ae 803e 9eff fa3f 4ccf eb3f 1446 5cbe
00000210: 8aaa fcbe 51b4 d6bf 040b 873e af0b 74bf
00000220: 89dc 1a40 7e89 843f 401e 1440 37b9 02bf
00000230: fe21 eebf 00f3 d4be dad0 1ec0 1dea b6bf
00000240: 7984 31bf 0116 4f3f 13bf 07bf 1234 8f3f
00000250: 563d 8a3e 1ff6 eebf 9ba8 0f40 ab93 0e3f
00000260: b47f 373f 1c20 bbbf 54d8 0ec0 fa11 ddbf
00000270: af10 a9bf 9abb e7bf b81c 9ebf 25fc 18c0
00000280: 61f0 adbf 8392 d0bf 2b60 263f a118 8c3f
00000290: 3c47 513f 4d6a a7bf 7a45 a7bf 7ace 8bbf
000002a0: c4ba 463e 9298 06c0 fe26 ba3f 03da 0f40
000002b0: c4ac 0440 0a51 b5bf a6f7 1240 ca18 d13e
000002c0: bdff 35bf 2254 b1bf 7d94 68bf 5038 e2bf
000002d0: e49a d73f 96b4 1140 a404 403f d81d d93f
000002e0: dc5e d3be 1b82 1a40 5b75 893f 527e c7bf
000002f0: ba8d e4be 0a80 543f 70d4 67bf 4286 9bbe
00000300: c088 18bc 5e22 1f40 2de0 12c0 e822 c03f
00000310: 636c c13f ddb1 cabf e232 1340 f0c7 fb3e
00000320: f47d 1240 6bea febf 8367 303f ca01 a9bf
00000330: 52b4 73bf 7495 823f 18a7 1740 a666 16c0
00000340: c0f9 bdbe e4bc 81be b462 543e 00dd bd3e
00000350: f33e cdbf 675f 273f b37f 1540 f035 2cbe
00000360: 90b3 e0bf e426 10bf 3086 85be 91ac e43f
00000370: 3ce3 e13f 63e5 c5bf c766 0b40 e298 4abf
00000380: d207 b2bf 4c76 623f 96bd 09c0 beb1 c43f
00000390: 99cb 05c0 84d0 bbbf 68d9 a4be 747a b9bf
000003a0: aaa3 cfbe 51f2 fc3f 2acd 1240 070c 9c3f
000003b0: a83b 973f be40 0cc0 b27c dc3f aebf 1f40
000003c0: 0cad 1240 58bb 91be 1003 263d 7013 0bbd
000003d0: 0621 303f 0ef0 99bf ef56 f5bf 20fb 9bbf
000003e0: 69ce 6abf b07c cabf e6be c3be 6ecb c2bf
000003f0: 8afc 1f40 f4b2 fd3f 6268 fa3f cf1b 0340
0.05515963 -1.2689143 -2.1707044 1.8803623 1.0981271 -0.11874199 0.35761565 0.50354123
-0.9608549 1.0178828 -1.1749434 1.134933 0.9410471 2.3296235 -0.8511707 2.0189512
-1.4666212 -0.75650066 2.458836 1.3632164 0.5937621 1.5740445 -2.2892747 -2.4465203
1.1444952 -1.0311339 1.6028092 1.5458813 -0.66877335 -2.3614368 -1.315706 0.4166019
0.4201159 0.5400169 2.3665848 1.4492077 1.057294 2.3545618 -1.6269753 0.55032164
-1.0355264 -2.3000968 2.2061644 -2.2967715 0.83341837 2.112808 -0.32922477 0.90394616
-1.11664 -1.3744018 -0.7464555 -1.8831468 0.6580892 -0.9883681 -0.6261328 0.11623174
0.20573467 -0.56061596 -1.5286019 1.2171648 0.46240687 -2.31205 -0.23864716 0.55844337
1.9038004 0.7351759 -0.2894774 1.3797424 1.2083147 0.2214852 -0.6553796 2.2295103
0.114191175 0.15992641 -2.0605185 2.3860464 2.1965327 -0.32256126 0.702025 0.06435603
-1.1002636 1.4600921 -0.20779878 2.2019377 -1.8301597 0.9084192 -1.9375036 0.5862963
2.3537807 1.5935543 1.7109702 0.46410143 -0.7262635 2.3864179 0.8378735 1.9513279
1.0586214 -0.61279714 1.9904468 1.5653098 0.77112436 -0.17008096 -0.64205885 -1.5670357
0.7571763 1.4528096 0.83102137 -2.316628 0.78371644 0.07907331 1.3397465 -1.1468163
0.6346613 0.44647843 1.4550269 -0.83836585 -1.8688157 0.99850863 -1.8929908 0.050936937
1.830791 2.4648693 -2.2473917 1.5060681 -0.39730877 1.5455812 2.002015 -2.098801
0.25133282 1.9609258 1.8422637 -0.21511108 -0.4934886 -1.6773778 0.26375592 -0.9533033
2.4197104 1.0354459 2.3143463 -0.51063865 -1.8604124 -0.41591644 -2.4814973 -1.4290196
-0.6934276 0.8089295 -0.5302593 1.1187766 0.2699992 -1.866886 2.2446659 0.55694073
0.71679235 -1.4619174 -2.2319536 -1.7271111 -1.3208216 -1.8104126 -1.2352514 -2.3903897
-1.3588983 -1.6294712 0.6499049 1.0945016 0.8174932 -1.3079315 -1.3068078 -1.0922387
0.19407183 -2.1030622 1.454315 2.2476814 2.0730448 -1.4165356 2.2963653 0.40839225
-0.7109335 -1.38538 -0.90851575 -1.7673435 1.6844144 2.276647 0.7500708 1.6962233
-0.4128331 2.414191 1.0738939 -1.5585425 -0.4463938 0.8300787 -0.9055853 -0.30375868
-0.0093099475 2.4864726 -2.2949326 1.5010653 1.5111202 -1.583553 2.2999806 0.49175978
2.2889376 -1.9915289 0.68907946 -1.3203671 -0.9519702 1.020186 2.3695736 -2.3500152
-0.37104607 -0.25339425 0.20740777 0.37082672 -1.6034836 0.6537995 2.3359191 -0.1681745
-1.7554798 -0.5630934 -0.2607894 1.7865163 1.7647471 -1.5460628 2.178148 -0.7913953
-1.3908637 0.88461757 -2.1521964 1.5366743 -2.0905516 -1.4673009 -0.32197118 -1.4490495
-0.40554553 1.9761449 2.2937722 1.219117 1.1815081 -2.1914515 1.7225554 2.4960742
2.291812 -0.28463244 0.040530264 -0.033954084 0.6880039 -1.2026384 -1.9167155 -1.2186012
-0.91721207 -1.5819302 -0.3823158 -1.5218332 2.4997888 1.9820237 1.9563105 2.0485723

net.bias f4 [64]
00000000: d008 6ebc 78c8 aa3d aaaa 23bd 30ef 96bc
00000010: db20 7e3c e981 883c 6303 7c3d 8a3f 733c
00000020: ff7e 6a3d 0a75 89bd a753 463e 84a0 a53d
00000030: 7f91 a9bd 35f3 f33b f412 39be 084f d7bc
00000040: 53cf 0b3e 3f0e 40bc 4eee 86bd ea16 3d3e
00000050: ed33 40be 4f53 873c 6197 a13d b00c 113e
00000060: 8a5f 97bd 42ca f63c eb82 30be d550 9bbb
00000070: cff3 f8bd aff1 0c3e 439c c2bc b319 ee3d
00000080: b03a 02be 4dfa d43c faef d13c ebdc e9bd
00000090: 8820 efbc f047 a13d 03e4 763d 2ab3 8cbe
000000a0: 89fc babb 62a5 ce3d 351a 14bd e7a9 463e
000000b0: 35b8 d7bd 4b4b 2fbe 2f3e 623d 0221 253d
000000c0: 04aa 0dbe c322 4bbc 5d23 533e 88f3 1d3e
000000d0: 40e6 85bd 335f 363d d231 af3d 5081 7fbd
000000e0: 4b39 7cbd d021 94bd aab9 e7bc 1bc9 fe3d
000000f0: 0073 f4bd 08e8 5a3c 0f81 f5bb f217 133e
-0.014528468 0.08339018 -0.03995768 -0.0184246 0.015510763 0.016663508 0.061526667 0.014846692
0.05725002 -0.067117766 0.19367848 0.080872566 -0.08279704 0.007444764 -0.18073636 -0.026282802
0.13653307 -0.0117221465 -0.06588422 0.18465772 -0.18769808 0.016519217 0.07890201 0.14164996
-0.073912695 0.03012574 -0.17237441 -0.0047398605 -0.12155878 0.1376407 -0.023756152 0.116259955
-0.127177 0.025998259 0.025627125 -0.1141909 -0.029190317 0.07875049 0.060276043 -0.2748044
-0.005706374 0.10090138 -0.036157805 0.1940075 -0.105331816 -0.17118566 0.055235084 0.04031468
-0.13834387 -0.012398425 0.20618959 0.15424931 -0.06538057 0.044524383 0.08554424 -0.06237918
-0.061578076 -0.07233012 -0.028286774 0.124407016 -0.11935997 0.013360985 -0.0074921916 0.14364603
