benchmarks/nd/dim_128/width_64/deg_8_seed_987.pt (torch, 34023 bytes, 2 tensors)

net.centers f4 [64, 128]
0	0x3fd997fc	1.6999507
1	0xbf72f68e	-0.9490746
2	0xbf0300c7	-0.5117306
3	0xbf95a8a0	-1.1692085
4	0x3f0ce051	0.5502978
5	0x3fc4a182	1.5361788
6	0x3fd5ffb8	1.6718664
7	0x3fad5714	1.3542199
8	0x3ff1ef55	1.8901163
9	0xbf4beeea	-0.7966143
10	0xbf389778	-0.7210612
11	0x3f6364bc	0.88825583
12	0x40141fed	2.3144486
13	0x4009cf8e	2.1532931
14	0xbfdf9625	-1.7467695
15	0x401ef873	2.4839141
16	0xbeb37a2c	-0.35054147
17	0xc01ea594	-2.478856
18	0xbfa829f4	-1.3137803
19	0x3e378798	0.17922819
20	0x40066663	2.0999992
21	0x3f07ac35	0.5299714
22	0xbf9d51d4	-1.2290597
23	0x3f881efc	1.0634456
24	0xbfb097f6	-1.3796375
25	0xbf20dc73	-0.6283638
26	0x3e8783d6	0.2646777
27	0x3f98582a	1.1901906
28	0xbe85517e	-0.26038736
29	0x3fa0bbd0	1.2557316
30	0xc014a871	-2.3227808
31	0x3f7cb147	0.98708004
32	0x3fb012a6	1.3755691
33	0x4003e649	2.0609305
34	0xc0033bfe	-2.0505366
35	0x3f7e70fe	0.9939116
36	0xc01661e0	-2.3497238
37	0xbfeecf26	-1.8656967
38	0xc0049152	-2.0713696
39	0xbf47a1ff	-0.7798156
40	0xbf190f1b	-0.59788674
41	0x3fbbb0c0	1.4663315
42	0x3d387180	0.045030117
43	0x4004e611	2.0765421
44	0xbfd3e0e6	-1.6553009
45	0xbff2dfda	-1.8974564
46	0x3fc35336	1.5259769
47	0xc01fdd74	-2.4978914
48	0x3eebb590	0.4603696
49	0xbf78fa2f	-0.9725675
50	0x3f981518	1.1881437
51	0x3f0849fb	0.53237885
52	0xbfde756f	-1.7379588
53	0x3fdb305a	1.7124131
54	0x3fc4beac	1.5370688
55	0x3fed4534	1.8536744
56	0xbfb4b220	-1.411686
57	0xbf5152f4	-0.817672
58	0x400d065d	2.2035134
59	0xbf9f444c	-1.2442718
60	0xbfb6c22a	-1.4278004
61	0x3fb462fc	1.4092708
62	0x3e164b50	0.14677167
63	0x3fdb1c08	1.711793
64	0xbc4f5bc0	-0.012656152
65	0x4018335d	2.378135
66	0x3f4fa729	0.8111444
67	0xbf366f5c	-0.7126367
68	0xbfc2599a	-1.5183594
69	0x3f1b35f7	0.6062922
70	0xbf4db022	-0.8034688
71	0xbe320d40	-0.17387867
72	0x3fccbb38	1.5994635
73	0x3f35d83a	0.7103306
74	0x3f18724f	0.5954942
75	0x3ebef62c	0.3729719
76	0x3fb6f657	1.4293927
77	0xbff5292a	-1.9153187
78	0xbea0c742	-0.31402022
79	0x3f97f150	1.1870518
80	0x3f49fbad	0.7889965
81	0xbfb89b83	-1.4422458
82	0x3e024358	0.12721002
83	0xc015f3f6	-2.3430152
84	0x3ee0e322	0.4392329
85	0xc01a69b5	-2.4127018
86	0xc01cc1d0	-2.4493294
87	0xbf978c22	-1.183964
88	0xc013d91b	-2.310126
89	0xbf6abc85	-0.9169391
90	0x3fc75c7c	1.5575099
91	0xbff95907	-1.9480294
92	0xbe037034	-0.12835771
93	0x3f07b739	0.5301395
94	0xbfb01db6	-1.3759067
95	0xbf8ac9c6	-1.0842826
96	0x3fd274ca	1.6441891
97	0xbfef641a	-1.8702424
98	0xbfe38eec	-1.7777991
99	0xbfbeef40	-1.4916763
100	0xbfd690c5	-1.676293
101	0xbe2e1f00	-0.17004013
102	0x400092b2	2.0089536
103	0x3f8c047e	1.0938871
104	0xbfb94842	-1.4475176
105	0xbb423800	-0.002963543
106	0xbec3288c	-0.38116872
107	0xbd68f5d0	-0.05687505
108	0x401c95e5	2.4466488
109	0xc001a958	-2.025961
110	0xbe35e58c	-0.17763346
111	0xbf8d0be2	-1.1019251
112	0xbf251d0b	-0.6449744
113	0x3fd04438	1.6270819
114	0x3fdd6a26	1.7298019
115	0x3ff07564	1.8785825
116	0x3fbf3266	1.4937255
117	0x401e6d03	2.4754035
118	0xbf194314	-0.5986798
119	0xbfe748e0	-1.8069115
120	0x40186425	2.3811123
121	0x3fe53f7b	1.7909998
122	0x3f840ddc	1.031673
123	0x3f56f830	0.83972454
124	0xbf309bd6	-0.68987787
125	0xc01f98a4	-2.4936914
126	0xbfa7eb10	-1.311861
127	0xbf02e2bd	-0.51127225
128	0xbfbd34db	-1.4781755
129	0x3fd68701	1.675995
130	0xbfae0d42	-1.3597796
131	0x3f9fed74	1.249434
132	0xbe73e8c8	-0.23819268
133	0x3ee0f4f2	0.43936878
134	0xc01cf462	-2.452416
135	0xbfc07d1c	-1.503818
136	0x3e7af190	0.24506211
137	0x3fe5847e	1.7931058
138	0x3f793409	0.97345024
139	0xbf3e11f8	-0.7424617
140	0x3c1be100	0.009514093
141	0xbea3d022	-0.3199473
142	0x3e584fc8	0.21124184
143	0x3d6d1660	0.057882667
144	0x3efb99e2	0.4914084
145	0xbf5047ec	-0.81359744
146	0xbf84da0a	-1.037904
147	0x3f36c3e4	0.71392655
148	0xbdfd7708	-0.12376219
149	0xc0191c8e	-2.3923678
150	0x3fc867d2	1.5656683
151	0xbfec34bb	-1.8453592
152	0x3fc40862	1.5315058
153	0x3f9cbb8e	1.2244737
154	0x3fb61ac8	1.4226923
155	0xbefaa26c	-0.48952043
156	0xbe20c558	-0.1570028
157	0x3fdb61d6	1.7139232
158	0xbc778f00	-0.015109777
159	0x401414b2	2.3137631
160	0xc002e0e6	-2.0449767
161	0x3f3a24f8	0.7271266
162	0xc003d82c	-2.060069
163	0xbd6750e0	-0.056473613
164	0xc0080347	-2.1252
165	0xbffce098	-1.975604
166	0x3f4925b1	0.7857314
167	0x3f23b33a	0.63945353
168	0x3f9f8a12	1.2464011
169	0x3d9ed888	0.07756144
170	0x3f9233ad	1.142202
171	0x401fa0a8	2.4941807
172	0xc018e37d	-2.3888848
173	0x3e896412	0.2683416
174	0x3f8edb68	1.1160707
175	0xbebbd550	-0.36686182
176	0x40147daa	2.32017
177	0xbfce73c2	-1.6129076
178	0x3fb2739d	1.3941532
179	0x3ecfd2ee	0.40590614
180	0xbff32ee2	-1.8998682
181	0xc01b3f2c	-2.4257307
182	0x3ff10656	1.8830059
183	0x3fbd14d6	1.4771984
184	0xbfd2e01f	-1.6474646
185	0xbf86ff58	-1.0546675
186	0xbf91b340	-1.1382828
187	0xbffe05ec	-1.9845557
188	0x40158e0d	2.336795
189	0x3eb3b0c8	0.3509581
190	0xbfb90788	-1.4455423
191	0x3e82df48	0.25560975
192	0xc016906f	-2.3525655
193	0xbfa19f87	-1.2626809
194	0x400e0664	2.21914
195	0xc001e1b8	-2.0294018
196	0xbec80dde	-0.3907308
197	0xc01450e2	-2.3174367
198	0xbff7db34	-1.936377
199	0x3fabb300	1.3414001
200	0x3e9bff0a	0.30468017
201	0xbf5f1790	-0.8714533
202	0x3ea1a2e8	0.315696
203	0x3f19bbe6	0.60052335
204	0xbe858644	-0.26079
205	0xbfb211d4	-1.3911691
206	0xbfdc0c50	-1.7191257
207	0xc002545a	-2.0363984
208	0x3f073449	0.52814156
209	0xbf80b5fb	-1.0055536
210	0xbff1e5b6	-1.8898227
211	0xc018febe	-2.3905482
212	0x3d2816a0	0.041037202
213	0xbfff4a29	-1.9944507
214	0xbec592f2	-0.38588673
215	0x3ea96104	0.3308183
216	0xc01c7636	-2.444715
217	0xbfadd68c	-1.35811
218	0x3f81aac6	1.0130241
219	0xbefacb84	-0.48983395
220	0xbdbc11f0	-0.09183109
221	0x3ff4c54a	1.9122708
222	0x3ec4d7b8	0.3844583
223	0xbf8b9f3c	-1.090797
224	0xbfa52172	-1.2900832
225	0x3eee39be	0.4652843
226	0xbf9314a3	-1.1490673
227	0x3fb21f9e	1.3915899
228	0xbf72f431	-0.94903857
229	0xbd737960	-0.059441924
230	0xbe9ecf14	-0.31017363
231	0x3ed0a822	0.40753275
232	0xbfa26612	-1.2687399
233	0x3fa6e2c4	1.3037953
234	0xbf94362e	-1.1579034
235	0x3ffb3155	1.962443
236	0xbef4a7d6	-0.477843
237	0xbfaec4c8	-1.3653803
238	0x3e858964	0.26081383
239	0xbff5a5a5	-1.9191176
240	0x3fd9b488	1.7008219
241	0x3ee1943e	0.44058412
242	0xbf9b1a24	-1.2117352
243	0xbef63f92	-0.48095375
244	0xc016d759	-2.3568938
245	0x3eec1012	0.4610601
246	0x3f070c67	0.527533
247	0xbf669934	-0.9007752
248	0x3e5db6e8	0.21651804
249	0xbfae2455	-1.3604838
250	0x3ff949fa	1.9475701
251	0x3f51be9c	0.8193147
252	0xc01c8b2e	-2.4459949
253	0xbf26851f	-0.65046877
254	0x3fa19250	1.2622776
255	0x3f2e24aa	0.68024695

net.bias f4 [64]
0	0xbcf7bb9a	-0.030240823
1	0xbd780440	-0.060550928
2	0xbd39be48	-0.045347482
3	0xbd3bfb3b	-0.04589389
4	0x3ce875fd	0.028376574
5	0xbc221ddb	-0.009894813
6	0xbdeed398	-0.11661452
7	0x3e1d1057	0.15338264
8	0xbe171243	-0.1475306
9	0x3e4c243c	0.19935697
10	0xbde51b32	-0.11186828
11	0xbd0315c3	-0.032003175
12	0xbcd6d7f3	-0.02622602
13	0x3d7adea3	0.06124748
14	0x3b8c818a	0.004287903
15	0x3d2ad6c1	0.04170871
16	0xbb9b8ccb	-0.0047470084
17	0xbd19bb89	-0.037532363
18	0xbdab897d	-0.08375833
19	0x3d0e8a09	0.03479961
20	0x3ca29330	0.019845575
21	0x3e1acd03	0.15117268
22	0x3ded8e38	0.11599392
23	0x3db9237c	0.09039971
24	0x3d7196c3	0.05898167
25	0x3c13800d	0.009002698
26	0xbd991fdf	-0.07476782
27	0xbbe639ba	-0.0070259245
28	0x3d804b47	0.06264358
29	0x3cee7850	0.029110104
30	0xbdfcbec2	-0.12341072
31	0x3dd0ede2	0.102016225
32	0xbcb284bf	-0.021791814
33	0x3cf5da15	0.030011216
34	0x3da81087	0.08206277
35	0xbe297a11	-0.16550471
36	0xbdd0499b	-0.10170289
37	0xbd72bb42	-0.059260614
38	0x3da20ff7	0.07913201
39	0x3e0d9b5d	0.13828798
40	0x3e41fe54	0.18944675
41	0x3dbd77db	0.09251376
42	0xbd6f2fab	-0.05839507
43	0x3d53b3f3	0.051685285
44	0xbb8afc14	-0.004241476
45	0xbbb02a88	-0.005376164
46	0xbe03e607	-0.12880717
47	0xbcb70978	-0.022343382
48	0x3cbd8604	0.023135193
49	0x3c06ceff	0.008228063
50	0xbd7c795a	-0.061639167
51	0x3dd8a668	0.105786145
52	0xbd420723	-0.047370087
53	0x3cfcd4a0	0.030863106
54	0x3e47bf4e	0.1950657
55	0x3ceb4135	0.028717617
56	0xbcc3868b	-0.023867866
57	0x3e047fef	0.12939428
58	0x3c2198f6	0.009863129
59	0x3e834eb2	0.25645977
60	0xbe28e250	-0.16492581
61	0x3da0db27	0.078543
62	0x3d0a0213	0.033693384
63	0x39ad07e5	0.00033003013
