benchmarks/nd/dim_8/width_64/deg_8_seed_987.pt (torch, 3303 bytes, 2 tensors)

net.centers f4 [64, 8]
-2.3022275 -1.7139449 -1.6030496 1.9292653 1.1818256 -0.71394265 1.3234963 -1.1070651
-1.5473161 -1.548577 0.36586672 0.24572462 1.4739659 2.068466 -0.30346036 0.11909962
1.5189767 -0.28417587 -0.05442202 -1.1383352 -0.17298937 0.40103495 -1.4624172 -0.42474985
-0.8110112 -1.5526158 0.3750196 -0.51706105 -2.1585784 -1.739758 0.6457871 0.5999848
0.57982475 -0.055590868 -0.03184676 1.8980861 1.9749882 -0.1450178 -0.6796649 -1.9881111
0.44156313 0.288212 -2.2459579 -1.9458109 -2.2510295 -1.3569134 -0.7305482 -2.390781
-1.8341708 1.6786766 0.8785218 0.3621173 2.490233 -0.20122558 1.311245 0.9776202
-1.4454255 0.30739486 1.0302064 -0.5510801 0.90789884 1.9345269 2.331195 -1.5650558
-0.06839454 -1.3757167 1.5877855 2.1922717 -2.0843318 -1.9126928 -1.046434 2.29866
0.54843396 0.1871106 -2.416956 0.9548789 -1.4366617 -1.0749209 1.5457056 -0.8081892
-0.16034007 -0.95673203 0.7507828 0.8229533 0.78797877 -1.7218485 -1.3962704 1.9924331
-0.30824512 0.7534638 -0.6757593 0.35570562 -0.5266547 -1.2858126 1.745719 -1.1745137
2.3390331 1.9158226 2.1728673 -1.1050799 1.4831343 -0.6267518 -1.7452297 0.3319165
-0.5190462 -0.28986245 2.171372 1.9286666 1.9473848 -1.2359959 -0.43907017 0.45048743
0.67855537 -2.3280475 2.3212047 0.9704137 0.6096333 -1.7829845 0.51896334 1.7739892
2.3299642 2.1748676 1.1522338 -1.3793621 -1.8952167 1.7379775 -1.7680722 1.9194496
2.1398516 -2.2970893 0.25745183 -2.4019995 -2.360809 -2.176595 -1.4678082 1.2038622
-0.70453763 1.7585993 -1.5215585 0.07625252 1.9311819 1.6352016 -2.2500875 -1.8734157
0.8193183 1.9865245 2.3718772 -1.5309951 0.82776695 1.6713285 2.4871135 0.5688998
0.09700477 -0.24506241 -2.3674111 -0.5004552 -0.15210867 1.6281984 -1.789701 -2.2471664
0.9223747 -0.3170818 0.9367925 1.0357144 -2.2705631 2.4961305 0.549058 -0.2778852
2.3222387 -0.8361882 -0.84495664 -2.0322318 2.2190013 1.331279 1.5449554 1.1926287
1.0177209 -2.4948053 -1.0307643 -1.3991946 -1.3842914 0.05303383 1.2934196 -0.9577325
-0.6484023 0.4144433 2.3669207 0.5876583 1.4058771 -0.37075877 1.1416215 -1.2973988
-0.1691407 1.7484751 0.21861792 -1.5319967 0.5769238 1.0359854 -1.1895504 1.6333264
0.6257564 0.5038479 -0.42221367 1.2006984 -2.05946 1.6329727 -1.1339929 0.3285563
1.5039792 -1.4073732 2.151999 1.5962017 1.1074338 1.9148207 1.1419398 1.8577733
0.15727788 -1.2813145 -1.7554626 -1.5079691 2.2679138 -1.3923516 1.6259196 -0.99216014
0.14477521 -1.7659757 -0.6158039 0.9753445 0.8393544 1.0030422 -0.70533127 0.17185509
-1.6699123 2.2696612 -2.1974344 -0.74347556 -1.9095635 1.3708752 -0.3757128 0.06311178
-2.2458434 1.0309345 0.49450576 -1.7868528 -0.68939954 -0.13215274 -1.1766579 2.4933052
-0.36177158 0.6178713 -2.169361 -0.191966 2.469986 1.5673885 -0.20858556 -1.1224415
00000000: b257 13c0 8c62 dbbf bb30 cdbf 2af2 f63f
00000010: 1046 973f f2c4 36bf 5468 a93f 4fb4 8dbf
00000020: 740e c6bf c537 c6bf e252 bb3e 3c9f 7b3e
00000030: eaaa bc3f bf61 0440 285f 9bbe 80ea f33d
00000040: d46d c23f 807f 91be a0e9 5ebd f8b4 91bf
00000050: 2024 31be 7454 cd3e 7d30 bbbf d078 d9be
00000060: 6e9e 4fbf 1dbc c6bf 9202 c03e 1d5e 04bf
00000070: 2626 0ac0 64b0 debf 4e52 253f 9b98 193f
00000080: 656f 143f 40b3 63bd c071 02bd 7cf4 f23f
00000090: 6acc fc3f 8c7f 14be 85fe 2dbf 6d7a febf
000000a0: 9014 e23e 8690 933e c6bd 0fc0 5510 f9bf
000000b0: de10 10c0 57af adbf 3505 3bbf 8e02 19c0
000000c0: 1cc6 eabf e0de d63f cee6 603f 7067 b93e
000000d0: fa5f 1f40 140e 4ebe e0d6 a73f 5145 7a3f
000000e0: b403 b9bf dc62 9d3e cedd 833f 9613 0dbf
000000f0: 0f6c 683f 949e f73f 4d32 1540 c053 c8bf
00000100: 7012 8cbd 7c17 b0bf 8e3c cb3f 2e4e 0c40
00000110: b165 05c0 1ed3 f4bf 8df1 85bf 3f1d 1340
00000120: 2b66 0c3f ec99 3f3e 68af 1ac0 f272 743f
00000130: 88e4 b7bf 0297 89bf aed9 c53f 7de5 4ebf
00000140: 3030 24be 64ec 74bf 4d33 403f 11ad 523f
00000150: fab8 493f 8865 dcbf fdb8 b2bf 0c08 ff3f
00000160: 4ed2 9dbe 01e3 403f 90fe 2cbf 0c1f b63e
00000170: d8d2 06bf 8295 a4bf b873 df3f 7756 96bf
00000180: b8b2 1540 ad39 f53f 4210 0b40 4273 8dbf
00000190: 58d7 bd3f ce72 20bf b063 dfbf f6f0 a93e
000001a0: 36e0 04bf da68 94be c2f7 0a40 8cde f63f
000001b0: e843 f93f 1d35 9ebf cecd e0be 4aa6 e63e
000001c0: ceb5 2d3f bbfe 14c0 9e8e 1440 086d 783f
000001d0: ee10 1c3f d638 e4bf c8da 043f 1412 e33f
000001e0: 221e 1540 0831 0b40 667c 933f f08e b0bf
000001f0: 7696 f2bf 0c76 de3f 3150 e2bf 86b0 f53f
00000200: 54f3 0840 8303 13c0 bad0 833e 5cba 19c0
00000210: 7f17 17c0 554d 0bc0 24e1 bbbf 2818 9a3f
00000220: 945c 34bf c819 e13f 6ec2 c2bf 482a 9c3d
00000230: f830 f73f 494e d13f 6f01 10c0 16cc efbf
00000240: d8be 513f 6f46 fe3f d6cc 1740 a6f7 c3bf
00000250: 89e8 533f 18ee d53f de2c 1f40 6ba3 113f
00000260: 70aa c63d a4f1 7abe aa83 17c0 d51d 00bf
00000270: 60c2 1bbe ce68 d03f ec14 e5bf 93d1 0fc0
00000280: c020 6c3f 8c58 a2be a2d1 6f3f 4a92 843f
00000290: e850 11c0 9ac0 1f40 118f 0c3f f846 8ebe
000002a0: 8f9f 1440 6e10 56bf 144f 58bf 1610 02c0
000002b0: 1e04 0e40 5a67 aa3f 19c1 c53f 0fa8 983f
000002c0: ae44 823f e4aa 1fc0 16f0 83bf cf18 b3bf
000002d0: 7630 b1bf 003a 593d c68e a53f f52d 75bf
000002e0: b1fd 25bf ea31 d43e a17b 1740 c670 163f
000002f0: c8f3 b33f 18d4 bdbe a720 923f 2a11 a6bf
00000300: 3833 2dbe 08ce df3f 60dd 5f3e 7818 c4bf
00000310: 47b1 133f 2b9b 843f 3043 98bf d710 d13f
00000320: 9231 203f 2dfc 003f 642c d8be 7cb0 993f
00000330: 31ce 03c0 4005 d13f ae26 91bf 8838 a83e
00000340: 6482 c03f ce24 b4bf 5aba 0940 5650 cc3f
00000350: 64c0 8d3f d818 f53f 152b 923f 84cb ed3f
00000360: 740d 213e 1d02 a4bf 00b3 e0bf 2205 c1bf
00000370: 8025 1140 9438 b2bf 221e d03f 35fe 7dbf
00000380: f43f 143e 7e0b e2bf 53a5 1dbf 2db0 793f
00000390: eedf 563f b063 803f 9790 34bf c8fa 2f3e
000003a0: b0bf d5bf 2142 1140 c4a2 0cc0 6a54 3ebf
000003b0: 946c f4bf d778 af3f 6e5d c0be c040 813d
000003c0: e6bb 0fc0 a9f5 833f dc2f fd3e 98b7 e4bf
000003d0: 7d7c 30bf 0c53 07be ba9c 96bf 5092 1f40
000003e0: 203a b9be d02c 1e3f d0d6 0ac0 bc92 44be
000003f0: 4014 1e40 30a0 c83f 7497 55be 2aac 8fbf

net.bias f4 [64]
-0.04251423 -0.021621278 -0.003476423 -0.029446429 -0.060371466 0.11113484 -0.06255333 0.11149036
0.111811005 -0.07201069 0.03674881 -0.20222282 -0.14760712 -0.02416451 0.11418166 -0.07701403
-0.008995384 -0.025149772 0.13290666 0.06253188 -0.092651635 0.18087302 0.0024202934 -0.0127011165
-0.067450345 0.08912454 -0.27987224 -0.1603573 0.1034495 0.03181648 0.029245874 -0.007331615
-0.035266247 0.13256223 0.25106618 0.17090043 -0.07881805 0.23511791 -0.056723934 -0.057818443
0.12766679 0.03401902 -0.097161286 0.04461963 -0.13655059 -0.124372005 0.024905002 -0.12446886
-0.07781024 -0.054418474 0.031877123 -0.002116843 -0.11812935 0.08249756 -0.092591025 -0.09295633
-0.02057709 0.046255402 0.08730024 -0.051273186 -0.0775767 0.019855242 0.028630886 -0.07857625
00000000: 6723 2ebd 1b1f b1bc b3d4 63bb a339 f1bc
00000010: 1248 77bd aa9a e33d f61b 80bd 0f55 e43d
00000020: 2bfd e43d 577a 93bd ec85 163d 8013 4fbe
00000030: 5226 17be a7f4 c5bc 13d8 e93d 88b9 9dbd
00000040: 6061 13bc e506 cebc af18 083e b710 803d
00000050: 24c0 bdbd c736 393e c99d 1e3b 5818 50bc
00000060: 6823 8abd ed86 b63d 6a4b 8fbe b434 24be
00000070: 55dd d33d ff51 023d 0b95 ef3c 0b3e f0bb
00000080: 5773 10bd 65be 073e bf8b 803e 8600 2f3e
00000090: 5c6b a1bd c0c2 703e 5b57 68bd 08d3 6cbd
000000a0: 15bb 023e 8757 0b3d 7ffc c6bd 13c3 363d
000000b0: ebd3 0bbe c0b6 febd 9305 cc3c 88e9 febd
000000c0: fa5a 9fbd e8e5 5ebd 9691 023d bbba 0abb
000000d0: cded f1bd 7bf4 a83d 5da0 bdbd e35f bebd
000000e0: 4991 a8bc 4e76 3d3d 78ca b23d d503 52bd
000000f0: 88e0 9ebd 76a7 a23c 528b ea3c 96ec a0bd
