checkpoints/nd/dim_2/width_8/method_sn-gan.pt (torch, 73665 bytes, 10 tensors)

net.0.module.bias f4 [128]
0	0xbf062062	-0.5239316
1	0x3f195aea	0.5990435
2	0x3dfac1f0	0.12244022
3	0xbe0feef2	-0.14055994
4	0xbf2bec30	-0.6715727
5	0xbf15cc91	-0.5851527
6	0x3dba8c7a	0.09108825
7	0x3e0c1964	0.13681561
8	0x3f1324a3	0.5747778
9	0x3f07233e	0.5278815
10	0x3f1eed79	0.62081105
11	0x3f3f9f93	0.74852866
12	0x3e2f5044	0.17120463
13	0x3e4c39e9	0.19943966
14	0xbe1037bf	-0.14083765
15	0x3f0c9c82	0.5492631
16	0xbdd69b5f	-0.104788534
17	0xbe87ec79	-0.26547602
18	0x3f05567c	0.5208509
19	0xbf07324c	-0.5281112
20	0x3f3cae17	0.7370314
21	0xbf1f70ab	-0.6228129
22	0x3eb20298	0.34767604
23	0x3ed58190	0.4170041
24	0x3ecddea6	0.4020893
25	0x3eda4571	0.42631105
26	0x3f3086c2	0.68955624
27	0x3dee767d	0.116436936
28	0x3dac955e	0.08426927
29	0x3eb4cc6c	0.35312212
30	0xbd43e397	-0.04782447
31	0x3e0a6871	0.13516404
32	0x3e30b549	0.17256655
33	0xbf2bcfb7	-0.6711382
34	0xbea5d100	-0.32386017
35	0x3f2d3d72	0.67671883
36	0x3ee6e68e	0.45097774
37	0xbd1c0074	-0.03808637
38	0x3ed72f6d	0.4202837
39	0x3f5d6f92	0.8649837
40	0xbd686bc1	-0.056743387
41	0xbf2e4bc6	-0.6808437
42	0xbf33d78a	-0.7025076
43	0x3f2d9be7	0.67816013
44	0x3e17a3c5	0.14808567
45	0xbf189970	-0.5960913
46	0xbdd546ff	-0.10413932
47	0x3de8f431	0.11374701
48	0xbe0299f3	-0.1275404
49	0x3dc75618	0.09733218
50	0x3e10eb4a	0.14152256
51	0xbd469cee	-0.048489504
52	0xbe92a838	-0.28643966
53	0x3edfc686	0.4370615
54	0x3df7282e	0.120682105
55	0x3f186c58	0.5954032
56	0xbd79bc6d	-0.060970712
57	0xbdd30828	-0.1030429
58	0x3e00d959	0.12582912
59	0x3eee11f1	0.46498063
60	0x3eaa52ed	0.33266392
61	0x3ea5d658	0.32390094
62	0xbe7a2f80	-0.24432182
63	0xbedba2f4	-0.4289776
64	0x3ec6a4bc	0.38797557
65	0x3f363739	0.71178013
66	0xbdd9f30c	-0.10642061
67	0x3dd45db1	0.10369433
68	0x3e5014ec	0.20320481
69	0xbf00c75b	-0.5030419
70	0xbd58e2f2	-0.052950807
71	0xbed332fc	-0.41249835
72	0x3e98f0a5	0.29871097
73	0x3e2d3f75	0.16918738
74	0xbd70d052	-0.05879242
75	0x3f3eeb38	0.74577665
76	0x3eff1cc0	0.49826622
77	0xbd646209	-0.055757556
78	0x3f19d57c	0.60091376
79	0x3e6d018e	0.23145124
80	0xbe5b4b19	-0.21415366
81	0xbede8f4e	-0.43468708
82	0x3f0c6de0	0.54855156
83	0xbd3607fa	-0.0444412
84	0x3f243f80	0.64159393
85	0xbf0dae64	-0.55344224
86	0xbef5e938	-0.48029494
87	0x3f02aac9	0.5104185
88	0xbd00d5ad	-0.031453777
89	0x3ee68bbf	0.45028493
90	0xbd5d88c2	-0.0540855
91	0x3f45d6de	0.77280986
92	0xbea1e28e	-0.3161816
93	0xbe3ba6a7	-0.18325292
94	0x3cb1bbfe	0.021696087
95	0xbe7be774	-0.24600011
96	0xbddbe587	-0.10737138
97	0x3db28ebe	0.08718632
98	0xbd43cb18	-0.047801107
99	0xbdb0a597	-0.08625334
100	0x3e43ac82	0.19108775
101	0x3eec7ac0	0.461874
102	0x3f45f610	0.77328587
103	0xbcee0d5e	-0.029059108
104	0xbebaef08	-0.3651049
105	0xbd7193e0	-0.058978915
106	0xbdbd98e6	-0.09257679
107	0x3efb0495	0.49026933
108	0xbf2e6432	-0.68121636
109	0x3ef5d417	0.48013374
110	0x3f47f979	0.7811504
111	0xbedb31bd	-0.42811385
112	0xbf103fb1	-0.56347185
113	0x3ec56452	0.385531
114	0x3f03d162	0.5149137
115	0x3f177b26	0.59172285
116	0xbefcc2ff	-0.4936752
117	0x3e531b27	0.20615827
118	0x3e4f075a	0.20217648
119	0x3dd50fea	0.10403426
120	0x3e0800fb	0.13281624
121	0xbf340180	-0.7031479
122	0x3de417cf	0.11137354
123	0xbe75dd8a	-0.24010292
124	0xbe3d3218	-0.1847614
125	0xbdb9d7a5	-0.09074334
126	0x3e83914f	0.256968
127	0x3ec19f15	0.37816682

net.0.module.weight_u f4 [128]
0	0x3d10210f	0.035187777
1	0xbddd38fd	-0.10801885
2	0x3e106326	0.14100322
3	0xbd68d5ca	-0.05684451
4	0x3d708ae1	0.058726195
5	0x3ca1202c	0.019668661
6	0x3e00af29	0.12566818
7	0x3deff28d	0.11716185
8	0x3dd0c386	0.10193543
9	0xbd7bccc9	-0.061474595
10	0xbceabfd7	-0.02865593
11	0x3dba9a9b	0.0911152
12	0x3dc1341a	0.09433766
13	0x3d94f86c	0.07273945
14	0x3d1d7db2	0.03844995
15	0xbd8a9a73	-0.0676774
16	0x3d876717	0.0661146
17	0x3cd20c7c	0.025640719
18	0xbe02715c	-0.12738556
19	0x3cd17af3	0.025571322
20	0x3def4cfd	0.11684606
21	0xbc8b019f	-0.016968546
22	0xbdd7ac05	-0.10530857
23	0xbdf22ddb	-0.118251525
24	0xbdf72cc2	-0.12069084
25	0xbdd8a93d	-0.10579155
26	0x3df1d24a	0.118076876
27	0xbe01ac01	-0.1266327
28	0x3dfa8891	0.12233079
29	0xbdc35c1d	-0.095390536
30	0x3cca204b	0.024673602
31	0x3dfe181f	0.124069445
32	0x3dc4d923	0.09611728
33	0x3ccfd9d0	0.025372416
34	0xbb2e1668	-0.0026563648
35	0xbdb3b93f	-0.08775567
36	0xbdbe558f	-0.09293663
37	0x3c6d55bb	0.014485772
38	0x3de763bb	0.11298319
39	0x3db5ab7a	0.08870597
40	0x3d4a5a34	0.04940243
41	0xbcc09b86	-0.02351166
42	0x3d3c0215	0.045900423
43	0xbd910a22	-0.07082011
44	0x3da569e1	0.080768354
45	0x3d4e75d7	0.05040535
46	0x3d86904d	0.06570492
47	0xbdfe2af6	-0.12410538
48	0xbdaa966d	-0.08329473
49	0x3e1449fd	0.1448135
50	0x3d9dcbfe	0.07704924
51	0x3cb6d6fc	0.02231931
52	0x3c644e37	0.0139346635
53	0xbe06b12b	-0.13153522
54	0x3dd7d288	0.105382025
55	0x3ddd9240	0.108189106
56	0x3d596bc4	0.05308129
57	0x3d852a24	0.06502178
58	0x3d4cb164	0.04997386
59	0xbe0775d2	-0.13228539
60	0xbdd4e8f3	-0.10395994
61	0x3da67993	0.08128657
62	0xbbcea4c6	-0.0063062636
63	0x3cb9f192	0.022698198
64	0xbde79667	-0.11307984
65	0x3deb00fc	0.11474797
66	0x3da89882	0.082322136
67	0xbde8fed9	-0.11376733
68	0x3dd41be4	0.10356882
69	0xbd187e4c	-0.03722982
70	0x3cdaea48	0.026723042
71	0x3ce2879c	0.027652554
72	0xbdbe4c6a	-0.092919186
73	0x3dc13f87	0.09435945
74	0x3d51ac2d	0.05118959
75	0xbdbec689	-0.09315211
76	0x3dfbcf59	0.12295408
77	0x3d47bdc0	0.048764944
78	0x3e0bbe4a	0.13646808
79	0x3dec34b1	0.115334876
80	0xbdde0c12	-0.10842146
81	0xbd1337a7	-0.035941746
82	0xbe1b79e7	-0.15183221
83	0x3cb38281	0.021912815
84	0xbdef4838	-0.116836965
85	0x3c61c263	0.013779256
86	0xbd2f6a71	-0.04282612
87	0xbdeb40ae	-0.11486946
88	0xbd76f0d1	-0.060288254
89	0xbdb8c992	-0.090228215
90	0x3d40e129	0.04708973
91	0x3db12b1d	0.08650801
92	0x3c98a8f8	0.018635258
93	0xbdbeeda7	-0.09322672
94	0xbb8f19b1	-0.0043670763
95	0x3cb6d5ce	0.022318747
96	0x3daa1ab9	0.08305878
97	0x3e0d172a	0.13778368
98	0x3d2aedc5	0.04173066
99	0xbe0c2629	-0.13686432
100	0x3dc96bec	0.098350376
101	0xbdeab93e	-0.114611134
102	0x3e0dc3d6	0.13844237
103	0xbd8170a6	-0.06320314
104	0xbc65c000	-0.014022827
105	0x3d526cce	0.051373295
106	0x3d6f380a	0.058403052
107	0xbdd76a46	-0.10518317
108	0xbac6f0e4	-0.0015177992
109	0x3ded72fd	0.11594198
110	0x3db8fe60	0.09032893
111	0x3cede888	0.029041544
112	0x3cf5510e	0.029945876
113	0xbde7465b	-0.11292716
114	0xbe0006a2	-0.1250253
115	0x3dbb23a1	0.09137655
116	0x3bd3f0d2	0.006467917
117	0x3db45d8e	0.08806907
118	0x3de39ae8	0.111135304
119	0xbde5ec51	-0.112267144
120	0x3e06a6dc	0.1314959
121	0xbc2e9b1a	-0.010657096
122	0x3e0e3ea6	0.13891086
123	0xbbfb3cd9	-0.0076671657
124	0x3e0739cf	0.13205646
125	0x3d8fcd00	0.070215225
126	0x3e090d96	0.13384089
127	0xbdd8d758	-0.105879486

net.0.module.weight_v f4 [2]
0	0x3f4d404e	0.80176246
1	0xbf18ff1e	-0.5976428

net.0.module.weight_bar f4 [128, 2]
0	0x3f2a0372	0.6641151
1	0x3d5fe1d5	0.05465873
2	0xbf8c2b14	-1.0950646
3	0x3f8c8f3c	1.0981212
4	0x3fa8296f	1.3137645
5	0xbfcb5885	-1.5886389
6	0x3e2f151e	0.170979
7	0x3fca48fc	1.5803523
8	0x3f2c51a0	0.6731205
9	0xbefc4059	-0.49267843
10	0x3e4aacb6	0.19792446
11	0xbe4ec576	-0.20192513
12	0x3fa0abe8	1.2552462
13	0xbfa6be7c	-1.3026881
14	0x3f567828	0.83777094
15	0xbfd48e11	-1.6605855
16	0x3fcc321a	1.595279
17	0xbe90a1a8	-0.28248334
18	0xbf895c25	-1.0731245
19	0x3caf1bb9	0.021375524
20	0xbf9b3838	-1.2126532
21	0xbf721ec8	-0.9457822
22	0x3f837149	1.0268947
23	0xbf49afca	-0.7878386
24	0x3fb73814	1.4313989
25	0xbea4be68	-0.32176518
26	0x3fb8245b	1.4386095
27	0x3e4e0b45	0.20121486
28	0xbe99202c	-0.29907358
29	0xbfa852d7	-1.3150281
30	0xbfb92333	-1.4463867
31	0xbea9f5e1	-0.33195403
32	0x3fceb563	1.6149105
33	0x3f185d8e	0.59517753
34	0x3e8a4173	0.2700306
35	0xbe7d0e45	-0.24712475
36	0xbf916925	-1.1360213
37	0x3fc07102	1.5034487
38	0x3ea9c55e	0.33158392
39	0xbe26cf0a	-0.16289917
40	0x3fd27ab5	1.6443697
41	0xbf122cb8	-0.57099485
42	0xbe8963e1	-0.26834014
43	0x3d314ef4	0.043288186
44	0xbf9c3638	-1.2204046
45	0x3f5d954d	0.8655594
46	0xbf8677c4	-1.05053
47	0x3fb355de	1.401058
48	0xbfb30847	-1.3986901
49	0x3f7df118	0.99196005
50	0xbf838b55	-1.0276896
51	0x3f915a76	1.1355731
52	0x3fcfadfc	1.6224971
53	0xbf212cca	-0.6295897
54	0xbfbc327c	-1.4702907
55	0x3f84c05a	1.0371201
56	0x3fae146f	1.3599986
57	0xbf8a9a8d	-1.0828415
58	0xbf531fb1	-0.8247023
59	0x3f9491b5	1.1606966
60	0x3fa08cf1	1.2543012
61	0x3f8c538b	1.0962995
62	0x3f731b1b	0.94963235
63	0xbfd65c1b	-1.6746858
64	0x3fc06171	1.5029737
65	0xbe893c7a	-0.26803952
66	0xbcec6eed	-0.028861487
67	0xbf24480c	-0.64172435
68	0x3da43b1c	0.08019087
69	0x3e2ecedd	0.170711
70	0xbfa87319	-1.3160125
71	0x3ea3e861	0.3201323
72	0xbfccd5a7	-1.6002702
73	0x3d7d9ffa	0.061920144
74	0x3fbb3e22	1.4628336
75	0x3fcf2088	1.6181803
76	0x3f9a4e92	1.2055228
77	0xbf88b19e	-1.0679204
78	0x3f7f594f	0.9974565
79	0xbf452383	-0.7700731
80	0xbe9335f2	-0.28752095
81	0xbfc7a874	-1.5598283
82	0xbeeac02a	-0.45849735
83	0xbd66a611	-0.056310717
84	0x3eecbc44	0.46237385
85	0xbef0f067	-0.47058412
86	0xbf9570d2	-1.1675055
87	0x3def57bd	0.116866566
88	0x3f97593a	1.1824105
89	0xbeaaa6af	-0.33330294
90	0x3f173ecb	0.5908019
91	0xbecf8b05	-0.4053575
92	0x3fcd6dab	1.6049093
93	0x3f176c59	0.591497
94	0xbfb6b86c	-1.4275031
95	0x3f846915	1.0344568
96	0xbecdb2ea	-0.40175563
97	0x3fb8666e	1.4406259
98	0x3fcb4851	1.5881444
99	0xbfa7d233	-1.3111023
100	0x3f8f5d1b	1.1200289
101	0xbea83e6b	-0.3286012
102	0x3fc04cb6	1.502341
103	0x3fbe14bd	1.4850079
104	0x3e2ccd16	0.16875109
105	0xbdd69aa9	-0.10478718
106	0xbfce3184	-1.6108861
107	0x3f770b85	0.9650195
108	0x3f44dc40	0.76898575
109	0xbfbc8811	-1.4729024
110	0x3f538bb1	0.8263503
111	0xbfbb3868	-1.4626589
112	0xbe9e33e4	-0.30898964
113	0xbfd68933	-1.676062
114	0x3fcb48a8	1.5881548
115	0x3f15d352	0.58525574
116	0x3fb2a178	1.3955526
117	0x3f2f3ba2	0.6845037
118	0xbfa5f4d3	-1.296534
119	0x3fb3c8c4	1.4045644
120	0xbfb9abc8	-1.4505548
121	0x3f065620	0.52475166
122	0x3f873214	1.0562158
123	0xbf03d16e	-0.5149144
124	0xbf842396	-1.032336
125	0xbf9e15f9	-1.2350456
126	0x3eaebfb2	0.34130627
127	0xbda70fc3	-0.08157303
128	0xbf8f1543	-1.1178364
129	0x3f980b8d	1.1878525
130	0x3fad89e3	1.3557705
131	0xbf68864a	-0.9082991
132	0x3e99bab4	0.30025256
133	0xbfc6df0a	-1.5536816
134	0xbfa63f20	-1.2988014
135	0x3f761f95	0.9614194
136	0x3f8de4ab	1.1085409
137	0xbf796a89	-0.97428185
138	0xbee8ea89	-0.45491436
139	0x3e8c8e74	0.27452433
140	0x3fb7734b	1.433206
141	0x3fa4d017	1.2876004
142	0x3eec618c	0.46168172
143	0xbd1af429	-0.037830506
144	0xbf9c8447	-1.2227868
145	0x3f1162e7	0.5679154
146	0x3fbdeabe	1.4837263
147	0xbe81111b	-0.25208363
148	0xbe988d79	-0.29795435
149	0xbfcee2e4	-1.6162992
150	0xbfad4974	-1.3538041
151	0x3ecb9d7d	0.39768592
152	0x3f8a15f6	1.0787952
153	0xbfbcc98b	-1.4749006
154	0xbe890487	-0.26761267
155	0xbfc24cd6	-1.5179698
156	0x3fa5f2b1	1.2964689
157	0xbfc084ff	-1.5040587
158	0x3f8a060c	1.0783095
159	0xbfa5b14b	-1.294473
160	0xbf8e35e8	-1.1110201
161	0x3f8b0b62	1.0862849
162	0xbf1882d8	-0.5957465
163	0x3d61323d	0.05497955
164	0xbfd042cb	-1.6270384
165	0x3fb67e67	1.4257325
166	0x3f9eb0ec	1.2397742
167	0x3f923af6	1.1424243
168	0xbfbee295	-1.4912897
169	0x3f46b13a	0.77614176
170	0x3c1db38e	0.009625329
171	0xbea10eff	-0.31456754
172	0xbf1d7405	-0.61505157
173	0x3e455229	0.19269623
174	0xbfbcb1f9	-1.4741813
175	0x3f4098ef	0.7523336
176	0xbfb1aad5	-1.3880259
177	0xbedbc995	-0.42927232
178	0xbfaac0c4	-1.3340077
179	0x3eb5a24a	0.3547538
180	0xbe8c368d	-0.2738537
181	0xbfbe4696	-1.4865291
182	0x3fa581dc	1.2930255
183	0xbea483cf	-0.32131812
184	0x3e9f317b	0.31092438
185	0xbcd31dc3	-0.025771027
186	0xbf7b6d67	-0.9821381
187	0x3f65e78c	0.8980644
188	0xbf893dcc	-1.0721984
189	0xbfaad47d	-1.3346096
190	0x3ea2ff22	0.31835276
191	0xbdd3a822	-0.10334803
192	0x3e9b1c42	0.30294997
193	0xbfc8a624	-1.5675702
194	0x3fb9b756	1.4509075
195	0xbfaa007d	-1.3281399
196	0xbe782289	-0.24231924
197	0xbfa88edc	-1.3168597
198	0xbfb8a5c5	-1.4425589
199	0x3fa8a382	1.3174899
200	0x3f8e9693	1.1139702
201	0xbf57cd46	-0.842976
202	0xbfd34b3a	-1.6507332
203	0x3f026440	0.5093422
204	0x3fa93ddc	1.3222003
205	0xbfc21b5f	-1.5164603
206	0xbfab9df4	-1.3407578
207	0xbe97d9f0	-0.2965846
208	0xbecf3a17	-0.40474007
209	0xbe56bd49	-0.20970644
210	0xbe98f128	-0.29871488
211	0xbfcf9363	-1.6216854
212	0x3fb69d0a	1.4266675
213	0x3f06a26b	0.5259158
214	0xbf8c4b6e	-1.0960519
215	0x3f83c37d	1.0294033
216	0xbe82a1fc	-0.2551421
217	0xbe9cc7bc	-0.30621135
218	0x3fb32ec8	1.3998652
219	0xbf60a53b	-0.8775212
220	0x3fc3d66b	1.529981
221	0xbdc1017a	-0.0942411
222	0x3dbec89e	0.093156084
223	0xbf10b32a	-0.5652338
224	0x3f17bc7c	0.5927198
225	0x3daaec85	0.08345894
226	0xbf8ff55a	-1.124675
227	0x3f966805	1.1750494
228	0xbf8ed504	-1.1158757
229	0x3fbcb882	1.4743807
230	0x3fa53302	1.2906191
231	0xbee168ce	-0.44025272
232	0x3e92db85	0.28683105
233	0x3e6c9fb7	0.23107801
234	0x3fcce9bf	1.6008834
235	0x3d5f9568	0.054585844
236	0x3fd61bc3	1.6727222
237	0xbecb6280	-0.39723587
238	0xbfa8c157	-1.3184003
239	0x3f6643db	0.8994729
240	0x3f8b4140	1.0879288
241	0xbfd53427	-1.6656541
242	0xbeba16bf	-0.3634548
243	0xbe6fef40	-0.2343111
244	0x3faaa9ac	1.333303
245	0xbfc1a026	-1.5126998
246	0x3de1fd88	0.110346854
247	0x3ea91711	0.3302541
248	0x3fbae097	1.4599789
249	0xbf970582	-1.1798556
250	0x3e833162	0.25623614
251	0xbfa9997c	-1.3249965
252	0x3fce55ba	1.6119912
253	0xbf8258c7	-1.0183343
254	0xbf4d664d	-0.80234224
255	0x3fb85121	1.4399759

net.2.module.bias f4 [128]
0	0x3e05b47f	0.13057135
1	0xbdaaf31a	-0.08347149
2	0x3d0d8269	0.034548197
3	0x3dd8d230	0.10586965
4	0x3e9d4ba7	0.3072178
5	0xbcb4fdfd	-0.022093767
6	0x3e0aef25	0.13567789
7	0x3e038121	0.12842228
8	0x3bab4fbb	0.0052280105
9	0x3e9932cd	0.2992157
10	0x3e98a7fd	0.29815665
11	0x3d83cd1c	0.06435606
12	0x3e9b2924	0.30304825
13	0x3e8fff1a	0.28124315
14	0x3d9f3d53	0.077753685
15	0x3e9eb571	0.30997804
16	0x3e95560d	0.29167214
17	0x3e9c56b4	0.305349
18	0xba89bb87	-0.0010508158
19	0x3dc24d05	0.094873466
20	0x3df2b7d6	0.1185147
21	0x3d9176a4	0.07102707
22	0xbcda5e07	-0.026656164
23	0x3e9fc128	0.31202054
24	0x3e9f3978	0.31098533
25	0x3d6adbdd	0.057338584
26	0xbd7b3321	-0.061328057
27	0xb91fd904	-0.00015244266
28	0xbda8335e	-0.082129225
29	0x3e043f5d	0.12914796
30	0xbd9bd16b	-0.07608303
31	0x3dc08964	0.09401205
32	0x3dec0d7f	0.11526012
33	0xbda45d06	-0.08025555
34	0x3e9f72d3	0.3114229
35	0xbdae70eb	-0.08517631
36	0xbc5a3ce0	-0.013320178
37	0xbdaeeaa4	-0.08540848
38	0xbd337492	-0.043812342
39	0x3d35da58	0.044397682
40	0x3e9a8a8e	0.30183834
41	0x3e96a347	0.29421446
42	0xba8eb2de	-0.0010887047
43	0x3e96c5cc	0.29447782
44	0xbcc7a5e0	-0.024371088
45	0x3cf64e71	0.0300667
46	0x3e0534aa	0.13008371
47	0x3c5a14c1	0.013310612
48	0x3e917e9c	0.28416908
49	0x3e95ca67	0.29255983
50	0x3e004765	0.12527235
51	0x3c8844bf	0.016634343
52	0x3da2093e	0.07911919
53	0x3e9dce71	0.30821565
54	0x3d97ec3e	0.074181065
55	0xbd7f5825	-0.06233992
56	0xbdb29366	-0.0871952
57	0x3ea0d387	0.31411383
58	0x3b52b95f	0.0032153947
59	0x3d95cc90	0.07314408
60	0x3e9ea056	0.30981702
61	0x3dae203b	0.08502241
62	0x3d7fde60	0.062467933
63	0x3ea184c1	0.31546596
64	0xbbab87ff	-0.005234718
65	0x3e9c82f0	0.30568647
66	0xbad93b01	-0.0016573371
67	0x3de7452f	0.112924926
68	0x3d16681e	0.036720388
69	0xbab73281	-0.0013976843
70	0x3ea00401	0.31253055
71	0x3e038df5	0.12847121
72	0x3e9c152b	0.304849
73	0x3df25c75	0.11834041
74	0x3c8b52b9	0.017007219
75	0x3daf4b76	0.08559315
76	0x3e99cdd6	0.30039853
77	0x3e0016d1	0.12508704
78	0x3dec6cfc	0.115442246
79	0x3e962823	0.29327497
80	0xbd62afec	-0.055343553
81	0x3e07e291	0.13270022
82	0x3dad57da	0.08464022
83	0x3dfc1558	0.123087585
84	0x3cc7be7d	0.024382824
85	0x3e9f67a5	0.31133762
86	0x3df1b03e	0.11801194
87	0x3db2c7c4	0.087295085
88	0x3df8532d	0.121252395
89	0xbdac9d70	-0.08428466
90	0x3dba92c1	0.09110022
91	0x3d80283d	0.06257675
92	0xbd8c3129	-0.06845314
93	0x3da554e1	0.0807283
94	0x3df21422	0.11820246
95	0x3d5ae3e4	0.05343999
96	0xbcc2d9da	-0.02378552
97	0x3e0529ed	0.13004275
98	0x3dfcace8	0.12337667
99	0x3df00eba	0.11721559
100	0x3c90fe5a	0.01769941
101	0x3dc8aecb	0.09798964
102	0xbd45dfa0	-0.04830897
103	0x3dc861d1	0.09784282
104	0x3cbae92f	0.022816269
105	0x3ca36bcd	0.019948864
106	0xbd78e326	-0.0607635
107	0xbd0942c1	-0.033510927
108	0xbd3bdbf9	-0.04586408
109	0x3dd92930	0.10603559
110	0x3e9f23b2	0.3108192
111	0x3c3f4367	0.011673785
112	0xbb4fbb22	-0.0031697233
113	0x3da9cf3a	0.082914785
114	0x3e9d38ff	0.30707547
115	0x3d8cb10a	0.06869705
116	0x3d0dc548	0.03461197
117	0xbc8b5772	-0.01700947
118	0x3df65852	0.120285645
119	0x3d422251	0.047396008
120	0xbb38cf47	-0.0028199719
121	0x3e88b7bc	0.26702678
122	0x3e916d6a	0.2840379
123	0x3ea0ca6f	0.31404445
124	0xbb987a50	-0.0046532527
125	0xbca61a91	-0.02027634
126	0xbcac758f	-0.02105215
127	0x3df427f6	0.119216844

net.2.module.weight_u f4 [128]
0	0xbde51e14	-0.111873776
1	0x39ea3aab	0.0004467567
2	0xbd57f724	-0.052725926
3	0xbde23434	-0.11045113
4	0x3df20f4a	0.118193224
5	0x39caa36c	0.000386502
6	0xbde88b8b	-0.11354741
7	0xbde4a015	-0.11163346
8	0xbd4654e6	-0.04842081
9	0x3decb162	0.115572706
10	0x3dee2ac5	0.116292514
11	0xbde31d31	-0.11089552
12	0x3df2b0d3	0.11850133
13	0x3dcf658f	0.10126793
14	0xbda9416b	-0.082644306
15	0x3deef8d1	0.11668552
16	0x3dede2ef	0.1161555
17	0x3df1db8c	0.11809453
18	0x392f2707	0.0001670384
19	0xbda4419e	-0.08020328
20	0xbde309ec	-0.11085877
21	0x3dc6e9b6	0.097125456
22	0xbd2c30b9	-0.042038653
23	0x3df24e23	0.1183131
24	0x3df3812a	0.118898705
25	0xbddf892d	-0.10914836
26	0xba63607b	-0.00086737395
27	0xbd4a9b79	-0.049464677
28	0x3ae449af	0.0017416979
29	0xbde65c40	-0.11248064
30	0xba338fa1	-0.00068497105
31	0xbdba9d8d	-0.09112082
32	0xbde4cc6e	-0.11171804
33	0x3aab5f39	0.0013074643
34	0x3df3ff01	0.119138725
35	0xba2f464b	-0.00066861947
36	0xbd674b9d	-0.056468595
37	0xba78daab	-0.0009493033
38	0xb9c3035d	-0.00037195804
39	0xbd6f3e3e	-0.05840897
40	0x3df1bef8	0.118040025
41	0x3deee8fc	0.11665532
42	0xbd39a203	-0.045320522
43	0x3dedad69	0.11605341
44	0x38e73d0b	0.000110263085
45	0xbd65f92e	-0.05614584
46	0xbde8b643	-0.11362889
47	0xbd6a0147	-0.057130124
48	0x3dd5ff71	0.10449112
49	0x3dd98352	0.106207505
50	0xbde70d9c	-0.11281893
51	0xbd6a963d	-0.057272185
52	0x3dc7227a	0.09723373
53	0x3df3199b	0.11870118
54	0xbda2edf2	-0.07955541
55	0x392e3e85	0.00016617223
56	0xb9d5004e	-0.00040626753
57	0x3df312ce	0.11868821
58	0x3a2a5d56	0.00064988935
59	0x3dc9a8c1	0.098466404
60	0x3df1a0d4	0.11798254
61	0x3dd48dcb	0.10378607
62	0xbde01045	-0.10940603
63	0x3df487ef	0.1193999
64	0xbd523ebd	-0.051329363
65	0x3df178ac	0.117905945
66	0xbd326a38	-0.04355833
67	0xbde33d06	-0.11095624
68	0xbd6e66f1	-0.05820364
69	0x3a2b5df2	0.0006537131
70	0x3df409cd	0.11915932
71	0xbde8b1bb	-0.113620244
72	0x3df1dc88	0.11809641
73	0xbde344a7	-0.11097079
74	0xbd619831	-0.05507678
75	0x3dd5a6ac	0.10432181
76	0x3def37c0	0.11680555
77	0xbde4badd	-0.11168454
78	0xbde3b8b0	-0.11119211
79	0x3def1b40	0.116751194
80	0x39b23d87	0.00033996647
81	0xbde831fb	-0.11337658
82	0x3dc6e289	0.09711177
83	0xbde46f79	-0.11154074
84	0x3c9a2e6e	0.018820968
85	0x3df4c38a	0.119513586
86	0xbde4b12c	-0.11166605
87	0xbda796b1	-0.08183039
88	0xbde469bb	-0.11152979
89	0x3a570c55	0.0008203437
90	0xbda6a657	-0.081371956
91	0xbde1b5ba	-0.1102099
92	0xb88cbb6a	-6.710629e-05
93	0x3dd33e26	0.10314588
94	0xbde4c14e	-0.111696824
95	0xbddfdb1e	-0.10930465
96	0xbd2d76ba	-0.042349555
97	0xbde66ea0	-0.11251569
98	0xbde52f7d	-0.11190698
99	0xbde39940	-0.111132145
100	0x3c97e4ae	0.01854166
101	0x3dd5b9ce	0.1043583
102	0x3aa7c003	0.0012798313
103	0x3dd6954f	0.10477697
104	0xbd570c63	-0.052502047
105	0xbd5c1168	-0.053727537
106	0x391770ef	0.00014442553
107	0xba1d5f51	-0.0006003278
108	0xba2de1be	-0.00066330645
109	0xbde272ce	-0.110570535
110	0x3def1173	0.1167325
111	0xbd4500c2	-0.048096426
112	0x39f6fb9d	0.00047108243
113	0x3dd38ca0	0.103295565
114	0x3df1e774	0.11811724
115	0xbda4e9a7	-0.08052378
116	0xbd529a6c	-0.0514168
117	0xbd45b9b7	-0.048272815
118	0xbde40ae3	-0.11134889
119	0xbd1ca4b6	-0.038243018
120	0x39a8df1b	0.00032209684
121	0x3dcb6f3b	0.09933325
122	0x3dd9f307	0.10642057
123	0x3df15119	0.11783046
124	0xbd6769ae	-0.05649727
125	0xbd5e0be1	-0.054210547
126	0xb9a3ad8d	-0.00031219088
127	0xbde7dba4	-0.1132119

net.2.module.weight_v f4 [128]
0	0xba151e11	-0.0005688379
1	0x3db1dbe2	0.086845174
2	0xbde031c8	-0.10946995
3	0xbde91545	-0.1138101
4	0x39e7e7ff	0.00044232604
5	0x3979ee71	0.00023835317
6	0xbde5604a	-0.11200006
7	0xbdce1e00	-0.10064316
8	0xbdc5bae8	-0.0965479
9	0x3d915a6e	0.07097326
10	0x3d45ca4c	0.04828863
11	0xbd9d302d	-0.076752044
12	0xbdd9314f	-0.10605108
13	0xbdc622ab	-0.09674581
14	0xbddf440b	-0.1090165
15	0x3da10dc2	0.07863952
16	0xbdf20dd7	-0.11819046
17	0x3a63f21c	0.000869544
18	0x3dbaa59b	0.09113618
19	0xb863fa4b	-5.435412e-05
20	0xbdc1652d	-0.09443126
21	0xb993af3b	-0.00028168582
22	0x3dc7a2b1	0.09747828
23	0x3dba76a8	0.09104663
24	0x3dcb2773	0.09919634
25	0x3db94d3a	0.09047933
26	0xbdc530b2	-0.096284285
27	0x3dbf99f8	0.09355539
28	0xbde7b062	-0.11312939
29	0x3da7dc07	0.08196264
30	0xbdf0427c	-0.11731431
31	0xbdd0397d	-0.10167215
32	0xbdd4fa55	-0.103993095
33	0x39959447	0.0002852997
34	0xb9d232c3	-0.00040092142
35	0x3da9d535	0.08292619
36	0x3dbeb057	0.09310978
37	0xbdeba360	-0.11505771
38	0xbdc5e354	-0.096625
39	0xbd908e7b	-0.07058426
40	0xbdecc048	-0.11560112
41	0x3827cf97	4.0009236e-05
42	0x3a012c3f	0.00049275527
43	0x3d961a53	0.0732924
44	0xbddc9175	-0.10769931
45	0x3a95c9e2	0.0011427964
46	0xbdf27cb1	-0.11840189
47	0x3dbb552a	0.09147103
48	0xbddddbd5	-0.10832945
49	0xbde7c34b	-0.11316546
50	0xbdda758e	-0.10666953
51	0xbdee5254	-0.116367966
52	0xb78ab325	-1.6534303e-05
53	0x3dce7071	0.1008004
54	0xbdcb8ada	-0.09938593
55	0xbd9e044b	-0.077156626
56	0xbde88a26	-0.11354475
57	0xbdefdbe6	-0.11711864
58	0xbdbd43b5	-0.0924143
59	0x3dc1442d	0.094368316
60	0x3dca5437	0.09879344
61	0xbdba521b	-0.090976916
62	0xbdda212a	-0.10650857
63	0x3a21c5b3	0.0006171122
64	0x3dc08640	0.09400606
65	0xbdbe94b5	-0.09305707
66	0xbdf5663c	-0.1198239
67	0x3dbc8a0a	0.09206016
68	0xbdd75f2d	-0.105162
69	0xb97a2227	-0.0002385458
70	0xbdefadc7	-0.11703067
71	0x37ef2df8	2.8512426e-05
72	0x3dcb380e	0.09922801
73	0xbdd41914	-0.10356346
74	0xbdef6c0a	-0.11690529
75	0x3dac419f	0.08410954
76	0xbdb92595	-0.09040371
77	0xbde3e2ff	-0.111272804
78	0xbdbfa33d	-0.09357307
79	0xbdc9cf8d	-0.0985404
80	0xbdc8eca1	-0.098107584
81	0xb9cac4d4	-0.0003867509
82	0x3dc84217	0.09778231
83	0xbdef75e6	-0.11692409
84	0x3dbe5a61	0.09294582
85	0xbaf45f83	-0.0018644187
86	0xb97c907d	-0.00024086419
87	0x3dc27716	0.0949537
88	0x3d81c18f	0.063357465
89	0x3db95636	0.090496466
90	0xbdead2ed	-0.11466012
91	0xbda4afde	-0.080413565
92	0xb93deefa	-0.0001811347
93	0xbdc82716	-0.0977308
94	0xbdc39f54	-0.09551874
95	0x39583dd7	0.00020622402
96	0xbdf1eef4	-0.11813155
97	0xbde92f5e	-0.11385988
98	0xbdec0e52	-0.11526169
99	0xbd9527ff	-0.07283019
100	0xbdd6d993	-0.10490718
101	0x3dc8e71e	0.09809707
102	0xbdbb4958	-0.091448486
103	0x3d8c4c80	0.06850529
104	0x3a8ca84c	0.0010731309
105	0xbdf013af	-0.11722504
106	0xbdefc53b	-0.117075406
107	0x3db73111	0.089449055
108	0x39f9abe3	0.00047621047
109	0xbdcb8879	-0.099381395
110	0xbdafa37e	-0.085761055
111	0xb8d0fb2e	-9.964999e-05
112	0x3780098b	1.5263233e-05
113	0x3dc06b10	0.093954206
114	0x3db8a1aa	0.0901521
115	0xbdb5e42e	-0.088814124
116	0xb9ca80ba	-0.0003862435
117	0xbdca43ae	-0.0987619
118	0xbdddecba	-0.10836168
119	0x3dbf3bdc	0.09337589
120	0xbdd63402	-0.104591385
121	0x3891b565	6.947926e-05
122	0xbde3d495	-0.11124531
123	0xb8b5371d	-8.641018e-05
124	0xbdda9a14	-0.10673919
125	0xbdf17f3f	-0.117918484
126	0xbdd45ec4	-0.103696376
127	0x3da7732c	0.08176264

net.2.module.weight_bar f4 [128, 128]
0	0x3d2df549	0.04247025
1	0xbf3954f0	-0.7239523
2	0x3f868f1e	1.0512426
3	0x3f7e4001	0.9931641
4	0xbd416127	-0.047211792
5	0x3d0d7f83	0.034545433
6	0x3f7e2d9d	0.9928835
7	0x3f6401fc	0.8906553
8	0x3f5b881a	0.8575455
9	0xbed78fa3	-0.42101774
10	0xbe2cfcd2	-0.16893318
11	0x3f3e5fda	0.7436501
12	0x3f85f061	1.0463983
13	0x3f72e7b0	0.9488478
14	0x3f7cc498	0.9873748
15	0xbf269587	-0.6507191
16	0x3f6c9324	0.9241202
17	0xbad59c4e	-0.0016297193
18	0xbf629cd8	-0.88520575
19	0xbd0b42d2	-0.03399927
20	0x3f59f3c9	0.8513761
21	0x3d9a5fb5	0.07537786
22	0xbf512fc9	-0.8171354
23	0xbf68b574	-0.90901875
24	0xbf5b667d	-0.8570326
25	0xbf52add4	-0.8229649
26	0x3f72ab3a	0.9479252
27	0xbf6b86c2	-0.920025
28	0x3f67e6b4	0.905864
29	0xbf45e84b	-0.77307576
30	0x3f818e8f	1.012163
31	0x3f5bcf58	0.85863256
32	0x3f74e557	0.95662445
33	0xbd80a366	-0.06281166
34	0xbaadb269	-0.0013252023
35	0xbf2cdcba	-0.675243
36	0xbf53a40e	-0.826722
37	0x3f6d14d5	0.9260991
38	0x3f727f92	0.94725907
39	0x3f257abb	0.64640397
40	0x3f6f44aa	0.9346415
41	0xbda5d9fd	-0.080982186
42	0xbbee9de5	-0.007282006
43	0xbf2037ca	-0.6258513
44	0x3f8538bc	1.0407939
45	0x3d4fd31f	0.05073845
46	0x3f7bae44	0.98312783
47	0xbf6847ee	-0.90734756
48	0x3f5561bf	0.83352274
49	0x3f879eed	1.0595375
50	0x3f802d29	1.0013782
51	0x3f80ea9e	1.00716
52	0xbd8823dd	-0.066474654
53	0xbf574baf	-0.8409986
54	0x3f6c9ec6	0.9242977
55	0x3f425edc	0.75925994
56	0x3f68963f	0.9085426
57	0x3f693856	0.91101587
58	0x3f6ce682	0.92539227
59	0xbf706fab	-0.9392039
60	0xbf5a0026	-0.85156476
61	0x3f59b9bc	0.85049033
62	0x3f6ad6ac	0.91733813
63	0xbae7915b	-0.0017667221
64	0xbf78c62a	-0.97177374
65	0x3f552e93	0.8327419
66	0x3f8955b0	1.0729275
67	0xbf77ebb9	-0.9684406
68	0x3f65b2a5	0.89725715
69	0xbc8c3238	-0.01711379
70	0x3f6e1bd1	0.93011194
71	0xbd7c5a29	-0.06160942
72	0xbf69ae13	-0.9128124
73	0x3f82a293	1.0205864
74	0x3f6fdf7f	0.937004
75	0xbf44ccc6	-0.7687496
76	0x3f7258e1	0.9466687
77	0x3f64c766	0.8936676
78	0x3f7b0c38	0.9806552
79	0x3f675cf8	0.90376234
80	0x3f4afdac	0.7929332
81	0x3d6f13b1	0.05836839
82	0xbf60b744	-0.8777964
83	0x3f87c5b8	1.0607214
84	0xbf6252c8	-0.88407564
85	0x3d975be6	0.07390575
86	0x3d04c828	0.032417446
87	0xbf4fb55d	-0.81136113
88	0xbf0fc094	-0.56153226
89	0xbf541047	-0.8283734
90	0x3f7ebb8f	0.9950494
91	0x3f38eba4	0.7223456
92	0x3ce2f4b6	0.027704578
93	0x3f53fa77	0.82804054
94	0x3f567dc4	0.83785653
95	0xbc424bd6	-0.011858901
96	0x3f795e9d	0.97409993
97	0x3f87f066	1.0620239
98	0x3f83a657	1.0285138
99	0x3e1fb636	0.15596852
100	0x3f858525	1.0431257
101	0xbf747540	-0.9549141
102	0x3f76ea10	0.964509
103	0xbf1c1dc4	-0.6098292
104	0xbd8f546b	-0.06998523
105	0x3f6648cd	0.89954835
106	0x3f6a6282	0.9155656
107	0xbf45e746	-0.7730602
108	0x3cf0d96f	0.029400555
109	0x3f7bc8a5	0.98353034
110	0x3f5ed450	0.87042713
111	0x3bfe62f1	0.0077632596
112	0x3c538a59	0.012911403
113	0xbf4c5add	-0.79826146
114	0xbf493d2b	-0.7860896
115	0x3f4e56a1	0.80600935
116	0x3bef7891	0.007308074
117	0x3f6b7c5f	0.9198665
118	0x3f64629f	0.89212984
119	0xbf80191b	-1.0007662
120	0x3f618b80	0.88103485
121	0xbbc81413	-0.0061059087
122	0x3f848f68	1.0356264
123	0xbd78d8df	-0.0607537
124	0x3f6eb184	0.9323962
125	0x3f6a68da	0.9156624
126	0x3f709e47	0.9399151
127	0xbf33092d	-0.69935876
128	0xbd19b3be	-0.03752493
129	0xbbb8806a	-0.0056305425
130	0x3ce523a1	0.02797109
131	0x3c9f0e5e	0.01941603
132	0xbcd6a25a	-0.026200462
133	0xbda77a11	-0.08177579
134	0xbc94775b	-0.01812332
135	0x3d484e74	0.048902944
136	0x3d106daf	0.035260852
137	0x3a8ee6b1	0.0010902492
138	0xbd1ac026	-0.037780903
139	0xbc473793	-0.012159246
140	0x3d3659e5	0.044519324
141	0x3d8d734c	0.06906757
142	0xbc5b8ed1	-0.013400749
143	0x3d34f63c	0.04418014
144	0xbda6d5bf	-0.081462376
145	0x3d4cbdb1	0.04998559
146	0xbc268117	-0.010162613
147	0xbd125f77	-0.035735574
148	0xbd8b0992	-0.06788935
149	0xbd8717b1	-0.06596316
150	0x3c550e46	0.013003891
151	0xbd56f6a4	-0.05248131
152	0xbad17d68	-0.0015982809
153	0x3d41ad27	0.04728427
154	0xbda8050c	-0.082040876
155	0xbd74a734	-0.05972977
156	0x3d3fe8ad	0.046852756
157	0xbc8d4b5c	-0.017247848
158	0xbd0cc610	-0.034368575
159	0xbd886e6d	-0.06661687
160	0x3da9f4b9	0.0829863
161	0xbdadf3f9	-0.084938
162	0x3d9755fa	0.073894456
163	0x3c83b535	0.016077617
164	0x3d5c7a98	0.053827852
165	0x3d933462	0.071877256
166	0x3d1dc182	0.03851462
167	0x3d4ab708	0.04949096
168	0x3d86d26d	0.06583104
169	0x3b058fcb	0.0020379897
170	0xbd93b798	-0.07212752
171	0x3d89f914	0.06736961
172	0xbd7dfcb3	-0.06200857
173	0x3d7095eb	0.058736723
174	0xbcbb0195	-0.022827903
175	0x3cfc4090	0.030792505
176	0xbc320df5	-0.010867585
177	0xbcf98e78	-0.030463442
178	0x3d512981	0.05106497
179	0x3c9163d9	0.017747806
180	0x3d49c2a8	0.049257904
181	0xbcde455c	-0.027132683
182	0x3d13b1b1	0.03605813
183	0xbd435d51	-0.047696415
184	0xbd7f3f69	-0.062316332
185	0x3da3b23e	0.079929814
186	0x3d99c730	0.07508695
187	0xbd3291be	-0.04359602
188	0xbbbcf2ce	-0.0057662493
189	0x3cee766e	0.029109206
190	0x3c89752c	0.016779505
191	0xbc9fa15c	-0.019486122
192	0xbc73d8f7	-0.014883271
193	0x3d3eb341	0.04655767
194	0x3ca7b941	0.020474078
195	0x3b038f6f	0.0020074507
196	0x3d2f9deb	0.04287521
197	0xbd6082e6	-0.054812334
198	0xbc8aa3f7	-0.016923888
199	0xbc744431	-0.014908836
200	0x3d7f01c9	0.06225756
201	0xbcd2c653	-0.025729334
202	0x3cddae32	0.027060602
203	0x3b9f308b	0.0048580817
204	0xbbbf516f	-0.005838565
205	0x3cafcc86	0.021459829
206	0xbd2253b2	-0.0396306
207	0xbd0306fe	-0.03198909
208	0x3d2fb425	0.04289641
209	0xbd4e97ee	-0.05043786
210	0x3c8a0409	0.016847627
211	0xbda81c9b	-0.08208581
212	0xbd2c1f9b	-0.04202233
213	0xbd4f9cc6	-0.05068662
214	0xbd66acdf	-0.056317206
215	0x3d2a1042	0.04151941
216	0xbd8cb020	-0.06869531
217	0x3d26d0e2	0.04072655
218	0x3d7d3600	0.061819077
219	0x3beee888	0.0072909035
220	0xbb2484b2	-0.0025103507
221	0xbd9df988	-0.0771361
222	0x3acc95c5	0.00156086
223	0x3d8d0023	0.06884792
224	0xbda5b280	-0.08090687
225	0x3d71f2f6	0.059069596
226	0xbcb143f2	-0.021638844
227	0x3d3bcdcd	0.045850564
228	0x3c211c49	0.009833404
229	0x3a6e69a7	0.0009094723
230	0xbd905426	-0.070473
231	0x3d9b379e	0.075789675
232	0x3b8df3cf	0.0043320428
233	0xbd5f7809	-0.054557834
234	0xbd850970	-0.06495941
235	0x3d8013ca	0.062537745
236	0xbd917350	-0.07102072
237	0xbd81ff70	-0.06347549
238	0xbd9f0a07	-0.077655844
239	0x3dae9718	0.085249126
240	0xbd5f0bde	-0.054454677
241	0xbd30734e	-0.043078713
242	0xbd02b922	-0.031914838
243	0x3d88c3c8	0.06677967
244	0x3ad61011	0.0016331692
245	0x3bb9c3ac	0.005669078
246	0xbdb35f6b	-0.08758434
247	0x3daf64cb	0.085641466
248	0xbd5c578b	-0.053794425
249	0x3c4fd004	0.012683872
250	0x3b44ff36	0.0030059344
251	0xbce39e4e	-0.027785446
252	0xbd0e67df	-0.034767028
253	0xbcc85cb5	-0.024458269
254	0x3ae1fef5	0.0017242121
255	0xbd1bf5e6	-0.038076304

net.4.module.weight_v f4 [128]
0	0xbdc3ce6a	-0.09560855
1	0x3b1cff7b	0.002395599
2	0xbdc2024f	-0.094730966
3	0xbdc8f976	-0.09813206
4	0x3dd28c45	0.102806605
5	0x3b58aa38	0.0033060443
6	0xbdcae3c7	-0.09906726
7	0xbdcf5874	-0.10124293
8	0xbdce15d9	-0.10062761
9	0x3dceb3f5	0.10092918
10	0x3dc01e3e	0.09380768
11	0xbdd49416	-0.10379808
12	0x3dd2a583	0.10285475
13	0x3dacf12a	0.08444436
14	0xbdc917ac	-0.09818968
15	0x3dc14f50	0.09438956
16	0x3dcdf741	0.100569256
17	0x3dcb1a3e	0.09917115
18	0x3bea9a76	0.0071595265
19	0xbdc4f7aa	-0.09617551
20	0xbdcaa0d3	-0.09893956
21	0x3dc06c76	0.09395687
22	0xbdc87a91	-0.09789003
23	0x3dd3772e	0.10325466
24	0x3dd159cb	0.10222205
25	0xbdca8fc4	-0.09890702
26	0xbb810182	-0.0039369473
27	0xbdd0d191	-0.101962216
28	0x3bfd1fc7	0.0077247354
29	0xbdc9f53f	-0.0986123
30	0x3a647261	0.00087145536
31	0xbdcd176f	-0.10014235
32	0xbdc8a8c9	-0.09797818
33	0x3b6e65fb	0.0036376703
34	0x3dc6a46e	0.09699331
35	0xbb52c4dc	-0.0032160794
36	0xbdd57e51	-0.104244836
37	0xbadcf40c	-0.00168574
38	0x3af5a4fe	0.0018741188
39	0xbdc57e2f	-0.09643208
40	0x3dd2de7b	0.10296341
41	0x3dcb9fce	0.0994259
42	0xbdc592a1	-0.09647108
43	0x3dcc094e	0.09962712
44	0x3b9baf89	0.00475115
45	0xbdc9e016	-0.09857194
46	0xbdc40275	-0.09570781
47	0xbdca2ef8	-0.0987224
48	0x3db7fa88	0.08983332
49	0x3db05974	0.08610812
50	0xbdd4e72e	-0.103956565
51	0xbdc444df	-0.095834486
52	0x3dcce22c	0.10004076
53	0x3dcce7c4	0.10005143
54	0xbdce5803	-0.10075381
55	0x3b463640	0.0030244738
56	0xbc052318	-0.008126043
57	0x3dcba25b	0.09943076
58	0x3bbd6929	0.0057803583
59	0x3dc31a4c	0.095265
60	0x3dd1be04	0.10241321
61	0x3dcc7fd5	0.099853195
62	0xbdcf3042	-0.10116626
63	0x3dcc0755	0.09962336
64	0xbdcc19b7	-0.09965842
65	0x3dcbbbd4	0.09947935
66	0xbdd62148	-0.10455567
67	0xbdd35f89	-0.10320956
68	0xbdc166a9	-0.09443409
69	0x3bd2ab91	0.0064291437
70	0x3dd37c83	0.10326483
71	0xbdc464c0	-0.09589529
72	0x3dcbbb85	0.09947876
73	0xbdd09aa6	-0.10185747
74	0xbdca64b6	-0.0988249
75	0x3dcc7cce	0.09984742
76	0x3dccab59	0.099936195
77	0xbdcd242e	-0.10016666
78	0xbdd255f9	-0.10270304
79	0x3dcf1b7e	0.101126656
80	0x3c020f3d	0.007938203
81	0xbdd4c1e1	-0.10388542
82	0x3dbec748	0.09315354
83	0xbdd2315a	-0.10263319
84	0x3dd02bb5	0.101645865
85	0x3dce1a70	0.10063636
86	0xbdc8ba54	-0.09801164
87	0xbdcd2b50	-0.10018027
88	0xbdd55aa4	-0.10417679
89	0xbbe38ff5	-0.0069446512
90	0xbdcdb2e5	-0.10043887
91	0xbdc6bd05	-0.09704021
92	0x3a832585	0.0010005689
93	0x3dcb55fd	0.0992851
94	0xbdcbc177	-0.0994901
95	0xbdc75484	-0.09732917
96	0xbdc5d891	-0.096604474
97	0xbdc72031	-0.09722937
98	0xbdd3ccea	-0.10341819
99	0xbdc672d5	-0.09689871
100	0x3dc6b794	0.097029835
101	0x3dc968e3	0.09834459
102	0xbb1357e5	-0.002248281
103	0x3dc81641	0.097698696
104	0xbdc38446	-0.095467135
105	0xbdd01417	-0.10160082
106	0xba1caa47	-0.0005976301
107	0xbb5536fa	-0.003253399
108	0x3b3f0493	0.0029147014
109	0xbdd4cf1a	-0.10391064
110	0x3dce88c2	0.10084678
111	0xbdc838f3	-0.09776487
112	0x3b92dc53	0.004481831
113	0x3dc497d1	0.09599269
114	0x3dd0e9d4	0.10200849
115	0xbdc9bc87	-0.09850412
116	0xbdd3fd3c	-0.10351035
117	0xbdc94497	-0.098275356
118	0xbdd1670a	-0.10224731
119	0xbd3508f5	-0.044197995
120	0x3b3db771	0.002894845
121	0x3da6bab5	0.0814108
122	0x3daf6ba9	0.085654564
123	0x3dcedc09	0.10100562
124	0xbdd2f7ad	-0.10301147
125	0xbdc8f752	-0.098127976
126	0x3a7977d3	0.00095164514
127	0xbdc3997b	-0.095507585

net.4.module.weight_bar f4 [1, 128]
0	0xbf7b4fce	-0.9816865
1	0x3cc9809b	0.024597457
2	0xbf790146	-0.9726757
3	0xbf80f8f3	-1.0075973
4	0x3f871db8	1.0555944
5	0x3d0b0aa5	0.0339457
6	0xbf82339a	-1.0171998
7	0xbf850f9d	-1.039539
8	0xbf844096	-1.033221
9	0x3f84a60d	1.0363175
10	0x3f7693fd	0.9631956
11	0xbf886b4e	-1.0657747
12	0x3f872deb	1.0560888
13	0x3f5df754	0.8670552
14	0xbf810c56	-1.008189
15	0x3f781b89	0.96917015
16	0x3f842cf4	1.0326219
17	0x3f82568e	1.0182664
18	0x3d968da6	0.07351236
19	0xbf7ccd51	-0.9875079
20	0xbf8208a3	-1.0158886
21	0x3f76f861	0.96472746
22	0xbf80a784	-1.0051122
23	0x3f87b478	1.060195
24	0x3f86590b	1.0495924
25	0xbf81fdb0	-1.0155544
26	0xbd259349	-0.040423665
27	0xbf86019f	-1.0469245
28	0x3da27052	0.0793158
29	0xbf819a87	-1.0125283
30	0x3c129a39	0.008947902
31	0xbf839d52	-1.0282385
32	0xbf80c52d	-1.0060173
33	0x3d18fd1c	0.03735076
34	0x3f7ef3a0	0.9959049
35	0xbd074209	-0.03302196
36	0xbf89019e	-1.0703619
37	0xbc8dcb29	-0.017308788
38	0x3c9da389	0.019243019
39	0xbf7d79f8	-0.99014235
40	0x3f87527a	1.0572045
41	0x3f82ac44	1.0208821
42	0xbf7d9436	-0.99054277
43	0x3f82eff8	1.0229483
44	0x3d47d16e	0.048783712
45	0xbf818cf3	-1.0121139
46	0xbf7b9299	-0.98270565
47	0xbf81bf92	-1.0136588
48	0x3f6c219b	0.9223878
49	0x3f6256e2	0.8841382
50	0xbf88a0a1	-1.067402
51	0xbf7be7d7	-0.98400635
52	0x3f837b24	1.0271955
53	0x3f837ebb	1.027305
54	0xbf846b0c	-1.0345168
55	0x3cfe6636	0.031054597
56	0xbdaae0ab	-0.08343633
57	0x3f82ade7	1.0209321
58	0x3d731a6f	0.05935138
59	0x3f7a68a1	0.978159
60	0x3f86995c	1.0515552
61	0x3f833c08	1.0252695
62	0xbf84f5d2	-1.0387518
63	0x3f82eeb4	1.0229096
64	0xbf82fa80	-1.0232697
65	0x3f82be40	1.021431
66	0xbf896a33	-1.0735534
67	0xbf87a54c	-1.059732
68	0xbf783981	-0.96962744
69	0x3d8731ce	0.06601296
70	0x3f87b7e4	1.0602994
71	0xbf7c10c2	-0.9846307
72	0x3f82be0d	1.0214249
73	0xbf85de61	-1.045849
74	0xbf81e20f	-1.0147113
75	0x3f833a17	1.0252103
76	0x3f8357f5	1.0261217
77	0xbf83a580	-1.0284882
78	0xbf86fae0	-1.0545311
79	0x3f84e87e	1.0383451
80	0x3da6ed7a	0.08150764
81	0xbf8888b1	-1.0666715
82	0x3f74dbce	0.95647895
83	0xbf86e360	-1.0538139
84	0x3f85972f	1.0436763
85	0x3f844388	1.0333109
86	0xbf80d06f	-1.0063609
87	0xbf83aa14	-1.0286279
88	0xbf88eab9	-1.0696632
89	0xbd9208eb	-0.07130607
90	0xbf840116	-1.0312831
91	0xbf7f132f	-0.99638647
92	0x3c2852a4	0.010273609
93	0x3f827ce5	1.0194365
94	0xbf82c1de	-1.0215414
95	0xbf7fd5a0	-0.9993534
96	0xbf7dedf9	-0.9919124
97	0xbf7f9278	-0.9983287
98	0xbf87eb7d	-1.061874
99	0xbf7eb3f7	-0.99493355
100	0x3f7f0c34	0.99627995
101	0x3f814074	1.0097795
102	0xbcbd1c65	-0.023084829
103	0x3f806724	1.0031476
104	0xbf7af0a5	-0.98023444
105	0xbf858807	-1.0432137
106	0xbbc91340	-0.006136328
107	0xbd08d3d6	-0.033405147
108	0x3cf52a7a	0.029927481
109	0xbf88912d	-1.0669304
110	0x3f848a54	1.0354714
111	0xbf807d68	-1.0038271
112	0x3d3c7dcc	0.046018407
113	0x3f7c524c	0.98563075
114	0x3f861131	1.0473996
115	0xbf817621	-1.0114175
116	0xbf880a7f	-1.0628203
117	0xbf812929	-1.0090686
118	0xbf86618b	-1.0498518
119	0xbee85a6a	-0.4538148
120	0x3cf37ee9	0.029723601
121	0x3f55fe05	0.8359073
122	0x3f6125af	0.87948126
123	0x3f84bfc5	1.0371023
124	0xbf8762a5	-1.0576979
125	0xbf80f793	-1.0075554
126	0x3c2017b0	0.009771273
127	0xbf7b0bde	-0.9806498
