checkpoints/nd/dim_2/width_8/method_3p-wgan.pt (torch, 69975 bytes, 5 tensors)

net.0.weight f4 [128, 2]
00000000: c9ef ef3e 71bc 153e 193a 053f e4b7 423d
00000010: ec4c bdbe 5fe7 e5be 25f4 053f 8820 453e
00000020: 6ef2 bb3e cb81 16bf b3bc d5be 5176 8fbe
00000030: 56cf 883e 271e 30bf 73b6 113f 6271 b53d
00000040: f834 153f 1951 083c 2e09 34bf e5a4 4bbf
00000050: bee8 a33d 179a 623d 7701 0b3f 7aa3 9b3c
00000060: e539 f33e 5ac4 d8be 4e84 fe3d 031b 0b3f
00000070: 901f 313f da66 823e 0e3e c2bd 069b 49bc
00000080: a121 9f3e cc2d 103e cda8 46bc a50f d8be
00000090: 3980 11be 7dd1 3f3f 6a6d e1be e919 a2be
000000a0: 7856 373f ac86 32bf ee95 26bf ce1c 6fbd
000000b0: 7070 d93d 5d41 ae3e a296 0dbf e7b5 29be
000000c0: 2a29 a6be 7af9 23be e15a 33be bc03 243e
000000d0: fbad aa3e 904b 893e 4162 2e3f 2d69 6e3e
000000e0: b762 e9be 135f 913d 5758 ce3e baf7 953e
000000f0: 3b5c 11bf 277e 1dbf 6c1e 603e 9f1c 19bf
00000100: f958 6bbe a195 16be 5e29 b43d dcef 61be
00000110: 5e43 c4be cce4 cabe 8a0b e8be 4b30 463e
00000120: c638 093f 4bc3 4fbf 6fc2 0ebf 0f2f 2e3f
00000130: ba2a 353f 5e89 013f 2eed 1c3a d93e 013e
00000140: 86e3 843d 0325 9cbd 3f10 78be e0e0 4dbf
00000150: 698b 753e aeba a33e 9f64 28bf f0fa c0be
00000160: 3d20 f43e 57e5 3bbf 711f d53e 0991 943e
00000170: e8ef cb3e 9858 a2be 9aa6 03bb 884a c4be
00000180: 2f96 233f e0d1 393f 5bb3 65be 6669 42be
00000190: 169b d33c ba31 5bbe e628 8a3e dea4 f3be
000001a0: 1f5f bfbe b4a1 b2be cb77 8ebe 6d83 2f3f
000001b0: 9f35 34bd be2c 02bf 1a42 c4be b94d eebe
000001c0: 74a1 1dbe 372c acbe 1cc1 253e 15e9 e13e
000001d0: cf42 083f b9f0 41bd 6d16 14be fb1d b13e
000001e0: 4f16 2f3f 9a9e 33bf 1726 293f 1e82 283e
000001f0: 15c2 5a3e 0c1d 40bf 4246 d1be bf6a 59be
00000200: cb09 fe3e 239c 68be b3fc ff3e 4c09 7cbe
00000210: 3610 ad3e f90b af3e 17cf abbe 9cfc 4a3d
00000220: 2bd0 2abf a87b 40bf e146 fbbe c9e9 423f
00000230: adfd 25bf a091 10bf 155c 083f cea1 b6bd
00000240: 0b2d 9e3e a319 70be 68a7 863e 5f8d 41bf
00000250: a6f6 0ebf 43c3 22be 8ea9 fd3e 96e0 213f
00000260: c1e3 543e 51d7 d23e dc0e 2ebe 528e 903e
00000270: eeb3 c7be a317 1f3f 06ca 34bf 88b1 133d
00000280: 01d0 92be 7c1c 38bf f07c ae3e 5c73 3fbd
00000290: 4d71 07be 18a6 33bf ff26 87be fe4f e63e
000002a0: d6f3 15bf 0a12 50be d85a cf3e 7ca9 89be
000002b0: e83d 67be c87a 1dbf 75cc 03bf f461 b03e
000002c0: f44f ec3e fa48 933d 175a 4e3e 3810 783d
000002d0: 6621 213e ff1f 35bf 287d 0ebe 65da 3cbf
000002e0: e5a1 21bf 5fd0 bdbe e317 b63e 22fa 39bf
000002f0: 8c94 c53e 40a8 5f3d 362d c8be b4f4 d73c
00000300: 4de9 18bf d0cd 2d3f 82f6 35bf dce8 af3d
00000310: 69d9 22bf afa1 27be 19d1 533e eac3 80be
00000320: b451 383f 4643 65bd ffaf 2fbe fd62 393f
00000330: 5c32 1d3e 7853 c93e 9bcd dbbe b4e8 213c
00000340: ca32 3ebf 6b96 353d 007b a9bc fbf5 713e
00000350: 4034 09bf 82f4 933e ff6c b83e d2eb 3cbf
00000360: 8b13 103f 56f1 82be db35 c93e 2120 42bf
00000370: bf03 823e 5c90 0ebf 7e3d 2bbb 1e9e 05bf
00000380: 6ed0 3bbc da34 b5be a460 a3be f62a aa3e
00000390: bb07 053d 5a7e adbe 0e83 13be de2e 993e
000003a0: 35c1 163f f9fb 413e 118a 333f 24d3 8cbe
000003b0: 3fb6 2f3f e239 e9be 9250 123f 320d 1b3d
000003c0: 6281 353f 0db6 363f 37b9 163f 7ad0 1a3e
000003d0: 20d0 083e 90fb e23e 2c36 c2bd fbc1 34bf
000003e0: c328 f2be 0357 f3be de19 abbe 9d8f b43e
000003f0: 96ec 5abe 910e b13e 98e5 2dbe 3262 d83e
0.4686263 0.14622666 0.52041775 0.047538653 -0.3697275 -0.44903085 0.5232566 0.19250691
0.36708397 -0.587918 -0.4174553 -0.28019956 0.26720685 -0.6879601 0.5691902 0.08859517
0.5828395 0.008320116 -0.7032651 -0.79548484 0.080033764 0.055322733 0.5429911 0.01899885
0.47505108 -0.42337304 0.12427579 0.5433809 0.69188786 0.25469095 -0.09484492 -0.012305027
0.31080344 0.1407997 -0.012125206 -0.42199436 -0.1420907 0.7492903 -0.4402879 -0.31660393
0.71616316 -0.6973674 -0.65072525 -0.05837708 0.10617149 0.34034243 -0.5530797 -0.16573296
-0.3245328 -0.16013137 -0.17515136 0.1601705 0.33335862 0.26815462 0.68118674 0.23282309
-0.45583126 0.07098212 0.40301773 0.29290563 -0.5678136 -0.6152062 0.21886605 -0.598093
-0.22983159 -0.14705516 0.08796953 -0.22064155 -0.38332647 -0.39627683 -0.45321304 0.1935436
0.53602254 -0.8115737 -0.5576543 0.68040556 0.7076832 0.5060023 0.000598627 0.1262163
0.06488709 -0.07624247 -0.24224947 -0.80421257 0.23978962 0.31978363 -0.65778536 -0.3769145
0.47680846 -0.7339682 0.4162555 0.29016903 0.3983147 -0.31708217 -0.0020088316 -0.38338113
0.63901037 0.7258587 -0.224317 -0.18985519 0.025830787 -0.21405688 0.26984328 -0.4758672
-0.3737726 -0.34888995 -0.2782577 0.68559915 -0.04399645 -0.5084952 -0.3833168 -0.46543673
-0.1539362 -0.33627483 0.16186947 0.4412314 0.5322694 -0.04734871 -0.1446168 0.34593186
0.68393415 -0.7016388 0.66073745 0.16455886 0.21363099 -0.7504432 -0.40873915 -0.21232127
0.49616846 -0.22715811 0.49997482 -0.24612921 0.3380143 0.34188822 -0.33556435 0.049557313
-0.6672389 -0.75188684 -0.49077514 0.7613798 -0.64840204 -0.56472206 0.53265506 -0.089175805
0.3089374 -0.2344728 0.26299596 -0.7560634 -0.55845106 -0.15894799 0.49543422 0.63233316
0.20790006 0.41179898 -0.16997856 0.28233582 -0.39004463 0.6214544 -0.70620763 0.03605798
-0.2867432 -0.71918464 0.34079695 -0.046740875 -0.13226815 -0.70175314 -0.2639694 0.44982904
-0.5857519 -0.20319381 0.40498996 -0.2688712 -0.22582209 -0.61515474 -0.5148385 0.34449732
0.4615475 0.071916535 0.20151554 0.060562342 0.15735397 -0.7075195 -0.13914931 -0.73770744
-0.63137656 -0.37073037 0.355651 -0.726473 0.38589895 0.054603815 -0.39096993 0.0263618
-0.5973099 0.6789217 -0.71079266 0.08589336 -0.6361299 -0.16370271 0.20685233 -0.2514947
0.7199967 -0.05597236 -0.17156981 0.7241667 0.15351242 0.39321494 -0.42930302 0.009882141
-0.7429625 0.044332903 -0.020688534 0.2362899 -0.5359535 0.28897482 0.36020657 -0.73797333
0.5627982 -0.2557475 0.392989 -0.75830275 0.25393483 -0.55689025 -0.0026129181 -0.5219439
-0.011463268 -0.35391885 -0.31909668 0.33235902 0.032478075 -0.3388546 -0.14405462 0.2991857
0.5888856 0.18943776 0.7013255 -0.27504838 0.6863746 -0.45551974 0.5715419 0.03785438
0.7090055 0.7137154 0.58876365 0.1511859 0.13360643 0.44332552 -0.09482989 -0.7060849
-0.47296724 -0.47527322 -0.33418173 0.35265818 -0.21379313 0.34581426 -0.16982114 0.42262417

net.0.bias f4 [128]
00000000: a740 e53e 0764 d83e 287f dd3d a67e f7be
00000010: aef2 a6be 947a 48bf 9e8b a1bd f399 2a3f
00000020: 5d11 e23d d729 febe 5436 423d 994a 123d
00000030: d71b 3d3f 4922 833e 4f86 23bf f331 433f
00000040: 2a4c 3d3f bbae d23e e467 40bf f868 953e
00000050: 067d 03bf 8278 3c3f 3479 233f 6e91 09bf
00000060: 13a4 2dbe 7adf 16be 6ff0 14be ac7a 1f3f
00000070: 782d 38bf 3336 17be a2f2 623e 06e3 323d
00000080: a2a4 1abf e456 883e 19da 163f cf54 233f
00000090: 9181 05be 5519 663e 854d f4be 78f4 31be
000000a0: 7177 f3be dc0c 05bf 9f58 0abf 462e e5bc
000000b0: 476e f0bd 582f 2a3e 87c6 9bbe 1725 073f
000000c0: d863 273f a7ea 313f 83f5 8e3d 1f59 2dbf
000000d0: 702b 93be 598f 3abf 0c48 87bc 598c e53d
000000e0: c5a7 37bf 5df2 093e 3d00 da3e 1489 463f
000000f0: 1806 973e 4604 af3e d07c 3fbe daad 8bbe
00000100: 9e70 d7bc 58fd 52be a233 a03e 737a 08bf
00000110: 0815 743e f52b 153e d606 b63e b303 15bf
00000120: ca85 0bbf 5425 07bf 4622 11bf 7187 ecbd
00000130: 8ab3 aabe aabf 4c3f aa3e 2ebf 8009 1cbf
00000140: 2998 1d3f 3cd4 0b3f 3177 babe 81d9 f9be
00000150: e75e 05bf 0293 bc3e 2a1e 40be 4a4a 6b3e
00000160: 195b 0a3f 3d1d d5ba 56ef d33e e114 c4be
00000170: 4012 343e 1fd4 e43e 5093 2b3f 2634 fa3e
00000180: 9e98 e23e b577 cf3e 083d 723e 1244 da3b
00000190: e958 b03d 5efa a1be 4256 a9be e0dc 19bf
000001a0: 43f8 7ebe 1664 393f 0368 32be 7902 b83e
000001b0: 81c5 cc3e 0044 a1be e000 293f 8902 383f
000001c0: 9727 82be 63db 1e3f c9aa bc3d 43f9 3b3f
000001d0: 018b 01bf e577 34bf 14c9 1f3f 5fdc 1ebf
000001e0: bdd8 f5be 6c20 353f 7ae1 923e 5521 e8bd
000001f0: 3c33 c63a 14e5 b83e 8c4e 9c3d 90a6 043f
0.44775888 0.42263815 0.10815269 -0.48338813 -0.32607025 -0.7831204 -0.07887958 0.6664116
0.11038468 -0.49641296 0.047415093 0.035715673 0.73870605 0.25612095 -0.63876814 0.7624809
0.7394434 0.41148934 -0.75158525 0.29181647 -0.51362646 0.7362138 0.63856816 -0.53737533
-0.1695712 -0.14733687 -0.14544843 0.6229656 -0.7194438 -0.14766769 0.2216287 0.043673538
-0.6040746 0.26628792 0.5892654 0.6380128 -0.13037707 0.22470601 -0.47715393 -0.17378414
-0.47552064 -0.51972747 -0.54041475 -0.027976166 -0.11739784 0.16619623 -0.30424902 0.5279097
0.65386724 0.69498676 0.069804214 -0.67714113 -0.28744078 -0.7287498 -0.016513847 0.1120841
-0.7174037 0.1347136 0.42578307 0.77552915 0.29496837 0.34182948 -0.18699956 -0.27281076
-0.026298817 -0.20604455 0.31289393 -0.5331184 0.23836148 0.1456755 0.3555209 -0.5820877
-0.5450102 -0.52791333 -0.5669292 -0.11549271 -0.33340102 0.79979956 -0.6806437 -0.60951996
0.615603 0.5462072 -0.3641906 -0.48798755 -0.52097934 0.36830908 -0.18761507 0.22977558
0.54045254 -0.0016259324 0.41393536 -0.3829718 0.17585087 0.44693086 0.67021656 0.4886791
0.44257063 0.40521017 0.23656094 0.0066609466 0.08610708 -0.31636328 -0.33073622 -0.60102654
-0.24899392 0.72418344 -0.1742249 0.35939386 0.39994434 -0.31497192 0.6601696 0.7187887
-0.2542083 0.6205351 0.09212262 0.7342722 -0.5060273 -0.70495445 0.62416196 -0.6205501
-0.4801692 0.70752597 0.2868765 -0.113344826 0.001512147 0.36112273 0.07632169 0.51816654

net.2.weight f4 [128, 128]
00000000: 3e69 5f3d 3648 73bc 9f39 363c e529 503d
00000010: 5d38 0b3c 3add c0bd a55d d23c bad9 a53c
00000020: c90b 1ebd 96fb bfba fc58 a53d 000c e13d
00000030: 5b7d 17bd 3fad b0bd 981b 763c c260 cfbc
00000040: a2ba 093e 947c 47bd 33d7 1dbe 5896 e23c
00000050: e405 e43c cbb3 e6bd 953e 563d b277 10bc
00000060: c7cf 39be 623c 37be fd84 a63d 168e 9f3d
00000070: 2c62 8abd da81 eb3c de42 a4bc 7b2f ba3a
00000080: b81c 38bc 1368 93bc 6bce 1a3e 151a 41bd
00000090: c846 193d 65af 37bd 70ce 193e e19d d6bd
000000a0: fd7d ed3c dab3 e43d 5890 11be 26ff a3bc
000000b0: 3fc6 a7bc 451e fa3c 29a7 7d3d 496a ebbc
000000c0: fe9c 21bd 21f0 2f3d ecb7 bebc e839 a9bd
000000d0: c2b6 49bd 84df 86be c1dc f7bc 2837 e7bd
000000e0: 597c 2f3e f5ac 923d 2a34 1f3d 0159 abbc
000000f0: 8a0d 243d 3a42 ce3d 134a 8d3d 6926 c8bd
00000100: 6c83 9e3d 0155 a33d 1661 6c3d 5178 82bd
00000110: 0f53 c4bc a5a5 b83c 39b4 063c e1a3 25bd
00000120: e424 febc 0e03 11bd 53bf 8fbd 595c 823d
00000130: 7bd0 22bc fa21 b739 257a 84be d343 963d
00000140: efb7 b83d 06e7 033d 3d54 a5bd 8acb 7ebd
00000150: 1e00 31bd 3b2d b23d b8cb 94bd ab2c 8f3c
00000160: 21ff ef3d 2a2d 67bd 3d40 d13c 3480 6f3b
00000170: 423a 52bc 8819 86bd d3e4 f03a 7566 73bd
00000180: 1f93 6e3d 04c7 89bd 3abc 1d3e b992 e0bb
00000190: 31a7 46bc 7de4 23bc 0db9 7abd 9d5b 8abd
000001a0: 92d5 bcbe 96fd c83d 9aac 68be 7d97 a4bd
000001b0: c7df b53d 4cdb f33d cca3 263c 4163 c13d
000001c0: edfe 0dbd 538d 353d a4d6 80bd e372 f43d
000001d0: 322d b0bc b560 c1bc dec8 123d 4b01 483d
000001e0: 66d3 473d 420f 013e 1bd0 043e 6b29 b3bb
000001f0: 6052 d83d edc9 64bd f6d0 70bb fa14 053c
00000200: ca4b ac3d eac7 0c3c 70f1 e23c aaae a13d
00000210: da5e 4dbd 9562 b8be 9686 db3b 0367 ce3d
00000220: 2fa1 babd 2567 13be 089a 323d 6bec 80bd
00000230: c4a7 3fbc f0ac d73d e6b2 843d fd54 343d
00000240: 185f 8e3d 3b55 c8bd 329a f03c ad91 a6bd
00000250: 8977 1c3b 6fe6 1dbd a193 2b3d 0545 9abd
00000260: d72d 87bc b63f 073e 8fb7 80bd 36af d6bc
00000270: 0184 2ebe e77b 25bd 9fcf 3e3d 8250 6a3c
00000280: a944 79be b3ea 6bbc c864 d0bd 9b79 da3d
00000290: 987c 1bbc c37c 01bb e04a c4bc 29da 423e
000002a0: 70f5 60bd 5c51 c03a 7edf ad3d 3260 3abc
000002b0: fca9 3c3c 8956 abbd 386b 2ebd a97f c5bc
000002c0: 3ba3 973d 79d2 903c 4a8b 2b3c 6bca 413e
000002d0: 128f b8bd 6a74 73bd 1b2f 9fbd 01d0 3abd
000002e0: 03e9 95bd bb3c b13d a3d8 6a3d 4a45 df3d
000002f0: 624e 55bd cf1c 43bd 3755 08be e567 423c
00000300: 7bf0 183d b4cf 553d ac30 6e3d 0cd8 7ebd
00000310: 6b11 5cbd a350 8c3d 40c5 4d3d cd52 873d
00000320: baa2 a53d 1584 cabc 7633 b7bd 0a72 843d
00000330: f605 3a3c ec91 413b f6dc 77bd def7 0f3d
00000340: 169a a3bd 4ba3 0f3d fadd d1bd 7c09 8b3c
00000350: 1870 19bd a1c2 0f3d 97de 983d f22d 253d
00000360: cdaa ce3d bf44 dd3d 93cb 673c 138b adbd
00000370: 5c53 313d f3a9 2d3c f2f8 a63a 8dca 383d
00000380: 5d9d 93bc d245 9a3d 5a84 d0bd f48a 783c
00000390: ec15 52bb 996e b8bc 2a94 033e 9eb4 98bd
000003a0: 2fe2 c73d 750b c8bc f637 563c 3808 ddbd
000003b0: 5334 8cbd 10c0 103d 63ac d93d cbbf 943d
000003c0: b03f 72bd 9047 de3d 9e57 a7bd 29dc 2dbd
000003d0: 44fa 893d 9fb3 e63d 750b 733d f047 283b
000003e0: 48bf 8f3c d523 593d 9ff5 1b3d 7e57 11be
000003f0: 1cac 6fbc bbea 3c3d 061d e3ba c1f6 b23d
0.054543726 -0.014848759 0.011122136 0.050821204 0.008497325 -0.094171956 0.025679419 0.020245422
-0.038585458 -0.0014647122 0.08073613 0.10988617 -0.036984783 -0.08626794 0.015021227 -0.025314692
0.13450101 -0.04870279 -0.15414123 0.02765958 0.02783484 -0.112647615 0.052305777 -0.0088176
-0.18145667 -0.17894128 0.08130834 0.077907726 -0.06757006 0.028748441 -0.020051416 0.0014204824
-0.011237316 -0.017993962 0.15117805 -0.047144014 0.037421018 -0.044845004 0.15020156 -0.10479332
0.02899074 0.111671165 -0.14215219 -0.020019125 -0.020480273 0.030532012 0.061926994 -0.028737204
-0.03945636 0.042953614 -0.02328106 -0.08262998 -0.049246557 -0.26342404 -0.03025663 -0.11289817
0.17137279 0.07161895 0.038868107 -0.020916464 0.040051974 0.100712255 0.06898894 -0.09772951
0.077399105 0.079751976 0.057709776 -0.06370605 -0.023965387 0.022539923 0.008221679 -0.04043949
-0.03102345 -0.035403304 -0.07018914 0.0636527 -0.009937401 0.00034929794 -0.2587444 0.07337155
0.090194575 0.032202743 -0.08072708 -0.06220583 -0.043213002 0.08700033 -0.07265419 0.017477354
0.11718584 -0.056439556 0.025543327 0.003654492 -0.012831273 -0.065478384 0.0018378742 -0.059423883
0.058245774 -0.06727412 0.15403834 -0.006853428 -0.0121248225 -0.010003206 -0.061211634 -0.06755755
-0.3688169 0.09813993 -0.22722092 -0.080367066 0.08880573 0.11907062 0.010170888 0.09442759
-0.034666944 0.04432423 -0.062909395 0.119359754 -0.021505926 -0.023605684 0.035836093 0.048829358
0.04878559 0.12603477 0.12970011 -0.005467584 0.10562587 -0.055856634 -0.0036745644 0.008122677
0.08412893 0.008592585 0.027703017 0.07894643 -0.050139286 -0.36012712 0.0066993935 0.10078242
-0.091127746 -0.14394815 0.043603927 -0.06295093 -0.011697713 0.10531032 0.06479435 0.044026364
0.069517314 -0.097818814 0.029370401 -0.08133254 0.002387496 -0.038549837 0.041888837 -0.07532696
-0.01650135 0.13207898 -0.06285011 -0.026206594 -0.17042543 -0.040401366 0.04658472 0.014301421
-0.24342598 -0.014399218 -0.101754725 0.10667726 -0.009490155 -0.0019758202 -0.023961484 0.19028534
-0.054921567 0.0014672684 0.084898934 -0.011375474 0.011515137 -0.08366115 -0.04258272 -0.024108725
0.074041806 0.017678486 0.010470221 0.18924873 -0.090116635 -0.059437193 -0.077726565 -0.045608524
-0.07319834 0.086541615 0.057335507 0.10901888 -0.052076705 -0.047634896 -0.13313757 0.011865591
0.037338715 0.052200034 0.058151886 -0.062217757 -0.05372755 0.06851318 0.05023694 0.0660759
0.08087678 -0.024721185 -0.08945362 0.06467064 0.01135396 0.002953644 -0.06051346 0.035148494
-0.07988374 0.035067838 -0.10247417 0.016972296 -0.037460417 0.035097722 0.07464331 0.04032702
0.100911714 0.10804128 0.014147657 -0.08473792 0.04329239 0.010599601 0.0012738986 0.045115042
-0.018019373 0.075328484 -0.10181494 0.015169848 -0.0032056523 -0.022513675 0.12849489 -0.07456325
0.09759938 -0.024419526 0.013074866 -0.10792583 -0.068459176 0.035339415 0.10628583 0.07263144
-0.05914277 0.10853493 -0.081710085 -0.04244629 0.067371875 0.11264729 0.0593371 0.0025677644
0.017547265 0.053012688 0.03807604 -0.14193532 -0.014628436 0.046122294 -0.0017327375 0.08738471

net.2.bias f4 [128]
00000000: 914a 77ba 26c4 ae3d 2494 0b3e cfdf 55bd
00000010: 8e31 f6bd 3bd0 a03c 0811 a23d 680e 3f3d
00000020: ced2 b7bd d5a4 e0bd 84f7 c3bc 9f74 7fbd
00000030: fc02 b0bc 39b6 613d 504b 7fbd b516 6d3d
00000040: 87da 86bd 97fd b53d c4b7 fa3c 2774 923d
00000050: 73f8 ae3d 3bac 3b3d b036 133e 3cbb 94bc
00000060: e7b0 c0bd 6d42 903d 9301 313c 0af7 d1bd
00000070: a2bd 413d 9c14 833d e628 abbd 7cd9 623d
00000080: 81cc cf3d 6ab7 b43d 4e2d a53c 7bbe 5e3d
00000090: 8e12 52bd be81 793d 84f2 81bc f950 7dbd
000000a0: 7910 cabd b630 31bd dc46 8c3d 98c9 9fbd
000000b0: 234f 0fbd bb0c 9a3d 8374 5f3d 092c 8d3b
000000c0: 5fb9 abbc 3e40 a8bc f99b 723d 0dc6 00bd
000000d0: 0a5b 4b3d a86b abbc c49e e7bd 7d9b 38bd
000000e0: d817 903d 63c0 803d 4c80 7bbd 680a 523d
000000f0: a172 493d 58f8 9bbc 9623 7d3d 464c 51bd
00000100: ae37 d83c 9733 f43d 2ba2 ce3d 9582 20bd
00000110: 7a9a abbd b87c e53d 5941 a5bd 8419 293d
00000120: 8d7a 043c 0e8e 1ebd c11a efbd c1d8 5ebd
00000130: 4fec d93b 2f38 cf3d f1b0 05bd f2b1 12bd
00000140: 1d69 56bc 186d ccbc 117a afbd 5c18 133d
00000150: 62ca 7f3c 0629 d2bd 801f 883d 9ae7 193e
00000160: 5917 a7bd db0a d2bc 8e41 623d 7e5f c73d
00000170: 6f08 be3d 0d27 c93c ede3 863d a913 783c
00000180: 95c3 7c3d e6cd b139 ad0d 8dbd af84 8e3b
00000190: 63e7 6a3d 6f80 9c3a a8f7 6bbd d1b0 a23c
000001a0: c28f 863d bc0b ba3c a9b7 aa3d 5f63 8fbd
000001b0: 3141 b3bd af1e a33d d3fa bd3c deb8 41bd
000001c0: b8ed 92bd 2538 a93d fe05 083e 6e32 f23d
000001d0: 821f 43bd c770 ab3d cb12 fdbd bbae ccbd
000001e0: 1095 0e3d 8a47 b4bc 8478 203d ce78 943c
000001f0: 3c07 e6bc d06a a73a 852c 3bbc 03e3 9ebc
-0.00094334135 0.08533506 0.1363073 -0.052215394 -0.120211706 0.019630542 0.07913405 0.0466446
-0.08975755 -0.10968939 -0.023921736 -0.062367078 -0.021485798 0.05510542 -0.062327683 0.057882983
-0.065846495 0.08886259 0.030605204 0.071510606 0.08543482 0.04581855 0.1437633 -0.018155687
-0.094087414 0.0704392 0.010803598 -0.10252197 0.04729999 0.06400415 -0.0835741 0.05538319
0.10146428 0.08824046 0.020163205 0.054380875 -0.051287226 0.060914747 -0.01586271 -0.0618448
-0.09866423 -0.043259345 0.06849453 -0.07802123 -0.03498758 0.075219594 0.054554474 0.004308228
-0.020962415 -0.020538446 0.05923078 -0.031438876 0.04964737 -0.020925358 -0.11309579 -0.04507016
0.07035798 0.06286695 -0.06140165 0.051279455 0.049181584 -0.019039318 0.061801516 -0.05109813
0.026393738 0.119239025 0.10089525 -0.039187033 -0.083790734 0.11205429 -0.08069105 0.0412841
0.008085859 -0.038709693 -0.11675025 -0.05440593 0.0066504846 0.10118138 -0.032639448 -0.035814233
-0.013086584 -0.024954364 -0.08568204 0.035911903 0.015612217 -0.10261731 0.06646633 0.15029755
-0.0815875 -0.025639942 0.0552383 0.097350106 0.09278952 0.024554754 0.06586442 0.015141406
0.06170996 0.00033913477 -0.06887374 0.004349313 0.057349574 0.0011940132 -0.05760923 0.019859703
0.065703884 0.022710674 0.08335812 -0.070013754 -0.08752669 0.07964837 0.023190891 -0.047295444
-0.071742475 0.08262662 0.13283536 0.11826025 -0.04763747 0.0837112 -0.123571 -0.09994265
0.034810126 -0.022006769 0.039177433 0.01812401 -0.028079621 0.0012772921 -0.0114241885 -0.019395357

net.4.weight f4 [1, 128]
00000000: dcd8 073e d6c6 0cbe 1f64 283e 4800 e3bd
00000010: 27e4 cbbe 0088 4a3e 40df ff3d 47af 133e
00000020: b35a 1ebe 1e5f 68be 8436 6dbe af11 5abe
00000030: 9e21 80bd 8b4a ac3d b500 1fbe 834f 18be
00000040: 1f60 5ebe 2420 6a3e 1a81 5fbe bf49 833e
00000050: ad23 d9bd 0252 06be 99e4 2a3e 4dc9 ec3d
00000060: c28b 71be f7bd 56be 4298 443e 41fb fabe
00000070: ad84 f0bd 5f07 323e ced8 893c f44f 463e
00000080: 9c26 813e 6cca c73d 07e8 c83e 78d3 a2bd
00000090: 5416 5d3e d2e6 d13e e75a 20be 8161 9ebd
000000a0: 071e 8d3e 6ce1 973d 40e3 5b3e 29bc 07be
000000b0: fa94 193e 24f0 98be 7147 48be cf7a a03e
000000c0: 621b fb3d 6115 b4bd 8608 23be 70a0 893e
000000d0: 404c bb3d fa6c 173e 0a7a f0be 3143 75bd
000000e0: 81c1 f3bd a6a1 03be a0e3 fb3d f54c 29be
000000f0: 0779 1c3e 9fa7 ba3e 7515 3bbe 8e8f bdbb
00000100: 8e66 dcbd 6596 45be f994 06be 174d 8bbd
00000110: 8cd4 123d 236a 61be 9e11 753d b5cc 1b3e
00000120: e50a 933e 9683 1b3e 66e4 dabd 46d6 20be
00000130: 6426 91be 06c2 1c3e 025a 243e 7f17 01be
00000140: 63c2 40be 099f 4ebe 74f3 13be d1b8 30be
00000150: 7a5f ce3d 3a01 413e 4a6d 6e3e d85f 333e
00000160: 54b2 a33d d62c 47be d6cb a23e 80d1 23be
00000170: b762 19be e836 d8bd c860 d43d 0d46 2d3e
00000180: 6a18 94bd 8da0 283e ee65 583e 9166 f7bd
00000190: eff0 f3bd 4e47 0fbe b980 aebe 599b 29be
000001a0: 10ac 22bd 2a31 86bd 428b c13d 8068 13be
000001b0: a625 553e cde8 193e c848 26be 9ebe 9dbd
000001c0: c547 39be 7383 bdbd 22aa c0bd c26d 983e
000001d0: 72f9 e23d 29c3 6b3e 02cf 4f3e 70b1 2fbe
000001e0: 968c 28be cc20 283e f05f 1d3d d711 293e
000001f0: 622f 213e ef7d 34be 6532 243e 2e3a 2fbe
0.13266319 -0.13747725 0.16444443 -0.11084038 -0.39822504 0.19778442 0.124937534 0.14422332
-0.15464287 -0.22692534 -0.23165327 -0.21295808 -0.06256412 0.084126554 -0.15527613 -0.14874081
-0.21716355 0.22863823 -0.21826592 0.256422 -0.10602508 -0.13117221 0.16688766 0.115618326
-0.2358847 -0.20970903 0.19198707 -0.49019817 -0.11744056 0.17385624 0.016827013 0.19366437
0.2522477 0.09755406 0.39239523 -0.07950491 0.21590549 0.40996414 -0.15659676 -0.07733441
0.27561972 0.07416043 0.21473408 -0.13255371 0.14998236 -0.29870713 -0.19558503 0.31343696
0.12261082 -0.0879314 -0.1592122 0.26880217 0.09145403 0.14787665 -0.46968108 -0.05987853
-0.11902142 -0.12854633 0.122992754 -0.16533263 0.15280543 0.3645601 -0.18269904 -0.0057849353
-0.10761748 -0.19295652 -0.13142766 -0.06801813 0.03584723 -0.22013144 0.059831254 0.15214808
0.2871925 0.15186915 -0.10688095 -0.15706739 -0.28349602 0.15308389 0.1604996 -0.1260662
-0.18824153 -0.20177855 -0.14448339 -0.17258002 0.100768045 0.18848124 0.23283878 0.1751703
0.07992998 -0.19450697 0.3179614 -0.15997887 -0.14979063 -0.105573475 0.10370022 0.16921254
-0.07231219 0.16467495 0.21132633 -0.1208011 -0.11911189 -0.13992044 -0.34082583 -0.16563167
-0.039714873 -0.06552346 0.094503894 -0.14395332 0.20815143 0.15030213 -0.16238701 -0.07702373
-0.18093784 -0.092535876 -0.0940745 0.2977124 0.11082734 0.23023666 0.20293811 -0.17157531
-0.1645988 0.16418761 0.03842157 0.16510712 0.15740731 -0.17626165 0.16034849 -0.17112038
