benchmarks/nd/dim_8/width_16/deg_8_seed_987.pt (torch, 1575 bytes, 2 tensors)

net.centers f4 [16, 8]
-0.16318053 2.408805 -2.114409 -0.6239769 -0.5721274 0.38441658 1.4599538 1.2399632
-2.0847864 1.2043178 0.9405142 1.2432334 -1.3633361 2.4197018 1.9075379 0.5405006
1.0345294 1.983001 0.81415206 1.2483382 1.4721394 -0.39522618 -2.052655 -0.81145376
2.3712792 -2.3434348 -0.048951805 -0.6151131 -2.076975 -1.5578113 -2.4150012 1.4264927
-2.2513661 0.031605065 0.38941085 2.0892258 -0.13967544 0.49541384 -1.0260012 2.0490277
2.2934518 2.3806124 1.0486851 0.12356877 0.339047 1.2716037 1.0070851 -2.0021794
2.451714 1.9223073 2.1106644 -2.235083 1.4780611 1.9654995 2.443962 -1.3783278
-0.31357318 -0.05905509 -1.8529034 0.14397979 -1.9221371 -1.6476238 1.8910849 -0.59016675
-0.83955437 2.0024 1.8447032 -1.1129355 -0.7464579 -1.5597639 0.79025567 -1.9845715
2.2743354 -2.2316468 1.240696 -2.300894 -2.0613658 0.8074212 0.36866575 0.24494618
0.218952 1.8342471 -0.28579116 -2.2029977 0.7081464 -0.11422813 -1.0058513 -0.027423799
-0.24471521 -0.85609466 -0.021920204 -2.0364914 -0.6134409 2.4720554 0.8328977 -1.4401937
-1.137413 2.084755 -1.0314837 2.012681 -2.0195513 1.2584784 2.065191 0.8702788
-1.5541071 2.4030612 -1.8473136 -1.1807265 0.6992811 -1.4034739 1.6852202 0.09673536
1.8143475 0.09379029 1.1193669 2.0556257 1.8006414 1.9660797 -1.1559937 2.2952976
1.800127 -0.04673302 -0.23203582 -2.207048 0.97640336 0.5304125 1.7109404 -1.0687661
00000000: cc18 27be dc29 1a40 7a52 07c0 f3bc 1fbf
00000010: f176 12bf 40d2 c43e c4df ba3f 1db7 9e3f
00000020: 246d 05c0 1627 9a3f 8ac5 703f 4622 9f3f
00000030: cc81 aebf 65dc 1a40 342a f43f 3f5e 0a3f
00000040: 766b 843f fad2 fd3f 456c 503f 8cc9 9f3f
00000050: 106f bc3f 165b cabe b35e 03c0 6fbb 4fbf
00000060: 0ac3 1740 d6fa 15c0 b081 48bd 0d78 1dbf
00000070: 29ed 04c0 5c66 c7bf 618f 1ac0 5097 b63f
00000080: 6216 10c0 5074 013d dc60 c73e e0b5 0540
00000090: 1407 0fbe e2a6 fd3e 0254 83bf 4523 0340
000000a0: eac7 1240 f45b 1840 503b 863f a011 fd3d
000000b0: 9297 ad3e e9c3 a23f 2ae8 803f b523 00c0
000000c0: e2e8 1c40 2a0e f63f 2015 0740 9a0b 0fc0
000000d0: 1b31 bd3f 7d95 fb3f e069 1c40 0c6d b0bf
000000e0: aa8c a0be c0e3 71bd f02b edbf 706f 133e
000000f0: 9708 f6bf 56e5 d2bf 120f f23f 2b15 17bf
00000100: 09ed 56bf 5227 0040 3c1f ec3f ac74 8ebf
00000110: dd17 3fbf 58a6 c7bf 324e 4a3f 7006 febf
00000120: b68e 1140 4dd3 0ec0 20cf 9e3f d941 13c0
00000130: 6bed 03c0 28b3 4e3f c2c1 bc3e 2cd3 7a3e
00000140: f434 603e 9cc8 ea3f 3853 92be eafd 0cc0
00000150: 1549 353f 70f0 e9bd bcbf 80bf e0a7 e0bc
00000160: a096 7abe 0529 5bbf 0092 b3bc e055 02c0
00000170: 760a 1dbf 2836 1e40 c938 553f 4458 b8bf
00000180: c096 91bf a06c 0540 a807 84bf c4cf 0040
00000190: 5440 01c0 d215 a13f 172c 0440 97ca 5e3f
000001a0: fbec c6bf c1cb 1940 c674 ecbf 0c22 97bf
000001b0: 1604 333f 08a5 b3bf 4cb5 d73f 301d c63d
000001c0: 8a3c e83f 2015 c03d 6a47 8f3f 5f8f 0340
000001d0: 6b7b e63f 80a8 fb3f 9af7 93bf 28e6 1240
000001e0: 906a e63f 206b 3fbd cc9a 6dbe 4640 0dc0
000001f0: 92f5 793f 1dc9 073f 1800 db3f 54cd 88bf

net.bias f4 [16]
-0.05256716 0.18949218 -0.045484927 -0.13254778 -0.062208474 0.0035682984 -0.10023069 -0.0011152867
0.009924664 0.00068134896 0.032633472 -0.053330477 0.0457215 -0.053079635 -0.063726395 -0.10432398
00000000: aa50 57bd 3d0a 423e 674e 3abd 9bba 07be
00000010: 50ce 7ebd 1dda 693b bf45 cdbd d02e 92ba
00000020: 0f9b 223c 8e9c 323a adaa 053d 0f71 5abd
00000030: 7846 3b3d 086a 59bd fc82 82bd d0a7 d5bd
