benchmarks/nd/dim_32/width_256/deg_8_seed_987.pt (torch, 34855 bytes, 2 tensors)

net.centers f4 [256, 32]
-2.3525655 -1.2626809 2.21914 -2.0294018 -0.3907308 -2.3174367 -1.936377 1.3414001
0.30468017 -0.8714533 0.315696 0.60052335 -0.26079 -1.3911691 -1.7191257 -2.0363984
0.52814156 -1.0055536 -1.8898227 -2.3905482 0.041037202 -1.9944507 -0.38588673 0.3308183
-2.444715 -1.35811 1.0130241 -0.48983395 -0.09183109 1.9122708 0.3844583 -1.090797
-1.2900832 0.4652843 -1.1490673 1.3915899 -0.94903857 -0.059441924 -0.31017363 0.40753275
-1.2687399 1.3037953 -1.1579034 1.962443 -0.477843 -1.3653803 0.26081383 -1.9191176
1.7008219 0.44058412 -1.2117352 -0.48095375 -2.3568938 0.4610601 0.527533 -0.9007752
0.21651804 -1.3604838 1.9475701 0.8193147 -2.4459949 -0.65046877 1.2622776 0.68024695
2.285799 -1.5235438 -2.122849 -0.7757926 -1.8798792 -1.1342678 -0.5270314 1.6133223
-1.6194007 0.9155798 0.069496036 -0.2806899 -0.31706482 -0.35093278 -2.292243 2.1989167
-1.7575002 0.61166674 2.4895513 -1.6897342 -0.88201463 1.3456637 1.9119018 -0.029424429
2.0988688 0.4750985 2.0561767 -1.4820716 1.5580883 -1.975436 1.8406675 -2.4084399
-2.2202718 -1.4866853 0.082784295 0.4495129 1.5318209 0.32706738 -0.8589369 1.047174
1.1012056 -0.51721513 -1.8437707 0.89007825 -1.8100464 2.1732614 0.23540616 2.2057748
-1.8862393 -2.191278 -1.0667342 -0.6282607 0.0036349893 -1.3885643 1.4624822 -0.9995082
-1.1396462 1.351524 0.33854216 0.6756559 -1.4137771 -0.52282184 -0.5737075 2.4540486
1.3215806 -0.5158305 -1.4308605 0.12520939 1.365425 0.6542292 -1.4491572 0.15782654
1.6079555 2.1604662 1.1411712 0.96755564 0.5983576 1.8351614 -1.2580496 1.0800145
-1.3157258 1.8611258 1.1142049 -0.17597556 2.3944185 -2.130711 -1.8545765 0.857051
1.044605 1.7263303 -1.0189185 -1.6385126 -1.3125306 1.7049077 2.464391 2.1668303
-0.86286545 -0.7440546 1.6917497 2.1522448 -0.35229236 0.12940347 2.1531563 -0.75493515
1.310994 0.42450577 -1.0302529 -0.47019273 -0.18499702 1.413824 0.06665647 0.94249755
1.6747103 0.6787661 -0.9780872 -1.2882215 1.8329833 0.67875266 2.3660052 0.16266018
0.21011859 -0.5526385 -1.6309875 0.32699287 1.8497016 -0.14555454 1.9526687 1.803731
1.253272 2.2416868 -1.3634402 -1.1283392 2.4488318 -0.25054157 -1.8846145 -2.171864
0.87744415 -0.98029613 0.999535 0.97227603 2.0659354 -2.1665964 2.4940128 -0.7834968
-2.4621236 0.3460908 0.2521369 -0.5354658 -0.32380015 0.80053806 -1.9972847 1.697618
1.2398181 0.40987968 -1.230639 -1.3732976 -1.9435718 1.5239501 2.3302822 -1.5037587
0.124118626 -1.229228 1.299628 -0.8588636 -1.45693 -2.1747203 1.2561736 -1.592176
-0.85891366 -2.4847496 -1.9677377 1.0689738 2.480862 -2.136308 1.1181206 0.95652103
-2.2800417 -1.5820605 0.679217 -1.9329073 -1.6066859 0.27323812 -2.4924312 -1.8634925
-0.20941526 0.86752206 -1.8828672 1.5569568 -2.0326157 0.72113454 -0.2754417 -0.5514246
00000000: 6f90 16c0 879f a1bf 6406 0e40 b8e1 01c0
00000010: de0d c8be e250 14c0 34db f7bf 00b3 ab3f
00000020: 0aff 9b3e 9017 5fbf e8a2 a13e e6bb 193f
00000030: 4486 85be d411 b2bf 500c dcbf 5a54 02c0
00000040: 4934 073f fbb5 80bf b6e5 f1bf befe 18c0
00000050: a016 283d 294a ffbf f292 c5be 0461 a93e
00000060: 3676 1cc0 8cd6 adbf c6aa 813f 84cb fabe
00000070: f011 bcbd 4ac5 f43f b8d7 c43e 3c9f 8bbf
00000080: 7221 a5bf be39 ee3e a314 93bf 9e1f b23f
00000090: 31f4 72bf 6079 73bd 14cf 9ebe 22a8 d03e
000000a0: 1266 a2bf c4e2 a63f 2e36 94bf 5531 fb3f
000000b0: d6a7 f4be c8c4 aebf 6489 853e a5a5 f5bf
000000c0: 88b4 d93f 3e94 e13e 241a 9bbf 923f f6be
000000d0: 59d7 16c0 1210 ec3e 670c 073f 3499 66bf
000000e0: e8b6 5d3e 5524 aebf fa49 f93f 9cbe 513f
000000f0: 2e8b 1cc0 1f85 26bf 5092 a13f aa24 2e3f
00000100: 884a 1240 7c03 c3bf c2dc 07c0 589a 46bf
00000110: e29f f0bf b02f 91bf 88eb 06bf 5881 ce3f
00000120: 8648 cfbf 7063 6a3f f053 8e3d 96b6 8fbe
00000130: 5256 a2be 76ad b3be 1cb4 12c0 0dbb 0c40
00000140: c4f5 e0bf 3196 1c3f cf54 1f40 3649 d8bf
00000150: b6cb 61bf b53e ac3f 33b9 f43f 800b f1bc
00000160: de53 0640 1c40 f33e 6698 0340 86b4 bdbf
00000170: 706f c73f 16db fcbf fe9a eb3f e123 1ac0
00000180: ef18 0ec0 b44b bebf d08a a93d 8e26 e63e
00000190: b512 c43f 6075 a73e 4ae3 5bbf cc09 863f
000001a0: 4ef4 8c3f 3668 04bf ae00 ecbf 2bdc 633f
000001b0: 9aaf e7bf b716 0b40 500e 713e 6a2b 0d40
000001c0: 4a70 f1bf e63d 0cc0 bf8a 88bf b1d5 20bf
000001d0: 0039 6e3b 7abc b1bf 9e32 bb3f c5df 7fbf
000001e0: eddf 91bf bdfe ac3f 6655 ad3e c9f7 2c3f
000001f0: a6f6 b4bf a7d7 05bf 7fde 12bf 220f 1d40
00000200: 8e29 a93f 780d 04bf 7026 b7bf e436 003e
00000210: 3fc6 ae3f 917b 273f fc7d b9bf 489d 213e
00000220: 7cd1 cd3f 1445 0a40 e611 923f bab1 773f
00000230: f72d 193f 92e6 ea3f c507 a1bf ea3d 8a3f
00000240: b469 a8bf 5f39 ee3f 449e 8e3f f032 34be
00000250: 273e 1940 925d 08c0 c362 edbf b267 5b3f
00000260: 9eb5 853f 64f8 dc3f ec6b 82bf c8ba d1bf
00000270: 0101 a8bf 6a3a da3f 95b8 1d40 59ad 0a40
00000280: c0e4 5cbf 5d7a 3ebf 418b d83f 61be 0940
00000290: aa5f b4be 5882 043e 50cd 0940 6e43 41bf
000002a0: a7ce a73f d258 d93e 54df 83bf 1abd f0be
000002b0: dc6f 3dbe 2ff8 b43f 3083 883d 8547 713f
000002c0: e85c d63f 9dc3 2d3f ec63 7abf 71e4 a4bf
000002d0: 329f ea3f bcc2 2d3f a16c 1740 6490 263e
000002e0: 5429 573e b779 0dbf 33c4 d0bf 9c6b a73e
000002f0: 06c3 ec3f 400c 15be 0cf1 f93f a8e0 e63f
00000300: 386b a03f cc77 0f40 3585 aebf 6b6d 90bf
00000310: a9b9 1c40 fc46 80be 0c3b f1bf d2ff 0ac0
00000320: 2ea0 603f b0f4 7abf 87e1 7f3f 15e7 783f
00000330: 4938 0440 84a9 0ac0 e89d 1f40 3f93 48bf
00000340: 6f93 1dc0 d032 b13e 1618 813e 4914 09bf
00000350: 22c9 a5be 10f0 4c3f 06a7 ffbf 8c4b d93f
00000360: 5cb2 9e3f c0db d13e 9485 9dbf 37c8 afbf
00000370: f6c6 f8bf cc10 c33f 5823 1540 2a7b c0bf
00000380: e831 fe3d 5857 9dbf 365a a63f 7cde 5bbf
00000390: af7c babf 9e2e 0bc0 4cca a03f 6ccc cbbf
000003a0: c4e1 5bbf 2306 1fc0 d4de fbbf 22d4 883f
000003b0: 71c6 1e40 45b9 08c0 931e 8f3f 90de 743f
000003c0: 34ec 11c0 f580 cabf 2ae1 2d3f 8269 f7bf
000003d0: e2a7 cdbf dee5 8b3e fe83 1fc0 ec86 eebf
000003e0: f470 56be ed15 5e3f cb01 f1bf 5c4a c73f
000003f0: 6016 02c0 469c 383f b206 8dbe 2a2a 0dbf

net.bias f4 [256]
-0.01662991 0.16952896 -0.0053393017 -0.042719077 0.04315873 -0.016778577 -0.23550236 -0.05494834
0.15209456 0.18752334 -0.0043514334 0.07695417 0.0061425394 0.07125708 -0.051672526 0.027668461
0.1763057 0.22718382 0.16366391 0.033833127 -0.045754213 -0.08532842 -0.0072404663 0.015247911
-0.17393368 0.053752948 -0.03048941 -0.017897343 -0.13721244 -0.20189981 -0.09651641 0.014751548
0.13677754 0.14649346 0.21444343 0.036478963 0.15162307 0.24550357 0.0508503 -0.059268422
-0.17118722 0.03022015 -0.19534062 0.0004281888 0.0842639 0.17317478 0.018781189 0.11716121
-0.038959246 -0.053563833 -0.07968291 0.059217673 -0.07911706 0.10265547 -0.12381518 -0.094990745
-0.09960757 0.023143282 0.084174715 0.13593723 0.0662351 -0.06987013 0.058404308 -0.010590096
-0.067752525 -0.074181326 -0.14731465 -0.17078473 0.11900909 0.1357926 -0.004668716 0.043585382
-0.043582555 0.08655304 -0.121392526 0.12875907 -0.10038977 -0.012917697 0.09945503 0.030225782
0.13012569 0.00098895 0.026429346 -0.05705885 0.056065954 0.077151 0.09127813 -0.044579234
0.009523683 -0.017493352 0.0878271 0.057787694 -0.093336575 -0.031924367 -0.05656932 0.07476668
-0.017450098 -0.075388595 0.0037656773 -0.08221865 0.031180039 0.054342896 0.1601574 -0.18219964
0.09688514 0.11629051 0.042387065 -0.07225707 -0.079447344 -0.15717119 0.09490203 0.027774988
-0.18530391 -0.0882973 0.061228532 0.061751384 -0.037447102 0.100683056 -0.0029514318 0.09259355
-0.014507211 0.11553524 0.13391648 -0.07887569 -0.1849708 -0.06771865 -0.112149335 -0.10924115
0.02874442 -0.033540096 0.045243423 0.18190762 -0.06561406 -0.23098142 -0.041617494 -0.014837916
0.15890084 0.22466283 -0.075968266 0.019993475 -0.10817106 -0.039861247 0.052815 0.022625795
0.014799252 0.106109574 -0.11470174 -0.13572566 0.025117332 -0.01943072 0.058434058 -0.14685722
-0.008212953 -0.041838482 0.07391422 -0.12404256 -0.1779719 0.0031890168 -0.07240991 0.07789643
0.043703537 0.014031999 0.15388097 0.09568877 0.021633107 0.0980296 0.06600248 0.05081774
0.17934874 -0.04609925 -0.19299659 0.16091858 0.018646892 0.0013185822 0.02370893 -6.389037e-05
0.15068458 -0.012727136 0.016467912 0.10950766 0.011003896 -0.13757734 0.018207334 0.09113543
-0.033338662 -0.13722831 0.078011505 0.09512601 0.07401856 0.019967232 -0.020651262 -0.13709073
-0.0368985 0.14767611 0.105355576 0.1480808 0.06685753 0.024378981 0.036069326 -0.007671799
-0.014870678 -0.0545562 0.030933484 0.09599352 0.0070996406 -0.06559245 0.03905062 -0.027674591
-0.12259495 -0.08964982 -0.15227085 -0.009737107 0.019713426 0.21565895 -0.059645552 0.13152818
-0.034093823 0.012301318 -0.076730944 -0.015054591 0.0047467104 -0.06878891 0.12521587 -0.04270011
-0.08033953 0.0097330315 0.23864703 0.15456809 -0.0018303242 -0.09895322 -0.0280698 -0.06738019
0.16001359 0.09214262 0.016912686 -0.08444913 0.011368865 -0.01939164 -0.18624015 0.071390204
-0.14131255 -0.07106536 0.080251165 -0.049428295 0.012851221 0.1491107 -0.1054212 -0.052992154
-0.16905378 -0.069498844 -0.00068868935 -0.0659421 0.0033793543 0.035180893 -0.03674708 -0.07426315
00000000: 733b 88bc 0099 2d3e 4ff5 aebb 33fa 2ebd
00000010: 35c7 303d 3a73 89bc 8827 71be 8311 61bd
00000020: adbe 1b3e 1e06 403e 7896 8ebb 269a 9d3d
00000030: 5b47 c93b 3bef 913d 92a6 53bd f8a8 e23c
00000040: 7b89 343e e0a2 683e 8397 273e 9b94 0a3d
00000050: c568 3bbd abc0 aebd 6f41 edbb 60d2 793c
00000060: ac1b 32be 0d2c 5c3d edc4 f9bc 739d 92bc
00000070: 6b81 0cbe d3be 4ebe 65aa c5bd 7ab0 713c
00000080: 690f 0c3e 6202 163e 0f97 5b3e f76a 153d
00000090: 1443 1b3e 4a65 7b3e 6748 503d 72c3 72bd
000000a0: b44b 2fbe 3f90 f73c 5f07 48be 877e e039
000000b0: 8d92 ac3d bb54 313e 02db 993c 37f2 ef3d
000000c0: bb93 1fbd c065 5bbd cb30 a3bd 3b8e 723d
000000d0: 2008 a2bd 083d d23d d092 fdbd 828a c2bd
000000e0: 0eff cbbd fb96 bd3c cb63 ac3d 2133 0b3e
000000f0: 45a6 873d 1218 8fbd 5b39 6f3d 1582 2dbc
00000100: d6c1 8abd 61ec 97bd a7d9 16be 31e2 2ebe
00000110: 0abb f33d 370d 0b3e 07fc 98bb 9686 323d
00000120: 9f83 32bd b842 b13d a59c f8bd 6bd9 033e
00000130: 2799 cdbd c0a4 53bc 14af cb3d 0f9c f73c
00000140: ab3f 053e a89f 813a 5b82 d83c 8ab6 69bd
00000150: 6aa5 653d 5801 9e3d 07f0 ba3d b798 36bd
00000160: 3909 1c3c 384e 8fbc b2de b33d cab2 6c3d
00000170: 3f27 bfbd 20c3 02bd 3bb5 67bd 461f 993d
00000180: 82f3 8ebc 5665 9abd 95c9 763b 4062 a8bd
00000190: 486d ff3c a896 5e3d 4d00 243e 8b92 3abe
000001a0: b76b c63d b829 ee3d 0f9e 2d3d 84fb 93bd
000001b0: 4ab5 a2bd 7cf1 20be ff5b c23d 5f88 e33c
000001c0: 4fc0 3dbe 37d5 b4bd c5ca 7a3d 05ef 7c3d
000001d0: 2262 19bd eb32 ce3d cf6c 41bb b0a1 bd3d
000001e0: a7af 6dbc bd9d ec3d 6721 093e 9489 a1bd
000001f0: fc68 3dbe 13b0 8abd 8dae e5bd d3b9 dfbd
00000200: 6b79 eb3c 5761 09bd 2b51 393d fe45 3a3e
00000210: aa60 86bd 6586 6cbe 1b77 2abd bb1a 73bc
00000220: e7b6 223e 030e 663e 4095 9bbd 5bc9 a33c
00000230: ca88 ddbd 8c45 23bd 8b54 583d bb59 b93c
00000240: 9078 723c fa4f d93d bfe8 eabd abfb 0abe
00000250: ddc2 cd3c 2c2d 9fbc 8d58 6f3d bd61 16be
00000260: 9f8f 06bc d45e 2bbd 5760 973d 070a febd
00000270: 443e 36be d3fe 503b a64b 94bd 2a88 9f3d
00000280: 7b02 333d 78e6 653c f992 1d3e 79f8 c33d
00000290: ea37 b13c bec3 c83d 4f2c 873d 4326 503d
000002a0: 32a7 373e 91d2 3cbd e6a0 45be d7c7 243e
000002b0: 5ec1 983c 47d4 ac3a 3b39 c23c e2fc 85b8
000002c0: 0f4d 1a3e 7a85 50bc b7e7 863c 8d45 e03d
000002d0: af49 343c 13e1 0cbe 8c27 953c 36a5 ba3d
000002e0: 1f8e 08bd 9485 0cbe 7fc4 9f3d 6dd1 c23d
000002f0: 0b97 973d 5292 a33c d62c a9bc 8361 0cbe
00000300: e222 17bd 6838 173e aac4 d73d 7ea2 173e
00000310: 9aec 883d 6eb6 c73c 6ebd 133d b763 fbbb
00000320: 25a4 73bc 5276 5fbd 3868 fd3c 4098 c43d
00000330: 1aa4 e83b 5655 86bd 8bf3 1f3d d3b5 e2bc
00000340: 1013 fbbd 539a b7bd e4ec 1bbe 6388 1fbc
00000350: 0d7e a13c b3d5 5c3e e54e 74bd 53af 063e
00000360: f7a5 0bbd 788b 493c 1d25 9dbd 88a7 76bc
00000370: 4b8a 9b3b 33e1 8cbd 9738 003e 4fe6 2ebd
00000380: 0d89 a4bd 4b77 1f3c e35f 743e 1947 1e3e
00000390: 7de7 efba fca7 cabd a3f2 e5bc a0fe 89bd
000003a0: 9ada 233e 45b5 bc3d 798c 8a3c aaf3 acbd
000003b0: 7a44 3a3c 37db 9ebc bdb5 3ebe 0735 923d
000003c0: 3db4 10be b78a 91bd b95a a43d 5375 4abd
000003d0: ed8d 523c 7ab0 183e 12e7 d7bd 4d0e 59bd
000003e0: 6f1c 2dbe 6955 8ebd 2989 34ba a70c 87bd
000003f0: 2878 5d3b d719 103d 1b84 16bd 4717 98bd
