checkpoints/nd/dim_2/width_128/method_3p-wgan_rev.pt (torch, 69975 bytes, 5 tensors)

net.0.weight f4 [128, 2]
0	0xbefa11b1	-0.48841622
1	0xbdc71b21	-0.09721971
2	0x3f39a2f7	0.7251429
3	0xbea1133a	-0.3145998
4	0xbf2762ec	-0.6538532
5	0x3e5c3fd0	0.21508718
6	0xbef2d23d	-0.47426024
7	0x3e8861dc	0.2663716
8	0xbece176d	-0.40252247
9	0xbdabb57d	-0.083842255
10	0xbee3d752	-0.44500214
11	0xbe65b879	-0.22433652
12	0x3f14996b	0.580466
13	0xbf053e6d	-0.5204838
14	0xbef3381f	-0.47503754
15	0x3f2a2722	0.6646596
16	0xbe338a94	-0.17533332
17	0xbf257a9d	-0.6464022
18	0xbe902f4c	-0.28161085
19	0xbe983530	-0.2972808
20	0xbd3145fd	-0.043279637
21	0x3f1eb090	0.61988163
22	0x3e7ff21d	0.24994703
23	0xbf442e3d	-0.76633054
24	0x3f1d9a7e	0.6156386
25	0xbda4b1d1	-0.08041728
26	0x3eb20814	0.34771788
27	0xbe3b6bf1	-0.18302895
28	0x3ee3e5ac	0.44511163
29	0xbefb1398	-0.49038386
30	0x3d03e9e9	0.032205496
31	0xbedad69d	-0.42741862
32	0xbf2cf042	-0.67554104
33	0x3e50dc9f	0.2039666
34	0xbda45a84	-0.08025077
35	0x3f13bc96	0.57709634
36	0xbe70c038	-0.23510826
37	0xbeb0c384	-0.34524167
38	0x3b10ed13	0.0022113963
39	0xbf1e8264	-0.6191771
40	0x3e1d8c1a	0.15385476
41	0xbb4217b1	-0.0029616172
42	0xbe6a41d4	-0.22876674
43	0xbf134b5a	-0.5753685
44	0x3ebd0654	0.3691889
45	0x3f194a2d	0.5987881
46	0xbe5a0db9	-0.21294297
47	0x3f228fdb	0.63500756
48	0x3eb452d9	0.35219458
49	0xbef0ae81	-0.47008136
50	0x3f4be865	0.7965148
51	0xbed969b6	-0.42463464
52	0x3e743e37	0.23851858
53	0x3f08e2c8	0.5347104
54	0x3e8e95b8	0.278486
55	0x3e1e5c53	0.15464906
56	0xbf0b5124	-0.54420686
57	0xbec31012	-0.38098198
58	0x3ee69f82	0.4504357
59	0x3ee7b855	0.45257822
60	0x3eb40484	0.35159695
61	0xbd754763	-0.059882533
62	0x3f09ebe4	0.53875566
63	0x3c7c3c97	0.015395305
64	0xbdcec24b	-0.10095652
65	0xbf44ba6b	-0.7684695
66	0x3eb19068	0.34680486
67	0x3f1c0966	0.6095184
68	0x3ec8560d	0.39128152
69	0xbf12547d	-0.5716017
70	0x3ccd64f5	0.025072554
71	0x3daae807	0.08345037
72	0x3ea6e141	0.3259373
73	0xbf34a5a7	-0.70565265
74	0xbebaf934	-0.36518252
75	0x3dfd7968	0.12376672
76	0x3efbfb21	0.49215034
77	0xbe85912c	-0.2608732
78	0x3ec097c0	0.37615776
79	0xbef8ce82	-0.48595053
80	0xbeb98fb9	-0.36242464
81	0xbebfa7c6	-0.37432688
82	0xbea2d654	-0.31804144
83	0xbc9bf61f	-0.019038258
84	0x3f07fff1	0.5312491
85	0x3f13bcad	0.5770977
86	0x3f44dcb1	0.7689925
87	0xbee92046	-0.45532435
88	0xbe87af37	-0.26500866
89	0x3dc17e45	0.09447912
90	0x3f01306d	0.50464517
91	0xbf2d0516	-0.67585886
92	0x3f35c114	0.7099774
93	0x3d365a38	0.044519633
94	0x3b7f9ebe	0.003900453
95	0x3ebc8345	0.368189
96	0x3d80a8b5	0.06282178
97	0x3f1fd543	0.62434787
98	0x3edc0599	0.4297302
99	0xbd1c080e	-0.03809362
100	0xbe9cb712	-0.30608422
101	0xbd76a079	-0.060211632
102	0xbe6a4c4f	-0.22880672
103	0x3b4a2947	0.0030847357
104	0xbf36c48a	-0.71393645
105	0xbeebe507	-0.46073171
106	0xbea8693c	-0.32892787
107	0x3ea6ae12	0.3255468
108	0xbddcf7cc	-0.10789451
109	0x3e97567f	0.2955818
110	0xbf11c924	-0.5694754
111	0x3ef91df9	0.4865568
112	0xbea0e5ef	-0.31425425
113	0x3bc01fec	0.0058631804
114	0x3f5e2bd9	0.86785656
115	0xbeda8449	-0.4267905
116	0x3ea639dc	0.32466018
117	0x3e84ee3d	0.2596301
118	0xbf29d66a	-0.66342795
119	0xbda37e96	-0.07983129
120	0x3e96d3de	0.29458517
121	0x3ef9e9c5	0.48811164
122	0x3e463df7	0.19359575
123	0x3e98f928	0.2987759
124	0xbf39f946	-0.72645986
125	0xbf3c31ac	-0.73513293
126	0x3df32271	0.118718036
127	0xbf2372e9	-0.63847214
128	0x3f00642c	0.5015285
129	0x3f2a5463	0.66535014
130	0xbed43b6d	-0.41451588
131	0xbed56c28	-0.4168408
132	0x3edc9601	0.43083194
133	0xbc32ea23	-0.01092008
134	0x3eddf79d	0.43352976
135	0x3f1c9d02	0.61177075
136	0xbd4c8d0e	-0.049939208
137	0x3f0a2095	0.53955966
138	0xbec059dc	-0.37568557
139	0xbdda842e	-0.106697425
140	0xbecf9348	-0.40542054
141	0x3f09d52d	0.53840905
142	0xbe123d4e	-0.14281198
143	0xbe9991ff	-0.299942
144	0x3f314e6a	0.69260275
145	0xbdaaa8d8	-0.08332986
146	0x3f2e00ec	0.67970157
147	0x3f3fcfb5	0.7492631
148	0xbec75a9c	-0.38936317
149	0x3ed2adca	0.41148216
150	0xbf1ffc50	-0.62494373
151	0x3ebbfa7b	0.3671454
152	0xbe5abf1b	-0.21361963
153	0xbf537aff	-0.8260955
154	0xbf04ac90	-0.5182581
155	0xbf5ce6e7	-0.8628983
156	0xbf07ce9b	-0.5304963
157	0xbf17d96e	-0.59316146
158	0x3e05156f	0.12996458
159	0xbeb387a1	-0.35064414
160	0xbf4c6892	-0.7984706
161	0xbeeec20d	-0.46632424
162	0x3ed1bcd1	0.40964368
163	0xbf21e7fc	-0.63244605
164	0xbe53f042	-0.2069712
165	0xbe109c0a	-0.14122024
166	0xbee06c67	-0.43832704
167	0x3f199b5a	0.6000267
168	0x3e724ed4	0.23662883
169	0x3f219fc3	0.631344
170	0x3ec0b039	0.37634447
171	0x3ea01d57	0.31272385
172	0x3ebe30f1	0.37146714
173	0x3e31fbd0	0.17381215
174	0x3f32795e	0.6971644
175	0x3ee8430e	0.4536366
176	0xbf1e11f0	-0.6174612
177	0x3ed8c50f	0.42337844
178	0x3f297d98	0.66207266
179	0xbece177e	-0.40252298
180	0x3f475960	0.7787075
181	0x3f3182f8	0.6934047
182	0x3ee50d86	0.4473688
183	0xbedb17b8	-0.42791533
184	0xbe932518	-0.28739238
185	0x3f406abc	0.75162864
186	0x3f280247	0.65628475
187	0xbf320eba	-0.6955372
188	0xbdd63a9e	-0.10460399
189	0x3f272a94	0.65299344
190	0xbefdc437	-0.49563763
191	0xbefc0494	-0.49222243
192	0xbecace2e	-0.39610428
193	0x3e877c99	0.26462248
194	0x3f38398a	0.719628
195	0xbf0a2313	-0.5395977
196	0x3eabacf7	0.335304
197	0x3e8a3b69	0.2699845
198	0x3e805e7d	0.2507209
199	0x3f3f913e	0.74830997
200	0xbe35f686	-0.17769822
201	0xbe17bb5a	-0.14817563
202	0x3e9113ef	0.2833552
203	0x3f2b57db	0.6693093
204	0x3ef7828d	0.4834179
205	0xbeb98b24	-0.36238968
206	0x3ebf7e5e	0.37401098
207	0xbecdf006	-0.40222186
208	0xbf1b430f	-0.606492
209	0x3ebfbfb1	0.37450936
210	0xbed408d3	-0.41412982
211	0x3eacbbdb	0.33737072
212	0x3d0933dd	0.033496726
213	0xbf11ddd7	-0.56979126
214	0xbe1d608a	-0.15368858
215	0x3e1d8ba0	0.15385294
216	0x3e8782e7	0.26467058
217	0xbe376ed7	-0.17913376
218	0xbf09692e	-0.53676116
219	0x3ea343be	0.3188762
220	0x3debe252	0.115177765
221	0xbe84d594	-0.25944197
222	0xbe92a1cb	-0.28639063
223	0xbf2f5d5d	-0.68501836
224	0x3f0f1e67	0.55905765
225	0xbd3f4fd5	-0.046706993
226	0xbdeaf407	-0.11472326
227	0xbe75e77c	-0.24014086
228	0x3e40e6c7	0.18838035
229	0xbf1b6063	-0.6069395
230	0xbef68f26	-0.4815609
231	0x3ebd9420	0.37027073
232	0x3e4e7772	0.20162752
233	0x3ee00203	0.43751535
234	0x3eb600c2	0.35547453
235	0xbf3bd189	-0.733666
236	0xbf341a0e	-0.70352256
237	0xbe3c34dc	-0.18379539
238	0x3eb15504	0.34635174
239	0x3ecc5d01	0.39914706
240	0x3da4ada7	0.08040934
241	0x3ed7add7	0.42124817
242	0x3d9b6578	0.07587713
243	0x3e23405c	0.1594252
244	0xbeeafc25	-0.45895496
245	0xbebfb3b9	-0.37441805
246	0xbf29efb6	-0.66381395
247	0x3ee58904	0.44831097
248	0xbe992683	-0.29912195
249	0x3f09b266	0.5378784
250	0x3ee4a9fa	0.44660932
251	0x3eed8421	0.4638987
252	0xbefe140e	-0.49624676
253	0x3f21c715	0.631944
254	0xbe716f6f	-0.23577665
255	0x3c565a6f	0.0130830845

net.0.bias f4 [128]
0	0xbe83bd74	-0.2573048
1	0xbeeaa604	-0.45829785
2	0x3f19834d	0.59965974
3	0xbe8d6e8f	-0.27623412
4	0x3f035ef2	0.5131675
5	0xbeda975e	-0.4269361
6	0xbf5b1ada	-0.8558785
7	0x3f40436b	0.7510287
8	0x3f21b3f1	0.63165194
9	0x3de4ef7b	0.1117849
10	0x3d9d8703	0.07691767
11	0x3f2b1f46	0.66844594
12	0xbf3e0aad	-0.7423504
13	0x3d932900	0.071855545
14	0x3f3d041b	0.7383439
15	0xbd2ade91	-0.041716162
16	0x3eeaebd0	0.45883036
17	0x3ef7049c	0.48245704
18	0x3f0727a7	0.5279488
19	0xbe723f46	-0.2365695
20	0xbdb9c6bb	-0.09071108
21	0x3e57d9fd	0.2107925
22	0xbec004b9	-0.37503603
23	0xbe9b1cc3	-0.3029538
24	0x3f34c757	0.7061667
25	0xbe789531	-0.24275662
26	0x3ea3fc8a	0.3202861
27	0xbee6955f	-0.45035836
28	0x3f32b466	0.69806516
29	0x3f06865b	0.5254876
30	0xbf239886	-0.6390461
31	0x3f3f7998	0.7479491
32	0x3ed1510a	0.4088214
33	0xbd2715b6	-0.04079219
34	0x3f0bfbed	0.54681283
35	0x3e6e8f53	0.23296861
36	0x3ed6f7d2	0.41985947
37	0xbeca359c	-0.39494026
38	0x3e8317c3	0.25604066
39	0xbdb46078	-0.088074625
40	0x3e087fca	0.13329998
41	0xbf092ce1	-0.53584105
42	0xbd1828fb	-0.037148457
43	0x3f1fff8e	0.6249932
44	0x3ece4e02	0.4029389
45	0x3f2d66b3	0.6773483
46	0x3f1ae83b	0.60510606
47	0x3f545028	0.8293481
48	0xbdfcbb46	-0.12340407
49	0xbf0eb3e3	-0.55743235
50	0xbeadb246	-0.33925074
51	0xbf105dd1	-0.5639315
52	0xbf07aa7a	-0.529945
53	0xbeb62783	-0.3557702
54	0x3ef9f663	0.4882079
55	0x3c9902eb	0.01867815
56	0x3f1baeba	0.60813487
57	0xbea35ecf	-0.3190827
58	0xbea57cdd	-0.32321826
59	0xbf3d3c7f	-0.73920435
60	0xbeb69f67	-0.3566849
61	0x3dcdb592	0.100443974
62	0xbf26a1c7	-0.650906
63	0xbe814f57	-0.25255844
64	0x3e8d0a0d	0.2754673
65	0xbd807b94	-0.06273571
66	0x3f14c694	0.58115506
67	0xbeafea8e	-0.3435864
68	0xbe2600e2	-0.16211274
69	0xbf3dbe73	-0.7411873
70	0x3f23435e	0.6377467
71	0xbf0f862a	-0.56064093
72	0x3e7cce46	0.24688062
73	0xbe69ab77	-0.22819315
74	0xbef2adcd	-0.47398224
75	0xbf06d52b	-0.5266902
76	0x3c528f23	0.012851509
77	0xbcad066e	-0.02112123
78	0x3f61f684	0.8826678
79	0xbed74e10	-0.42051744
80	0x3f34dff0	0.706542
81	0x3f324d03	0.6964876
82	0xbede75cc	-0.43449247
83	0xbe05a0cb	-0.13049619
84	0xbda9ba7a	-0.08287521
85	0x3ee75a23	0.45185956
86	0xbe9b510a	-0.30335265
87	0xbe6d8bfd	-0.23197933
88	0x3f3f8916	0.7481855
89	0x3f1a5533	0.60286254
90	0xbef9e395	-0.48806444
91	0x3f11c27a	0.5693737
92	0x3e8bf9ec	0.27339113
93	0x3f1a25be	0.6021384
94	0x3e9b9679	0.3038824
95	0xbed842b0	-0.4223838
96	0xbdb1e2d6	-0.08685844
97	0xbeea4ad0	-0.45760202
98	0x3f6506e2	0.8946363
99	0xbe97d3ed	-0.29653874
100	0x3dda59a1	0.106616266
101	0x3f251c34	0.6449616
102	0x3ec07902	0.37592322
103	0x3e006669	0.12539066
104	0x3f56b675	0.8387216
105	0xbefd5557	-0.49479172
106	0xbe81d75e	-0.25359625
107	0xbef9ad60	-0.48765087
108	0xbf12f49b	-0.5740449
109	0x3f3e382b	0.74304456
110	0xbf286b5b	-0.6578881
111	0x3e258ee1	0.16167785
112	0x3f081a53	0.5316517
113	0xbf2bade3	-0.67062205
114	0x3f434b4a	0.76286757
115	0xbf194dfe	-0.5988463
116	0x3ed9673c	0.42461574
117	0x3e59601e	0.21228072
118	0xbd8fbfec	-0.07019028
119	0x3eb8868a	0.36040145
120	0xbd68ecbc	-0.056866392
121	0x3e97fe59	0.2968624
122	0xbf29adac	-0.6628063
123	0xbe3b9e0a	-0.18322006
124	0x3d84454b	0.06458529
125	0x3f34b720	0.70591927
126	0x3ec6b8f8	0.38812995
127	0xbe30461b	-0.17214243

net.2.weight f4 [128, 128]
0	0xbdf00f67	-0.11721688
1	0x3d664cf4	0.056225732
2	0xbdbe7e43	-0.09301426
3	0x3b010578	0.0019687098
4	0x3d680fe7	0.05665579
5	0xbcf98132	-0.030457113
6	0xbd6e78e5	-0.058220763
7	0x3ddddff4	0.10833731
8	0x3c33ac29	0.010966339
9	0x3a028c9e	0.000498006
10	0xbd3d4ffc	-0.046218857
11	0x3e029618	0.12752569
12	0xbd27049d	-0.040775884
13	0xbd7ef59b	-0.062245946
14	0x3d1b17e6	0.03786459
15	0x3bc81075	0.0061054775
16	0xbb87a214	-0.0041391943
17	0xbc97045a	-0.018434692
18	0x3d918226	0.07104902
19	0x3da89828	0.082321465
20	0x3dc3e9e6	0.09566097
21	0x3d026ec6	0.031843923
22	0xbda918ea	-0.08256705
23	0xbe078105	-0.13232811
24	0x3d612c89	0.054974113
25	0xbd9e0ae6	-0.077169225
26	0xbcd4cd56	-0.025976818
27	0xbc804a42	-0.015660409
28	0x3e030bf2	0.12797526
29	0x3c45d6cb	0.012075136
30	0x3dd4d73e	0.10392617
31	0x3db0385c	0.086045
32	0xbcb4b618	-0.022059485
33	0x3a06a9d0	0.00051369984
34	0x3d95015a	0.072756484
35	0xbccc66cc	-0.024951361
36	0x3da0a34d	0.07843647
37	0xbdc91a4a	-0.09819467
38	0xbcda6abc	-0.026662223
39	0xbd6318b4	-0.05544348
40	0x3d071bb9	0.032985423
41	0xbea13b68	-0.31490636
42	0x3c34f6f2	0.0110452045
43	0x3cfc0b79	0.03076719
44	0xbd972676	-0.07380383
45	0x3de516c6	0.11185984
46	0xbd47cfa4	-0.048782006
47	0xbd93f2df	-0.07224058
48	0xbd94b870	-0.07261741
49	0xbc5d1cb1	-0.01349561
50	0xbd4a8da3	-0.04945148
51	0x3f540a3d	0.8282812
52	0x3b0d486e	0.0021558064
53	0xbdb5bf58	-0.088743865
54	0xbc9e2e6e	-0.019309249
55	0xbdadc0a4	-0.08484009
56	0x3c92934b	0.0178925
57	0x3dbb04aa	0.09131749
58	0xbd0b48fa	-0.034005143
59	0xbd59615b	-0.05307136
60	0x3b78ec0a	0.0037982487
61	0xbdc8ee8b	-0.098111235
62	0xbd99d819	-0.075119205
63	0x3de4084d	0.11134396
64	0xbd2b94a1	-0.04188979
65	0x3dd43822	0.10362269
66	0x3b49ba96	0.003078138
67	0x3d0bfeb5	0.034178454
68	0x3d9c921a	0.07645054
69	0xbd675913	-0.056481432
70	0x3d1e13a8	0.038592964
71	0xbe22460f	-0.15847038
72	0x3dba7da7	0.091059975
73	0xbd800a7d	-0.062520005
74	0xbdd835d2	-0.105571404
75	0xbdb65bec	-0.089042515
76	0xbd15d82e	-0.03658312
77	0xbccf595f	-0.02531117
78	0xbb13ae94	-0.0022534477
79	0xbda54aee	-0.08070932
80	0x3d9e4e49	0.077297755
81	0x3baece55	0.0053346553
82	0xbcacac3a	-0.021078218
83	0xbda7b07b	-0.08187958
84	0xbdb0a485	-0.086251296
85	0xbdb7746a	-0.08957751
86	0xbd87cc40	-0.066307545
87	0xbdb5855d	-0.08863328
88	0xbd659f16	-0.05605992
89	0x3db56a96	0.0885822
90	0x3df45e01	0.11931992
91	0x3de5f82c	0.11228976
92	0xbdc9bd36	-0.09850542
93	0x3d681e25	0.056669373
94	0x3d89c726	0.06727438
95	0x3dc394b3	0.095498465
96	0x3d21a5d4	0.039464787
97	0xbcc39fd3	-0.023879921
98	0x3c49e9dc	0.012323823
99	0xbde3edd9	-0.1112935
100	0x3dc923c8	0.09821278
101	0x3ca48002	0.02008057
102	0x3d19cb76	0.03754755
103	0x3c91856a	0.017763812
104	0x3dd70521	0.10499025
105	0xbd52cd80	-0.05146551
106	0x3c63f58d	0.013913524
107	0xbf591b73	-0.8480751
108	0x3e3fab55	0.18717702
109	0x3d2e3b23	0.042536866
110	0xbe399855	-0.18124516
111	0xbd3fb002	-0.046798714
112	0x3d892ff8	0.066986024
113	0xbeb5734a	-0.3543952
114	0xbd1404b5	-0.0361373
115	0xbda82b9c	-0.08211443
116	0x3ce9f111	0.028557332
117	0xbd56651e	-0.052342527
118	0x3d44cbe1	0.048045997
119	0xbd50e31b	-0.050997835
120	0x3bb539b7	0.005530562
121	0xbbd67909	-0.0065451902
122	0x3d88ee4b	0.06686076
123	0x3e0e8dd9	0.13921298
124	0x3c730750	0.014833286
125	0x3a1d993c	0.00060119084
126	0x3d2962ab	0.041353863
127	0xbda74fb7	-0.08169501
128	0xbc57e109	-0.013176211
129	0x3d63b839	0.05559561
130	0xbd2caf5d	-0.042159427
131	0x3c69e699	0.01427617
132	0xbda7b1ae	-0.081881866
133	0x3d925976	0.071459696
134	0x3d2100e9	0.03930751
135	0x3d4872b5	0.04893752
136	0xbd4cbee8	-0.04998675
137	0x3c44dc84	0.012015466
138	0xbd676a06	-0.056497596
139	0xbd8db4c1	-0.06919242
140	0xbd68bd0f	-0.056820925
141	0xbd2f0772	-0.04273171
142	0xbd76fb80	-0.060298443
143	0xbda383f1	-0.0798415
144	0x3c3d95bb	0.011571343
145	0x3b50f336	0.0031883246
146	0x3d8ee356	0.06976955
147	0xbab96398	-0.0014144061
148	0xbc7e9701	-0.015538932
149	0x3da55486	0.08072762
150	0xbd37f862	-0.04491461
151	0xbd36083f	-0.044441458
152	0x3bf75021	0.007547394
153	0x3d35bc6f	0.044369157
154	0x3c9a0e54	0.01880566
155	0xbd85b734	-0.06529084
156	0x3d9b817a	0.07593055
157	0x3c1b4af5	0.00947832
158	0xbca11d8f	-0.019667415
159	0xbcbd7fec	-0.023132287
160	0x3cb58292	0.022156987
161	0x3c3a3469	0.011365035
162	0x3d6051e9	0.054765616
163	0xbc63c32f	-0.013901516
164	0x3d5ff5ee	0.054677896
165	0x3db2f926	0.087389275
166	0xbc059aee	-0.008154614
167	0xbda231b1	-0.07919634
168	0x3d242112	0.0400706
169	0xbc060395	-0.008179565
170	0xbca491ff	-0.020089148
171	0x3d92c949	0.07167298
172	0xbd826092	-0.063660756
173	0xbcf047d6	-0.029331129
174	0xbd79c5e9	-0.060979757
175	0xbc587f13	-0.013213891
176	0x3c24a434	0.010048915
177	0x3dac26e8	0.08405858
178	0xbd79ee23	-0.06101812
179	0x3b2df86a	0.0026545771
180	0x3d3243da	0.04352174
181	0x3c2c7c63	0.010527703
182	0x3d97f828	0.07420379
183	0x3cca4ce6	0.024694871
184	0xbd9cc704	-0.07655147
185	0xbcf020ae	-0.029312458
186	0x3d62ebfe	0.05540084
187	0x3cc0361a	0.023463298
188	0xbd90632f	-0.07050168
189	0xbd439d7d	-0.047757614
190	0x3d64be1c	0.055845365
191	0xbcc182dd	-0.02362197
192	0x3db17c7b	0.08666321
193	0xbdb0fba5	-0.086417474
194	0x3c75cdd4	0.0150026865
195	0x3c577f03	0.013152841
196	0x3ce14ef7	0.027503474
197	0xbc0deb3c	-0.008662041
198	0xbc8eb89b	-0.017422011
199	0xbdae5ec7	-0.08514171
200	0xbd8923cd	-0.066962816
201	0xbc428555	-0.011872609
202	0xbd8834d7	-0.066507034
203	0x3dad5990	0.08464348
204	0x3d2402da	0.040041782
205	0xbd63de52	-0.055631943
206	0x3c2d576a	0.010579923
207	0xba88095d	-0.0010378767
208	0x3d1e728d	0.038683463
209	0x3b2ad49c	0.0026066666
210	0xbcd64580	-0.026156187
211	0xbc37c5fb	-0.011216636
212	0xbdb3b292	-0.08774294
213	0x3d02d5d3	0.0319422
214	0x3ce9cdac	0.028540455
215	0x3c5140dd	0.012771812
216	0xbd60c9f1	-0.054880086
217	0xbd977abf	-0.07396459
218	0xbd1c1f44	-0.038115755
219	0xbc8f70b8	-0.017509803
220	0x3ca1a131	0.019730182
221	0xbd6001f6	-0.05468937
222	0x3cc5f17b	0.024162998
223	0x3cf52da6	0.029928993
224	0xbd97cbb4	-0.074119
225	0x3d52bff0	0.051452577
226	0xbda7252d	-0.081613876
227	0xbdb33170	-0.08749664
228	0x3cce2e7e	0.025168654
229	0x3bebb94a	0.007193719
230	0x3c4105ba	0.0117811505
231	0xbd70364d	-0.058645535
232	0x3cb9df61	0.022689523
233	0xbd6ff534	-0.058583453
234	0xbd5523a9	-0.05203596
235	0x3d11f963	0.035638224
236	0x3d183483	0.037159454
237	0xbd991bfc	-0.07476041
238	0x3ca7b129	0.020470219
239	0xbd9e19bf	-0.077197544
240	0x3caa1430	0.02076158
241	0x3ba4a0fa	0.0050240727
242	0xbd9fdfdc	-0.0780637
243	0x3d840613	0.06446471
244	0xbc043d00	-0.008071184
245	0xbd67764c	-0.0565093
246	0x3da564e7	0.08075886
247	0x3d3151b1	0.043290798
248	0x3d56ad52	0.052411385
249	0xbdac3356	-0.08408229
250	0xbcc8f3c3	-0.024530297
251	0xbdb1cc7f	-0.08681583
252	0xbd3e2ae0	-0.046427608
253	0x3cfe7729	0.03106268
254	0xbcf9a8b5	-0.030475954
255	0x3cc14ab7	0.023595197

net.2.bias f4 [128]
0	0x3da463d0	0.0802685
1	0xbd847499	-0.06467552
2	0xbca171d7	-0.019707603
3	0xbd3c013d	-0.04589962
4	0x3d893154	0.06698862
5	0x3e0752a2	0.13215116
6	0x3dff7b81	0.124747284
7	0xbe1a5b88	-0.15073979
8	0x3cc59ef3	0.024123644
9	0x3dc03b1d	0.09386275
10	0xbd95083f	-0.072769634
11	0xbd3f9194	-0.046769693
12	0xbdc631e7	-0.09677487
13	0x3d6bc6ef	0.057562765
14	0xbc7bcf70	-0.015369281
15	0x3d456b49	0.04819802
16	0x3dce42fb	0.10071369
17	0x3baf07f0	0.0053415224
18	0xbd89061e	-0.0669062
19	0x3d83ba15	0.06431977
20	0x3c852242	0.016251687
21	0xbd0d65ab	-0.034520786
22	0xbbe5af7c	-0.0070094448
23	0x3db33ad7	0.08751457
24	0x3d29121c	0.041277036
25	0xbdab94d6	-0.083779976
26	0x3d5263f0	0.05136484
27	0xbda75d19	-0.08172054
28	0x3dd976e5	0.106183805
29	0x3d2af962	0.041741736
30	0x3d7142a7	0.058901455
31	0x3e456d37	0.19279943
32	0xbd317feb	-0.043334883
33	0xbd0ed511	-0.034871165
34	0x3d5bba55	0.053644497
35	0xbe01f670	-0.12691665
36	0x3d9abd01	0.07555581
37	0x3c238cff	0.009982347
38	0xbc71470d	-0.0147264125
39	0x3d604681	0.054754738
40	0xbdf5565a	-0.11979361
41	0x3d0fb2c8	0.03508261
42	0x3d1346c1	0.035956148
43	0x3d05a65e	0.032629363
44	0x3e051dcd	0.1299965
45	0x3b68a1ac	0.0035496755
46	0x3c23900f	0.009983077
47	0x3d6310c4	0.05543591
48	0xbdc04f9e	-0.09390186
49	0x3d8b15bc	0.06791255
50	0x3da42091	0.08014024
51	0x3d9ff21c	0.078098506
52	0xbbd72efa	-0.0065668793
53	0x3debdf6f	0.11517226
54	0x3dbac2a8	0.09119159
55	0xbcc49277	-0.023995621
56	0x3da6e771	0.08149613
57	0xbd856de8	-0.065151036
58	0x3d83d48b	0.06437024
59	0x3db1f012	0.08688368
60	0xbe18a33e	-0.14906022
61	0x3dbaa6ad	0.09113822
62	0x3d2b6eda	0.041853763
63	0xbdca66a1	-0.09882856
64	0x3d2aa633	0.041662406
65	0x3dd48e10	0.10378659
66	0xbd00bb7b	-0.031428795
67	0x3acebdfb	0.0015773171
68	0xbdcd801d	-0.10034201
69	0xbceed5fe	-0.029154774
70	0xbd2a82e5	-0.041628737
71	0x3dc35e9f	0.09539532
72	0x3d9c0f29	0.07620079
73	0xbdb9f601	-0.09080125
74	0x3d3b975f	0.045798656
75	0xbdc842c0	-0.097783566
76	0xbdb1c508	-0.08680159
77	0xbcc047cd	-0.023471737
78	0x3e3dbeb7	0.18529783
79	0xbdd14622	-0.10218455
80	0xbdbba2db	-0.091619216
81	0xbd964b84	-0.07338622
82	0xbd81b6f4	-0.06333724
83	0x3e1b743f	0.15181063
84	0xbbd01cf4	-0.0063511077
85	0xbd01bf02	-0.0316763
86	0xbc37697d	-0.011194584
87	0x3c071d5b	0.008246745
88	0x3cf1e54a	0.029528279
89	0x3cca61b6	0.024704795
90	0x3ca6a993	0.020344531
91	0x3cbfa935	0.023396114
92	0xbd8e1175	-0.069369234
93	0xbda70711	-0.08155645
94	0xbce7ecc8	-0.028311148
95	0xbddb0077	-0.10693448
96	0x3da82171	0.082095034
97	0x3d674f0f	0.05647188
98	0x3dfe930d	0.124303915
99	0xbd7e5a00	-0.06209755
100	0x3e008ea6	0.12554416
101	0xbda0f92f	-0.07860028
102	0x3d3f8979	0.046761964
103	0xbd2ea489	-0.04263738
104	0xbcaab6ff	-0.020839212
105	0xbcccb381	-0.024987938
106	0x3e52abc6	0.20573339
107	0x3e2f92d7	0.17145859
108	0xbc074a8e	-0.008257521
109	0xbd090221	-0.033449296
110	0xbd124e50	-0.035719216
111	0xbdae1d82	-0.08501722
112	0xbd1b380c	-0.037895247
113	0xbc8191d4	-0.015816607
114	0x3d885dd2	0.0665852
115	0xbd6359f0	-0.055505693
116	0xbd7b1eae	-0.061308555
117	0x3c710645	0.014710967
118	0xbd123a85	-0.03570034
119	0xbd170dfb	-0.036878567
120	0x3d8150e5	0.063142575
121	0xbdd35494	-0.10318866
122	0xbccdfa5e	-0.025143798
123	0x3cb3e955	0.021961847
124	0x3d84e8b6	0.064896986
125	0x3e2aa602	0.1666489
126	0x3ddaaed0	0.10677874
127	0x3ccd5f0b	0.025069734

net.4.weight f4 [1, 128]
0	0xbe27ca76	-0.16385826
1	0xbd083bf4	-0.0332603
2	0x3e313456	0.17305121
3	0xbe78f425	-0.24311884
4	0xbe8f6eb2	-0.2801414
5	0xbe4e86a2	-0.20168546
6	0xbe335d0f	-0.17515968
7	0xbec10fc5	-0.37707344
8	0xbe4a4f75	-0.19756873
9	0x3d9894ef	0.07450282
10	0x3e4eb08c	0.20184535
11	0x3e39c164	0.18140179
12	0x3e9452d9	0.28969458
13	0x3eacc8b8	0.33746886
14	0x3e99e978	0.30060935
15	0xbea3563d	-0.31901732
16	0xbeb46b15	-0.35237947
17	0xbd987c67	-0.07445603
18	0xbb9f48ca	-0.004860972
19	0xbe03dc4d	-0.12877007
20	0x3e653767	0.22384416
21	0xbe98dab4	-0.29854357
22	0x3e5ae8dc	0.21377891
23	0x3e84e4c4	0.25955784
24	0xbdeababd	-0.11461399
25	0x3eff5476	0.49869126
26	0x3db29f45	0.087217845
27	0x3d621176	0.055192433
28	0x3e5ce0ba	0.21570101
29	0xbe2ecf9a	-0.17071381
30	0x3ea2930a	0.31752807
31	0xbe4662c1	-0.19373609
32	0x3e68732e	0.22700188
33	0x3e8159ee	0.25263923
34	0xbe4889b5	-0.19583781
35	0xbea66338	-0.32497573
36	0xbe39506c	-0.18097085
37	0xbdd2482d	-0.10267673
38	0xbd56a461	-0.052402858
39	0xbe30ea0a	-0.17276779
40	0x3e4e9a5d	0.20176072
41	0xbe0e8496	-0.13917765
42	0x3e2a905e	0.16656634
43	0xbe49ff0e	-0.19726202
44	0xbe82f166	-0.25574797
45	0xbe2fc1d7	-0.17163788
46	0xbdf88c2a	-0.12136109
47	0x3e423fd1	0.18969657
48	0x3e88896b	0.26667342
49	0x3e606cba	0.21916476
50	0xbe9ab305	-0.30214706
51	0xbb67fec8	-0.0035399664
52	0x3eaa0aa0	0.3321123
53	0x3e5008ff	0.20315932
54	0x3e4e217b	0.2012996
55	0xbe8ec014	-0.2788092
56	0xbe472ba1	-0.19450237
57	0x3ec26837	0.37970135
58	0x3e3566ac	0.17714947
59	0x3e47e9be	0.1952276
60	0xbf10a0df	-0.5649547
61	0xbde0ff2b	-0.109861694
62	0x3ea06349	0.3132575
63	0x3f362832	0.71155083
64	0x3ea2d6f6	0.31804627
65	0xbe5b5b87	-0.21421634
66	0x3e2f5adf	0.17124508
67	0x3d938ddf	0.07204794
68	0x3e338977	0.17532907
69	0xbec07155	-0.37586465
70	0x3e4c494f	0.1994984
71	0x3e27bfd6	0.16381773
72	0xbe1b1f3f	-0.15148638
73	0xbea775b0	-0.32706976
74	0xbe62cf71	-0.22149445
75	0x3ea4d86b	0.32196364
76	0x3f0beba8	0.5465646
77	0x3d21ab5e	0.03947007
78	0x3e01aca2	0.1266351
79	0xbea871be	-0.32899278
80	0x3eb8e8c6	0.36115092
81	0xbebd7126	-0.37000388
82	0xbe9a1b4d	-0.30098954
83	0x3e3f808e	0.18701383
84	0xbdf25bef	-0.11833941
85	0x3e176ec2	0.14788345
86	0xbe538d32	-0.2065933
87	0x3e307b66	0.17234573
88	0xbe519252	-0.20465973
89	0x3e910e99	0.2833145
90	0xbe3f64b6	-0.18690762
91	0xbe2cdd9e	-0.16881415
92	0xbea34d72	-0.31895024
93	0x3e5e9beb	0.21739165
94	0xbe6679c6	-0.2250739
95	0x3e94d184	0.29066098
96	0xbe112477	-0.14174066
97	0xbe0002bb	-0.12501042
98	0x3e2daa7f	0.1695957
99	0x3e744919	0.2385601
100	0xbe954186	-0.29151553
101	0x3eb42d6e	0.3519091
102	0x3e19941a	0.14997903
103	0xbe811d2b	-0.25217566
104	0x3e0f7eed	0.14013262
105	0x3df27b8a	0.118399695
106	0x3e1f8311	0.15577342
107	0xbea9395d	-0.33051577
108	0x3ebda982	0.37043387
109	0xbed14935	-0.40876165
110	0x3e985db0	0.29758978
111	0xbf1892e1	-0.5959912
112	0x3e2587c1	0.16165067
113	0x3e1003f9	0.14064015
114	0xbe8a88ca	-0.27057487
115	0x3e3694bc	0.17830175
116	0xbe60522f	-0.2190635
117	0x3e773cd0	0.24144292
118	0xbea93b7d	-0.33053198
119	0x3e96b34f	0.29433677
120	0x3d33fd97	0.043943014
121	0x3f55f8c6	0.83582723
122	0xbe864d91	-0.26231053
123	0xbe96f04c	-0.29480207
124	0xbe1a6ce8	-0.15080607
125	0xbe4ec68d	-0.20192929
126	0xbe13ce9e	-0.14434287
127	0xbdd86453	-0.1056601
