checkpoints/nd/dim_2/width_128/method_wgan-gp.pt (torch, 69975 bytes, 5 tensors)

net.0.weight f4 [128, 2]
0.33568642 0.23827803 0.5924361 -0.12020957 0.08973324 0.45169786 -0.50865966 0.5225752
0.5212916 -0.3065736 0.63955575 0.74199706 -0.6304828 0.017221007 0.16161874 -0.43826726
0.65135103 -0.3540695 -0.2891678 0.51295346 0.6919699 0.24283446 0.011098225 -0.12981193
-0.018831626 -0.44516954 -0.7250883 -0.22501315 -0.5274042 0.52906674 0.13577944 -0.49337637
0.09589976 -0.5990145 -0.31768918 -0.35230222 0.36532947 0.3188206 -0.17412984 -0.34313527
-0.06919018 0.3362918 0.4533754 0.07934137 -0.3628747 0.5231491 -0.0028133516 -0.23634572
-0.5046827 -0.38441056 0.20571049 -0.43389916 -0.39394465 -0.16860357 0.501425 -0.14303617
-0.6569379 -0.41403645 0.7738934 -0.4906619 -0.660558 -0.123220734 -0.37603387 0.3796292
-0.38463426 0.33463126 0.83043325 -0.37891802 0.061667994 -0.4934656 0.39140892 -0.041526686
0.4458476 0.044143 -0.5554677 0.24473651 0.029945275 0.47066292 0.6560776 0.7165696
0.03849749 0.41114876 0.029736113 -0.18980867 0.5740973 0.15635024 0.07457909 -0.55816597
-0.33358556 0.21892887 0.53204095 0.32968357 -0.38742134 -0.094363995 -0.122294575 -0.24934964
-0.11569692 0.09354154 0.26083642 0.07338184 0.27515706 -0.33198074 -0.5412644 -0.67556584
-0.6158157 0.2875698 0.5766914 -0.089959174 -0.45352766 0.08264967 -0.07174188 -0.26647115
0.3067127 -0.25373822 -0.61491627 0.33020493 0.13928692 0.25506335 -0.6396367 0.062532105
-0.14454369 0.1793488 0.18533088 -0.65772164 -0.51996225 -0.012474673 0.19630577 0.27210373
0.08368395 0.322317 -0.5082036 -0.64950323 0.085304655 -0.6038364 0.4673112 0.012021761
0.46177098 -0.10029334 -0.027670596 0.41644332 -0.065456785 0.48312917 0.8707192 0.29998374
-0.18407354 0.12121596 -0.6355906 -0.42389166 -0.7664546 -0.16538481 -0.24986006 0.36806872
0.708794 0.17996024 0.528368 0.5871118 0.53652436 -0.543498 0.5187212 0.3262048
-0.59660083 -0.07864576 0.16056755 0.35736063 -0.3595384 -0.42740697 0.3257708 -0.54148686
0.26178366 -0.3993875 0.36886892 0.25198615 -0.07129583 0.41094586 -0.42865837 0.43547815
0.034109216 -0.2905827 -0.025024822 0.43208885 0.43387806 -0.34160474 -0.594228 -0.42116436
-0.32276008 -0.10244072 0.6732494 0.074081935 -0.61330545 0.21273097 -0.23622054 0.40029854
-0.19231576 0.6348882 0.25155556 0.2513672 0.31393132 -0.17796911 -0.24629727 0.2527587
-0.19930622 0.52121246 0.4997594 0.044840615 0.08887902 0.012198225 0.043365125 0.5827121
0.29718798 0.2882081 0.52564764 -0.49450883 -0.16258822 -0.1372588 -0.5355936 0.16721763
-0.6697808 -0.55989116 -0.5269315 -0.4444841 -0.8122482 0.57678246 -0.034206692 0.2543899
0.48423845 -0.34401536 -0.64167553 0.36570328 -0.6338929 -0.24386127 0.3150538 -0.24780507
-0.065894485 -0.364045 0.40490374 0.07844537 0.008207815 -0.05628386 -0.259213 -0.17763676
0.64134264 -0.4987449 -0.52438676 -0.4359798 -0.09864333 -0.53398377 0.7693314 -0.3688834
-0.08829968 0.49571878 -0.2622691 -0.24890217 0.42483336 0.101156294 0.1737923 -0.3594677
00000000: 17df ab3e 28ff 733e e4a9 173f 6f30 f6bd
00000010: 10c6 b73d f144 e73e 8537 02bf 7dc7 053f
00000020: 5e73 053f 37f7 9cbe edb9 233f 85f3 3d3f
00000030: 5267 21bf 1213 8d3c 627f 253e 9164 e0be
00000040: f1be 263f 9948 b5be cd0d 94be eb50 033f
00000050: f024 313f 99a9 783e 54d5 353c 6bed 04be
00000060: c844 9abc 43ed e3be 639f 39bf d969 66be
00000070: f603 07bf eb70 073f c409 0b3e d49b fcbe
00000080: 1867 c43d 0459 19bf 28a8 a2be f560 b4be
00000090: 770c bb3e 743c a33e 184f 32be 6daf afbe
000000a0: 95b3 8dbd 702e ac3e d220 e83e ba7d a23d
000000b0: b6ca b9be 19ed 053f 3560 38bb 9d04 72be
000000c0: e332 01bf 76d1 c4be c5a5 523e 0828 debe
000000d0: 1db3 c9be 6aa6 2cbe 645d 003f 1378 12be
000000e0: 152d 28bf 96fc d3be e11d 463f 0938 fbbe
000000f0: 541a 29bf 275b fcbd 8387 c0be c25e c23e
00000100: c8ee c4be ca54 ab3e 4697 543f 8b01 c2be
00000110: 9497 7c3d 86a7 fcbe c066 c83e e317 2abd
00000120: 2346 e43e 4acf 343d 2233 0ebf 359c 7a3e
00000130: cb4f f53c bbfa f03e b4f4 273f 1b71 373f
00000140: 8baf 1d3d 1782 d23e 2699 f33c 345d 42be
00000150: 0af8 123f 471a 203e ecbc 983d f7e3 0ebf
00000160: bacb aabe e42e 603e d633 083f 49cc a83e
00000170: 175c c6be e941 c1bd 9475 fabd 8355 7fbe
00000180: 82f2 ecbd b592 bf3d 5a8c 853e 3849 963d
00000190: 63e1 8c3e 61f9 a9be 4e90 0abf e2f1 2cbf
000001a0: 19a6 1dbf 593c 933e 0ca2 133f 843c b8bd
000001b0: c734 e8be 3b44 a93d 68ed 92bd e86e 88be
000001c0: 7209 9d3e fae9 81be 276b 1dbf 9f10 a93e
000001d0: 3ba1 0e3e aa97 823e 3bbf 23bf d510 803d
000001e0: 4303 14be 36a7 373e 61c7 3d3e 7260 28bf
000001f0: 3f1c 05bf 9262 4cbc 6104 493e 2e51 8b3e
00000200: 7e62 ab3d bc06 a53e a219 02bf d845 26bf
00000210: 35b4 ae3d 0695 1abf 6a43 ef3e ecf6 443c
00000220: 3f6d ec3e 9866 cdbd 72ad e2bc 0f38 d53e
00000230: 350e 86bd b55c f73e 74e7 5e3f 7897 993e
00000240: c67d 3cbe 1340 f83d 11b6 22bf 5408 d9be
00000250: 5e36 44bf a35a 29be 51db 7fbe 8173 bc3e
00000260: 8673 353f 7f47 383e 2043 073f f54c 163f
00000270: a959 093f af22 0bbf eaca 043f 5104 a73e
00000280: d5ba 18bf 0711 a1bd d26b 243e f9f7 b63e
00000290: 6b15 b8be 16d5 dabe 6ecb a63e e29e 0abf
000002a0: 8208 863e 857c ccbe 63dc bc3e 5404 813e
000002b0: 8c03 92bd 7f67 d23e 1c79 dbbe fef6 de3e
000002c0: 1bb6 0b3d 41c7 94be db00 cdbc c03a dd3e
000002d0: 4425 de3e d1e6 aebe 541f 18bf dba2 d7be
000002e0: cf40 a5be 71cc d1bd 135a 2c3f 45b8 973d
000002f0: 9601 1dbf 26d6 593e cce3 71be eef3 cc3e
00000300: 6cee 44be 0888 223f e4cb 803e 34b3 803e
00000310: 9bbb a03e 893d 36be 5a35 7cbe 9769 813e
00000320: ee16 4cbe 2e6e 053f 77e0 ff3e cbaa 373d
00000330: 3406 b63d 10db 473c a19f 313d 9f2c 153f
00000340: 0629 983e 0390 933e d890 063f 4330 fdbe
00000350: 877d 26be 928d 0cbe aa1c 09bf 193b 2b3e
00000360: c176 2bbf 0755 0fbf fce4 06bf 6c93 e3be
00000370: 7fef 4fbf 04a8 133f 511c 0cbd 653f 823e
00000380: 1aee f73e c822 b0be d944 24bf 763d bb3e
00000390: ce46 22bf c5b6 79be bb4e a13e 9dc0 7dbe
000003a0: b0f3 86bd 1b64 babe 8b4f cf3e f7a7 a03d
000003b0: 127a 063c e889 66bd 91b7 84be 69e6 35be
000003c0: 082f 243f 7e5b ffbe 363e 06bf bf38 dfbe
000003d0: 8405 cabd 29b3 08bf e7f2 443f 49de bcbe
000003e0: 76d6 b4bd dace fd3e 2348 86be 36e0 7ebe
000003f0: c283 d93e 082b cf3d 9cf6 313e 260c b8be

net.0.bias f4 [128]
0.21176389 -0.09951481 -0.13568352 0.26802588 0.124752775 -0.16050325 -0.5711753 0.70155203
0.3482976 -0.45197025 -0.36921462 0.4504053 -0.51971406 0.030200392 0.24592137 0.11944958
-0.7315145 -0.218254 0.42520002 -0.48789403 0.44659933 0.29521343 0.5436188 0.60122746
0.59824395 0.19337548 0.60991687 -0.25259277 -0.5050606 0.696524 -0.58444226 0.17234816
0.72789353 -0.306338 -0.6110977 0.58954936 0.81243575 -0.31663874 0.11041971 -0.07341872
0.20727701 0.05451744 -0.49878928 -0.01914638 0.8439661 0.85915184 -0.15401933 0.47382224
0.42483485 0.6086405 -0.39202142 -0.2921487 -0.38582596 -0.544852 -0.45822114 0.83677685
0.20955467 -0.7352924 0.7452387 -0.69963485 -0.4916923 -0.6751093 -0.5034606 0.24590948
0.43311384 -0.6265851 -0.05328755 0.22026123 -0.036211133 0.29959193 0.015406717 -0.1224525
0.46619195 0.97568345 0.1677554 0.5905287 -0.21894225 0.9070745 0.18666574 0.8375073
0.30804607 0.32836998 -0.20795725 0.1843514 -0.3601543 -0.016666602 -0.60365176 0.21116568
-0.0024516368 0.6862621 -0.27946264 -0.36766258 -0.6053863 0.42443532 -0.93328124 0.1964528
-0.5013574 0.2989132 0.015106011 0.7787119 -0.5033243 0.6798353 -0.28071916 -0.103097945
0.033214908 -0.18369174 0.37313005 0.77429754 -0.77852637 -0.6148709 -0.12705192 0.008608614
-0.01564761 -0.72508615 0.07818833 -0.2024658 -0.4828477 0.6470662 -0.002392784 -0.7049161
0.3478196 -0.6023061 0.46400315 -0.29448596 0.53654104 -0.04739 0.6414576 0.8310901
00000000: a2d8 583e 6cce cbbd 9ff0 0abe b03a 893e
00000010: 627e ff3d f75a 24be 8b38 12bf ea98 333f
00000020: 1054 b23e a568 e7be b309 bdbe 869b e63e
00000030: fb0b 05bf d066 f73c d0d2 7b3e fba1 f43d
00000040: 8944 3bbf fa7d 5fbe d1b3 d93e 3fcd f9be
00000050: aba8 e43e 3726 973e 9a2a 0b3f 0bea 193f
00000060: 8426 193f 3904 463e 8323 1c3f d753 81be
00000070: a74b 01bf 664f 323f 029e 15bf 097c 303e
00000080: 3b57 3a3f 56d8 9cbe e670 1cbf b5ec 163f
00000090: cafb 4f3f 791e a2be bb23 e23d 8e5c 96bd
000000a0: 6d40 543e ae4d 5f3d 4f61 ffbe ded8 9cbc
000000b0: 2a0e 583f 60f1 5b3f 3eb7 1dbe d498 f23e
000000c0: f483 d93e ddcf 1b3f 08b7 c8be 8494 95be
000000d0: fb8a c5be 6c7b 0bbf f69b eabe 0237 563f
000000e0: 8095 563e 1f3c 3cbf f7c7 3e3f 451b 33bf
000000f0: 18bf fbbe f7d3 2cbf cbe2 00bf b2cf 7b3e
00000100: 19c1 dd3e e267 20bf 0c44 5abd 298c 613e
00000110: 2052 14bd 1d64 993e 746c 7c3c 60c8 fabd
00000120: b6b0 ee3e 64c6 793f 12c8 2b3e e42c 173f
00000130: 6632 60be 0936 683f 4e25 3f3e e166 563f
00000140: 37b8 9d3e 1c20 a83e bff2 54be 9dc6 3c3e
00000150: 2566 b8be 6688 88bc ec88 1abf d13b 583e
00000160: a4ab 20bb dfae 2f3f ba15 8fbe 453e bcbe
00000170: 99fa 1abf 964f d93e 85eb 6ebf ec2a 493e
00000180: f558 00bf 270b 993e 347f 773c aa59 473f
00000190: dcd9 00bf b009 2e3f 6cba 8fbe 0425 d3bd
000001a0: 5b0c 083d b019 3cbe e70a bf3e 5d38 463f
000001b0: 814d 47bf 2e68 1dbf e619 02be 250b 0d3c
000001c0: 6b2f 80bc 3f9f 39bf 3421 a03d 3253 4fbe
000001d0: d037 f7be 21a6 253f 41d0 1cbb 6275 34bf
000001e0: 6915 b23e bc30 1abf d291 ed3e ddc6 96be
000001f0: c15a 093f 041c 42bd 9136 243f 52c2 543f

net.2.weight f4 [128, 128]
-0.04979658 -0.03698149 0.06435352 0.017420366 -0.08404151 0.07795274 -0.008140035 -0.07934418
-0.045368847 -0.021877734 0.0006053337 0.09801239 0.118251346 0.059281703 0.08500366 0.086372375
0.009611396 -0.07369497 -0.062305447 0.031222042 -0.016998768 0.007411005 -0.025012346 -0.0061249826
-0.032437854 0.052940853 -0.05668485 -0.020028051 0.021102676 0.011565535 0.028544297 -0.04707109
0.08559975 -0.09842026 0.06884691 -0.037630428 0.101360835 0.06100136 0.035427585 -0.015008583
-0.07240324 -0.0583405 -0.026188053 -0.036863703 -0.15102558 0.07584858 0.013546249 0.023689581
0.008640481 -0.07278087 0.0022941588 -0.031780858 0.055428457 0.031226784 -0.016229328 0.13140267
-0.048131965 -0.083987705 -0.002836083 0.017697645 -0.40356874 0.06031177 -0.080580264 0.055221085
-0.091311745 0.044054687 -0.013089087 0.019762909 -0.019342458 -0.05301187 -0.027980512 -0.0005723682
-0.17545475 0.008480636 -0.033099897 -0.09373586 -0.012223127 -0.055252682 -0.054617945 0.0856169
0.10005082 0.09175484 -0.0059403675 0.036267918 -0.09179848 0.09592318 -0.09415218 0.07253907
-0.04426047 0.055451516 0.081318006 0.050644 0.0007048785 0.066928364 0.060917072 0.033273343
0.061060384 0.040402085 0.114744134 0.0037210484 -0.04734648 0.002442044 -0.023988426 -0.072696
0.04117408 -0.021051858 -0.007349288 0.03990474 -0.009570914 0.01746631 0.10428657 -0.07288789
0.071171194 -0.050583623 -0.0954526 -0.0528798 -0.106839664 0.006964028 -0.010879732 -0.0019802067
0.043967247 -0.0049793264 0.041009363 -0.14516108 -0.042267673 -0.046243105 -0.03617198 0.07417495
-0.03716279 0.049867805 -0.105405115 0.04521675 -0.00023751188 -0.13864064 0.10927794 -0.0493784
0.048152678 0.027645892 -0.058941536 -0.12754999 0.055562645 0.07294222 -0.027580693 -0.009440875
-0.029468285 0.045081288 0.0096714655 0.0011219331 -0.050013546 0.020416709 -0.02817864 -0.014168176
0.05562934 -0.10542081 0.014549836 -0.016707245 0.06987584 -0.01703837 -0.10624817 -0.018338915
-0.07220541 -0.02366106 -0.008810655 -0.051307 0.02990774 -0.11272273 -0.0650679 -0.07852964
-0.046355616 0.043644805 0.083965175 -0.011743228 0.12993824 0.040036373 0.07185414 0.07568207
0.0019988003 0.032836713 0.038421907 0.036890607 -0.0045825546 -0.032776497 -0.05059324 -0.1448795
0.0445388 -0.024267655 0.042078443 -0.018352805 -0.057778805 -0.05474563 -0.14025912 0.0599675
-0.023108948 0.016760794 0.041223537 0.05598397 -0.04018674 -0.031631917 0.0037979872 -0.005944522
0.06943949 0.04840889 0.03805844 -0.0035797218 -0.006858486 -0.011490493 -0.009659542 -0.04999191
-0.10339738 -0.06311062 -0.019776542 -0.0860084 -0.017556382 -0.0047752205 0.0031072262 0.0012398846
-0.004816872 -0.034287754 -0.06293533 0.031046385 -0.047283977 0.055755604 -0.006082752 0.038786862
-0.0092492085 0.02368568 -0.035448954 0.10886784 0.04590353 0.07837324 -0.034213264 0.09130033
0.015822008 0.05882432 -0.05475366 -0.08705442 -0.016243288 -0.06977569 -0.0045155785 0.09715578
-0.030563418 0.0031291859 -0.0026881294 -0.07825932 0.024943992 0.11208518 -0.0147152515 0.42297393
0.060531616 -0.06921839 -0.0024450382 0.10305727 0.07896654 -0.0045373533 -0.07363228 -0.041319344
00000000: 80f7 4bbd e779 17bd c7cb 833d 28b5 8e3c
00000010: f51d acbd b0a5 9f3d c85d 05bc 347f a2bd
00000020: afd4 39bd ef38 b3bc 42af 1e3a b8ba c83d
00000030: c32d f23d 5fd1 723d 6616 ae3d 00e4 b03d
00000040: 1e79 1d3c 63ed 96bd ff33 7fbd 5ec5 ff3c
00000050: 0041 8bbc 04d8 f23b b1e6 ccbc 14b4 c8bb
00000060: 8edd 04bd 82d8 583d 602e 68bd de11 a4bc
00000070: 85df ac3c 5f7d 3d3c bbd5 e93c 9ecd 40bd
00000080: ec4e af3d 9090 c9bd 9cff 8c3d 5d22 1abd
00000090: 4596 cf3d 90dc 793d 841c 113d 8fe6 75bc
000000a0: 2648 94bd 73f6 6ebd 5488 d6bc 65fe 16bd
000000b0: 73a6 1abe 8056 9b3d 16f1 5d3c a710 c23c
000000c0: ce90 0d3c 230e 95bd 9959 163b a52c 02bd
000000d0: f308 633d 50cf ff3c 5ef3 84bc 6c8e 063e
000000e0: 0626 45bd bf01 acbd 94dd 39bb a7fa 903c
000000f0: 90a0 cebe 7909 773d 4407 a5bd 812f 623d
00000100: a701 bbbd b072 343d 9c73 56bc d3e5 a13c
00000110: 1374 9ebc f922 59bd 6337 e5bc fb0a 16ba
00000120: 69aa 33be 5ef2 0a3c c293 07bd 96f8 bfbd
00000130: 8343 48bc a350 62bd 11b7 5fbd ea57 af3d
00000140: 72e7 cc3d f6e9 bb3d 6aa7 c2bb ab8d 143d
00000150: d700 bcbd 5f73 c43d dcd2 c0bd 5d8f 943d
00000160: 774a 35bd 2121 633d 0e8a a63d 1570 4f3d
00000170: 98c7 383a bd11 893d 2e84 793d a149 083d
00000180: 741a 7a3d a87c 253d f9fe ea3d d5dc 733b
00000190: 62ee 41bd b30a 203b 6083 c4bc a4e1 94bd
000001a0: 27a6 283d f274 acbc 4cd2 f0bb 2773 233d
000001b0: 53cf 1cbc 8215 8f3c 3294 d53d 3f46 95bd
000001c0: 34c2 913d c630 4fbd a77c c3bd 7d98 58bd
000001d0: c1ce dabd 8032 e43b e740 32bc 5bc6 01bb
000001e0: 0017 343d 9e29 a3bb 6ff9 273d 1ba5 14be
000001f0: de20 2dbd 6969 3dbd 1229 14bd 09e9 973d
00000200: 0238 18bd 2f42 4c3d a3de d7bd 3335 393d
00000210: 9c0c 79b9 d0f7 0dbe 1dcd df3d 0141 4abd
00000220: be3b 453d a379 e23c ae6c 71bd 779c 02be
00000230: a895 633d bb62 953d e8f0 e1bc e6ad 1abc
00000240: 7967 f1bc 28a7 383d 1175 1e3c d40d 933a
00000250: 01db 4cbd f140 a73c e4d6 e6bc a321 68bc
00000260: 97db 633d dee6 d7bd 6f62 6e3c a2dd 88bc
00000270: 101b 8f3d 0d94 8bbc a498 d9bd 7e3b 96bc
00000280: 6ee0 93bd d7d4 c1bc 915a 10bc 4a27 52bd
00000290: 1401 f53c 2ddb e6bd 5242 85bd 26d4 a0bd
000002a0: 63df 3dbd e5c4 323d eff5 ab3d ab66 40bc
000002b0: 880e 053e 2efd 233d 4328 933d 33ff 9a3d
000002c0: 4efe 023b ca7f 063d 4a60 1d3d 9b1a 173d
000002d0: 4129 96bb a640 06bd db3a 4fbd 4b5b 14be
000002e0: 516e 363d f6cc c6bc 725a 2c3d 9f58 96bc
000002f0: 78a9 6cbd f43c 60bd 16a0 0fbe 7ba0 753d
00000300: fa4e bdbc ef4d 893c 03da 283d 734f 653d
00000310: da9a 24bd 7890 01bd a7e7 783b 44ca c2bb
00000320: 4b36 8e3d 6648 463d 2be3 1b3d c499 6abb
00000330: 27bd e0bb 9f42 3cbc 0e43 1ebc 51c4 4cbd
00000340: 01c2 d3bd 2440 81bd 6a02 a2bc 2c25 b0bd
00000350: 67d2 8fbc 7479 9cbb 9ba2 4b3b a083 a23a
00000360: dad6 9dbb 5171 0cbd 3de4 80bd fd54 fe3c
00000370: d8ac 41bd fd5f 643d d251 c7bb f9de 1e3d
00000380: fe89 17bc 7908 c23c ec32 11bd 1af6 de3d
00000390: 5705 3c3d 2682 a03d 3523 0cbd abfb ba3d
000003a0: 289d 813c c5f1 703d 6045 60bd 9649 b2bd
000003b0: a510 85bc 8fe6 8ebd 6bf7 93bb 9cf9 c63d
000003c0: 2260 fabc 0713 4d3b 542b 30bb 6c46 a0bd
000003d0: 5857 cc3c ea8c e53d 3d18 71bc 0a90 d83e
000003e0: 00f0 773d 5fc2 8dbd ef3c 20bb b10f d33d
000003f0: 36b9 a13d 14ae 94bb 85cc 96bd 793e 29bd

net.2.bias f4 [128]
-0.047399536 -0.08468011 -0.14608414 0.042560853 -0.120211355 -0.064426735 0.05906309 -0.03839991
0.06326992 0.006089563 -0.058829613 -0.046427377 -0.08256778 -0.0111760115 -0.121585816 0.06189524
-0.005177749 -0.23251429 -0.034244314 -0.047195543 0.0059188036 -0.039628405 -0.048950452 -0.09265688
0.013442596 -0.03284334 -0.06594764 -0.09321141 -0.010059175 -0.12196332 -0.08386689 -0.042547602
-0.08292711 -0.12139965 -0.064381175 0.000110531284 -0.19544904 -0.08889892 -0.07607639 0.006523445
0.041795924 -0.035227038 0.069264024 -0.10009117 0.008982926 -0.087771654 -0.009398839 -0.11468838
0.08834682 -0.17125435 -0.042446967 -0.07241192 -0.06869068 0.023864983 0.023337074 0.050635114
-0.14412676 -0.0064562648 -0.0021282544 -0.08332942 0.05101595 -0.12542123 -0.06420572 0.07230216
-0.06524225 -0.038736276 -0.046050113 -0.097902246 -0.08186331 -0.108385034 -0.17523059 -0.17131943
-0.05779535 -0.047562882 -0.07908988 -0.08825084 -0.036601026 0.05937549 0.043540515 -0.11192119
-0.17062537 -0.0024475013 -0.06408059 0.01064179 -0.120432995 0.035377435 -0.075867735 -0.031159235
-0.07932997 0.022928432 -0.007287592 -0.08247911 -0.025204133 -0.070770174 -0.022313368 0.0041467277
-0.017680304 -0.02036461 -0.036684018 0.04891708 -0.09289028 -0.042815343 -0.033504196 -0.029281262
0.029957447 -0.08268994 -0.018007383 -0.13836606 -0.0032563787 -0.10380834 -0.020667437 -0.060879506
-0.0851428 0.07440517 0.06829438 0.055747423 0.23941928 -0.053910144 -0.052787308 -0.14746644
-0.0059139426 0.08759432 -0.06276499 -0.121918105 -0.099289395 -0.12046231 -0.08603753 -0.05357754
00000000: 0426 42bd c46c adbd 1597 15be 4a54 2e3d
00000010: 5f31 f6bd 2af2 83bd 23ec 713d 3949 1dbd
00000020: a993 813d f58a c73b 52f7 70bd a22a 3ebd
00000030: 4c19 a9bd 971b 37bc fc01 f9bd dd85 7d3d
00000040: 1baa a9bb 3a18 6ebe c443 0cbd 1d50 41bd
00000050: 86f2 c13b 6551 22bd 4580 48bd e4c2 bdbd
00000060: 563e 5c3c bd86 06bd 8e0f 87bd a0e5 bebd
00000070: 3dcf 24bc e8c7 f9bd 67c2 abbd 6546 2ebd
00000080: b0d5 a9bd 61a0 f8bd 47da 83bd 08cd e738
00000090: cb23 48be a310 b6bd f0cd 9bbd 9fc2 d53b
000000a0: 3432 2b3d 3a4a 10bd 4cda 8d3d 99fc ccbd
000000b0: 1f2d 133c a0c1 b3bd 97fd 19bc bee1 eabd
000000c0: 2def b43d 4d5d 2fbe dfdc 2dbd b34c 94bd
000000d0: b3ad 8cbd 7f80 c33c 642d bf3c c466 4f3d
000000e0: f795 13be 138f d3bb 2f7a 0bbb 9da8 aabd
000000f0: 1af6 503d 6c6e 00be 4a7e 83bd 2813 943d
00000100: bb9d 85bd eea9 1ebd 0b9f 3cbd f980 c8bd
00000110: f3a7 a7bd f9f8 ddbd a66f 33be 5c6e 2fbe
00000120: d1ba 6cbd 4cd1 42bd e0f9 a1bd dbbc b4bd
00000130: f5ea 15bd b733 733d 8a57 323d f036 e5bd
00000140: 6bb8 2ebe 4266 20bb af3c 83bd e75a 2e3c
00000150: 93a5 f6bd eee7 103d 8b60 9bbd a741 ffbc
00000160: c077 a2bd 68d4 bb3c c1cc eebb cfea a8bd
00000170: e678 cebc f4ef 90bd 86ca b6bc 46e1 873b
00000180: 49d6 90bc afd3 a6bc fb41 16bd 475d 483d
00000190: 423d bebd 245f 2fbd b23b 09bd 42df efbc
000001a0: 5269 f53c 5859 a9bd 3884 93bc d5af 0dbe
000001b0: f868 55bb 7899 d4bd c24e a9bc ca5c 79bd
000001c0: 595f aebd bd61 983d eddd 8b3d 6957 643d
000001d0: 542a 753e e2d0 5cbd 8137 58bd 7101 17be
000001e0: bfc9 c1bb a764 b33d ee8a 80bd 33b0 f9bd
000001f0: 3d58 cbbd f2b4 f6bd 7234 b0bd 1f74 5bbd

net.4.weight f4 [1, 128]
0.01937164 -0.0012444571 0.059086163 -0.024572263 -0.001634752 -0.0959405 0.045497205 -0.07211666
-0.12154973 0.030208647 -0.054269843 0.32619298 0.10977203 0.18352516 -0.08718064 -0.06848737
-0.0570683 -0.10033836 5.550003e-06 0.00065880426 0.07370179 -0.038778555 0.06651872 0.00066943653
0.28022754 0.10952766 0.049863108 0.00015516896 0.000115603565 0.07780761 -1.1077325 0.06588632
-0.8396024 -0.04202668 0.02601971 -0.018909791 -0.085408494 0.09054166 0.0004887118 -0.011758358
0.048310697 -0.015888419 -0.04643971 0.048742555 0.033880156 -0.0789156 0.4054401 -0.061082333
0.07308428 0.047915645 -0.046303887 0.041321885 -0.080334775 -0.07733876 -0.000224006 0.098412886
-0.02868912 0.09928483 -0.04274483 0.079566844 -0.00025627427 -0.022959251 -0.068627335 0.10981599
0.093581796 -0.048361626 0.056856632 0.5562816 0.079412825 -0.12853684 0.5656146 -0.07621587
0.015548268 -0.081512965 -0.017626392 -0.0888363 0.07213136 0.042850684 -0.035067126 0.035703972
-0.058865406 -0.057600904 0.05863765 0.016713077 -0.052501928 0.022530314 -0.02323712 0.14212038
0.03435166 0.022687906 -0.0019885364 0.07057828 -0.018620254 -0.037997406 0.096060894 -0.47803128
-0.057501994 -0.0031089315 -0.093771785 0.00090001384 -0.065472804 0.09443202 -0.041486867 0.00076358
-0.00045503982 -0.10007782 0.0034969822 0.024887154 0.005507932 -0.08717691 0.12056093 -0.03257953
0.05211887 -0.07127173 0.027805066 0.103527024 0.18649915 0.046386708 0.053906754 0.04519138
0.047563173 0.0012291876 0.04921715 -0.07449248 -0.062987 -0.10447399 0.09981751 0.038677484
00000000: 46b1 9e3c 0d1d a3ba 5504 723d c54b c9bc
00000010: 2d45 d6ba 747c c4bd 475b 3a3d e6b1 93bd
00000020: 11ef f8bd 2078 f73c 0e4a 5ebd c402 a73e
00000030: 28d0 e03d 05ee 3b3e c38b b2bd 1b43 8cbd
00000040: 73c0 69bd 337e cdbd 2a3a ba36 9bb3 2c3a
00000050: f7f0 963d 43d6 1ebd f73a 883d 207d 2f3a
00000060: fc79 8f3e 0a50 e03d 423d 4c3d dab4 2239
00000070: 3170 f238 9959 9f3d 2eca 8dbf 68ef 863d
00000080: 2ff0 56bf 2b24 2cbd 4927 d53c b5e8 9abc
00000090: a6ea aebd e86d b93d e51c 003a 21a6 40bc
000000a0: 70e1 453d 6e28 82bc 9137 3ebd 46a6 473d
000000b0: ebc5 0a3d 819e a1bd d895 cf3e 7831 7abd
000000c0: 36ad 953d 3243 443d 25a9 3dbd 2341 293d
000000d0: 8f86 a4bd c963 9ebd 27e3 6ab9 b28c c93d
000000e0: 7205 ebbc d855 cb3d 3415 2fbd f1f3 a23d
000000f0: 8d5c 86b9 0a15 bcbc 7d8c 8cbd 35e7 e03d
00000100: d0a7 bf3d d716 46bd 80e2 683d 7968 0e3f
00000110: 31a3 a23d 299f 03be 1ecc 103f 1117 9cbd
00000120: 2abe 7e3c 45f0 a6bd 3965 90bc ceef b5bd
00000130: 9bb9 933d 3384 2f3d 8ca2 0fbd 543e 123d
00000140: da1c 71bd edee 6bbd 082e 703d dde9 883c
00000150: 430c 57bd 7e91 b83c c65b bebc 0188 113e
00000160: 54b4 0c3d fddb b93c 1b52 02bb 588b 903d
00000170: 8189 98bc 2ba3 1bbd 93bb c43d 84c0 f4be
00000180: 3687 6bbd 37bf 4bbb 6c0b c0bd e8ee 6b3a
00000190: 9b16 86bd 9365 c13d 22ee 29bd fd2a 483a
000001a0: 6992 eeb9 9af5 ccbd a02d 653b 25e0 cb3c
000001b0: e27b b43b cf89 b2bd a6e8 f63d 1d72 05bd
000001c0: 997a 553d eaf6 91bd 73c7 e33c fa05 d43d
000001d0: a2f9 3e3e fdff 3d3d 54cd 5c3d 991a 393d
000001e0: 9ad1 423d b11c a13a ec97 493d 838f 98bd
000001f0: 54ff 80bd 76f6 d5bd 1f6d cc3d 486c 1e3d
