checkpoints/nd/dim_2/width_128/method_wgan.pt (torch, 70103 bytes, 5 tensors)

net.0.module.weight f4 [128, 2]
00000000: a1c8 1c3d b332 f2bc dd51 103d fd69 1cbd
00000010: 31fe 113d 14f7 d73c 07bf 16bd a1b1 19bd
00000020: e81e 233d 9263 01bd 0ad7 233d 0ad7 233d
00000030: 57bb 15bd 600e 203d 3ae2 113d ac14 043d
00000040: 0ad7 233d 0ad7 23bd 63b8 15bd 890d 203d
00000050: 0ad7 23bd 0ad7 23bd 0ad7 23bd 0ad7 233d
00000060: 36e6 12bd 94b4 4d3c 53bc 1bbd 465c 1fbd
00000070: 621d 15bd ac50 17bd e4fe 14bd ecd0 12bd
00000080: 0ad7 233d 0ad7 233d b56d 203d 25ff e0bc
00000090: 0ad7 233d 0ad7 23bd 0ad7 23bd 0ad7 23bd
000000a0: 9199 0abd d330 22bd c1e9 223d 8ca1 223d
000000b0: 8129 163d 9ab1 233d 6fb2 153d 50e6 1d3d
000000c0: 1bb2 143d d98f 0a3d 73ea 223d 89a1 223d
000000d0: 0ad7 233d 0ad7 233d 0ad7 23bd d5ef 00bd
000000e0: 8768 10bd f8db 1c3d 0ad7 233d 0ad7 233d
000000f0: c016 103d 5b80 1cbd 8458 e93c f697 223d
00000100: 346f 103d 3967 1cbd 0ad7 233d 0ad7 23bd
00000110: 0ad7 23bd 0ad7 233d 09f7 d1bc c6d7 1f3d
00000120: 0f0b 1fbd e685 1a3d 914c dbbc 0ad7 233d
00000130: 9b8d 103d e079 1cbd 0ad7 23bd 0ad7 23bd
00000140: d4b5 0f3d 1192 1cbd 75a3 10bd 4bb4 1c3d
00000150: cb1f 233d d484 01bd e449 10bd edae 1c3d
00000160: dc82 1abd 5af7 22bd 0ad7 23bd 0ad7 23bd
00000170: 4e66 123d bc15 e43c 83ea 223d e9a3 223d
00000180: ee7c 1abd b8fa 22bd 2072 723c 8b4a 1cbd
00000190: cd39 14bd 6517 0ebd 0ad7 23bd 0ad7 233d
000001a0: bde9 223d 87a1 223d 2158 153d c18a 073d
000001b0: d93b 12bd 7930 3c3b 0ad7 233d 0ad7 23bd
000001c0: 0ad7 23bd 5986 18bd d271 14bd b67e fdbc
000001d0: 0ad7 23bd 0ad7 233d 4533 10bd 41c3 1c3d
000001e0: 0ad7 233d 0ad7 233d 0ad7 23bd 0ad7 233d
000001f0: 455c 103d 52b7 1cbd 0921 10bd dea0 1c3d
00000200: 0ad7 23bd 0ad7 23bd 0ad7 23bd 0ad7 233d
00000210: 5815 6d3c 72f9 1cbd e5a8 133d 163b f53c
00000220: e597 113d 03f7 1dbd 0ad7 233d 0ad7 23bd
00000230: 0ad7 23bd 0ad7 23bd 0ad7 233d 0ad7 233d
00000240: 9787 953b 0861 203d 43d7 10bd d698 1c3d
00000250: 0ad7 233d 0ad7 23bd 3321 223d f792 1dbd
00000260: c012 11bd e6b9 153c e2fc 17bd 7f3d 1dbd
00000270: 0ad7 23bd 0fca 7c3c 9899 0f3d 1276 583c
00000280: 861e 11bd d9a8 1c3d 0ad7 233d 0ad7 23bd
00000290: 80b2 143d 0d68 1a3d 4b7c 1abd 7af6 22bd
000002a0: 21e6 11bd d28b a53a 0ad7 23bd 0ad7 233d
000002b0: ee13 183d 5947 20bd 44f3 10bd c264 1c3d
000002c0: c01c 10bd 6cc3 1c3d 0ad7 233d 0ad7 233d
000002d0: 0ad7 23bd 0ad7 23bd 4ee7 0b3d e7c7 233d
000002e0: 0ad7 23bd 0ad7 23bd 905f 10bd b5a7 1c3d
000002f0: 0ad7 233d 0ad7 233d 03a2 1a3d fa37 59bc
00000300: 0ad7 233d 0ad7 233d d457 1ebd 9ea6 22bd
00000310: 1137 113d 1f43 1cbd 7a38 143d 5348 163d
00000320: 645f 22bd 0ad7 23bd 0ad7 23bd 0ad7 23bd
00000330: 40bb 10bd 556a 1c3d 0ad7 233d 0ad7 23bd
00000340: d8ba 103d 9957 1cbd 0ad7 23bd 0ad7 23bd
00000350: 0ad7 233d 0ad7 23bd 0ad7 23bd 0ad7 233d
00000360: 9e32 d23c a2cd 20bd 7cbe 173d 9e49 213d
00000370: d5e2 173d a94a 20bd 0ad7 233d 0ad7 233d
00000380: 0ad7 23bd 0ad7 23bd 0ad7 23bd 0ad7 233d
00000390: 0ad7 233d 0ad7 23bd d630 e73c 0ad7 233d
000003a0: d184 103d c0bf 1cbd 7533 1abd f76a cfbc
000003b0: 0ad7 23bd 0ad7 23bd 2b8a 1dbd 2495 21bd
000003c0: 0ad7 23bd 0ad7 233d 0ad7 23bd 0ad7 23bd
000003d0: 0358 133d c588 1f3d 8457 133d 36c3 0f3d
000003e0: 8465 20bd 0ad7 23bd 0ad7 23bd 0ad7 23bd
000003f0: 0ad7 233d 0ad7 23bd 9b9d 10bd 0ac9 1c3d
0.038277272 -0.02956519 0.03523432 -0.038187016 0.035642806 0.026362933 -0.03680327 -0.037522916
0.039824396 -0.0315891 0.04 0.04 -0.036555614 0.03907621 0.035616137 0.032246277
0.04 -0.04 -0.036552798 0.039075408 -0.04 -0.04 -0.04 0.04
-0.035864078 0.01255526 -0.038021397 -0.03890636 -0.036404975 -0.03694217 -0.036375895 -0.035843775
0.04 0.04 0.039167125 -0.027465412 0.04 -0.04 -0.04 -0.04
-0.03383786 -0.039597344 0.039773706 0.039704844 0.036660675 0.039964296 0.03654712 0.03854972
0.036302667 0.03382859 0.03977437 0.039704833 0.04 0.04 -0.04 -0.03147872
-0.035255935 0.038295716 0.04 0.04 0.035177946 -0.038208347 0.02848459 0.039695702
0.0352623 -0.03818438 0.04 -0.04 -0.04 0.04 -0.02563049 0.039024137
-0.038828906 0.03772535 -0.026769908 0.04 0.035291295 -0.038202167 -0.04 -0.04
0.035085514 -0.038225237 -0.035312135 0.03825788 0.039825242 -0.031620815 -0.035226718 0.03825276
-0.037722453 -0.039786674 -0.04 -0.04 0.035742097 0.027842395 0.03977443 0.0397071
-0.0377168 -0.039789885 0.014797717 -0.038157027 -0.036187936 -0.03469028 -0.04 0.04
0.03977369 0.039704826 0.036461 0.03309131 -0.035701606 0.0028715415 0.04 -0.04
-0.04 -0.0372375 -0.03624136 -0.03094421 -0.04 0.04 -0.035205144 0.038272146
0.04 0.04 -0.04 0.04 0.035244245 -0.038260765 -0.035187755 0.038239352
-0.04 -0.04 -0.04 0.04 0.014470421 -0.038323827 0.036049742 0.029935401
0.03554525 -0.038565647 0.04 -0.04 -0.04 -0.04 0.04 0.04
0.0045632827 0.039155036 -0.03536154 0.038231693 0.04 -0.04 0.039582442 -0.038470235
-0.035418272 0.00913856 -0.037106402 -0.038388725 -0.04 0.015429034 0.035058588 0.013211744
-0.0354295 0.038246963 0.04 -0.04 0.036303043 0.037696887 -0.03771619 -0.03978584
-0.03561986 0.0012630171 -0.04 0.04 0.03712838 -0.039130542 -0.035388246 0.038182028
-0.035183668 0.038272306 0.04 0.04 -0.04 -0.04 0.034156136 0.039985564
-0.04 -0.04 -0.035247386 0.038245875 0.04 0.04 0.037752163 -0.013257975
0.04 0.04 -0.03865798 -0.03970968 0.035452906 -0.03814995 0.036186673 0.036690067
-0.039641753 -0.04 -0.04 -0.04 -0.035334826 0.038187344 0.04 -0.04
0.035334438 -0.038169477 -0.04 -0.04 0.04 -0.04 -0.04 0.04
0.025658902 -0.039258607 0.037046894 0.039376847 0.03708156 -0.0391337 0.04 0.04
-0.04 -0.04 -0.04 0.04 0.04 -0.04 0.028221529 0.04
0.035282914 -0.038268805 -0.03764673 -0.02531956 -0.04 -0.04 -0.038461845 -0.039448872
-0.04 0.04 -0.04 -0.04 0.035972606 0.038948793 0.035972133 0.035098277
-0.039159313 -0.04 -0.04 -0.04 0.04 -0.04 -0.035306554 0.038277663

net.0.module.bias f4 [128]
00000000: a5fe 8e3d b4f8 f33e 0de9 233f bf33 dc3e
00000010: d194 14be e715 a1be 6cd0 213e 4721 183f
00000020: db8b 2dbf 36c0 213e bb8b 0bbf 8ee9 0fbf
00000030: e961 723e 377c b73e 9fd4 623e d3cd 483e
00000040: 25bb 5abe 6f6e 363c 78d8 1fbf 2628 ecbe
00000050: fb22 223c 5a5d 1cbe d8f7 aebd b8c9 c93e
00000060: 6fed 8c3e 6f5d 1cbe 854e 6ebe 3ff9 02bf
00000070: 122b b53e e77f febe 8cea 693e db3f e3bd
00000080: 89ba 0b3f 5fff e6be 8a97 ecbe 7687 953d
00000090: a041 113d 7bba 9bbe bb7e 383f 35e3 1abf
000000a0: 89ba c63e 9ab4 a43e 8aa9 14be 8b81 7c3e
000000b0: 7465 afbd 460b 08bf 372b f53e 7759 1cbe
000000c0: bc6f afbd 6066 343f 8572 2a3f 0fbf 06bf
000000d0: 235c 1cbe 8a74 d23e 371b d83e e035 04bf
000000e0: 0bac 03bf bfed 8f3e 3934 f7be f09e 023f
000000f0: 148b 0abf 1745 d4be c462 8f3e 9018 c93e
00000100: 5391 7ebe 4989 d1be fa7d 8b3e 2f26 7a3e
00000110: 584f 343e 97ea 26bf 5450 5abe 8bcc 84be
00000120: 9e6f c23c 88a7 1c3f 1670 03bf 6fb4 12bd
00000130: a08a 803e b43d c73e 004c 33bf ad43 923c
00000140: fff2 0b3f 5038 ecbe 7cb3 e23e d36e afbd
00000150: c105 203f 348f 1bbf 376e 053e d741 023f
00000160: 7615 003f f00c b5be 43f8 13bf 59a3 21bc
00000170: c21c afbe 637c e33e 89cf bbbe 2b02 9b3d
00000180: d363 1ebf 5ae1 4fb9 116c 233f 6dd9 c43e
00000190: fd80 9f3e 67ae d4be e4d6 1c3f 9283 b4be
000001a0: 1ad9 243f c087 15bf 67a3 b2be 4d72 5cbe
000001b0: 2b50 9e3d c899 c33e 5a74 053e bd89 87be
000001c0: 622c 10bf 11df 53be 506f abbe 7b62 dabe
000001d0: b244 e03e e269 e93d bd97 c2be cd31 a53e
000001e0: 1e2c f4be 18e3 d4be 3b3a 6bbd d078 ed3e
000001f0: dca9 ba3e 7846 f4be fe5e ffbe ff1a 643e
0.06982163 0.47650683 0.6402748 0.4300823 -0.14509894 -0.31462023 0.15802163 0.5942578
-0.6779153 0.15795979 -0.54510087 -0.5621575 0.23670162 0.35836956 0.22151421 0.19609766
-0.21360452 0.011134728 -0.6243968 -0.4612438 0.009896035 -0.15269986 -0.08543366 0.39411712
0.27524897 -0.15270017 -0.2327214 -0.5116157 0.35384423 -0.49706957 0.22843379 -0.11096164
0.54581505 -0.45116708 -0.46209365 0.07301228 0.035462976 -0.3041571 0.72068375 -0.6050294
0.3881419 0.32169038 -0.14517799 0.24658792 -0.085642725 -0.531422 0.47884533 -0.15268503
-0.085662335 0.7046871 0.6658099 -0.5263528 -0.15269522 0.41104537 0.42208263 -0.51644707
-0.5143439 0.28111073 -0.4828203 0.5102377 -0.54118466 -0.4145896 0.2800504 0.39276552
-0.24860124 -0.40925053 0.2724455 0.24428628 0.17608392 -0.65201706 -0.21319705 -0.25937304
0.023734864 0.6119313 -0.51342905 -0.035816606 0.25105762 0.38914263 -0.7003784 0.017854536
0.5466766 -0.46136713 0.4427756 -0.0856606 0.6250878 -0.60765386 0.13030325 0.50881714
0.50032747 -0.35361433 -0.5780069 -0.009865605 -0.34201628 0.44430837 -0.36681774 0.07568773
-0.6187107 -0.00019825008 0.6383677 0.38447133 0.31153098 -0.41539308 0.612654 -0.3525663
0.6439377 -0.58410263 -0.3489029 -0.21527977 0.077301346 0.38203263 0.13032666 -0.26472273
-0.5631772 -0.20690562 -0.33483362 -0.4265326 0.4380241 0.11397149 -0.38006392 0.32264557
-0.4768991 -0.4157951 -0.05742858 0.46381235 0.36457717 -0.47710013 -0.4987716 0.22275923

net.2.module.weight f4 [128, 128]
00000000: 7164 a33b 8fb1 123d 2e08 0d3d fdd7 01bd
00000010: 0ad7 23bd 6662 e7bc 9714 18bd f504 0c3d
00000020: 0ad7 23bd c715 18bd 0ad7 233d 0ad7 23bd
00000030: e45b 51bc 03f7 053d 10dd e03c 2d41 cf3c
00000040: 4b8d 08bd ef69 1a3d 77a5 283c 0ad7 233d
00000050: 2207 22bd 0ad7 23bd 1acd 193d d908 45bc
00000060: 8633 0a3d 0ad7 23bd 0ad7 23bd 0ad7 23bd
00000070: 1c3a 1abd 8032 9ebc a134 133d d69f 23bd
00000080: 69b7 123d 0ad7 233d 0ad7 23bd c761 19bd
00000090: 22db 1bbd 0ad7 23bd daed 123d 67a6 91bc
000000a0: 6bc1 123d 4aaf 19bd 0ad7 23bd c80a 17bd
000000b0: 1915 23bd 0ad7 233d 1580 ffba 0ad7 23bd
000000c0: 4e15 23bd e66f 853c 028e d3bc 0ad7 233d
000000d0: 0ad7 23bd 7717 cbbb 23f1 15bd 0ad7 23bd
000000e0: 3194 18bd 45af d5bc 39a3 043d 7af3 cd3a
000000f0: 0ad7 23bd 0ad7 233d 3fff 123d a468 4bbc
00000100: 0ad7 23bd 0ad7 23bd e6bc 7d3c a940 0a3d
00000110: 3a76 133d a925 e2bc 7a0c 043c 9cd2 e33b
00000120: 84c5 1fbd 9e81 dfbc 0ad7 23bd fa99 22bd
00000130: edf1 b1bc 2aa7 053d 0ad7 23bd e112 273c
00000140: f135 d4bb 0ad7 23bd 4959 fc3c 3115 23bd
00000150: cbf8 14bd 1e1f 8e3b 393d 143d 5873 86bb
00000160: 6536 273b 0ad7 23bd a966 babb 52a3 23bd
00000170: 0ad7 23bd ddb3 1bbd 0ad7 233d ae4e 133d
00000180: 5819 46bb 4032 22bd 3ccd 123d 0884 0a3d
00000190: 52aa 03bd 0ad7 233d 44a9 843b 0ad7 233d
000001a0: f748 ca3c 0ad7 233d 0ad7 23bd 760b 023d
000001b0: fef2 21bd c6ee 33bc 093d 143d 0ad7 23bd
000001c0: 9711 0fbd 0ad7 23bd 0ad7 23bd 0ad7 23bd
000001d0: 96b4 123d 0b85 06bd 0ad7 233d 7969 03bd
000001e0: 0ad7 23bd 0ad7 233d 3f9b 143d 65f4 b9bb
000001f0: e018 dfbc 0ad7 233d 0ad7 233d 1013 18bd
00000200: 0ad7 233d 0ad7 23bd 48b2 1bbd 0ad7 23bd
00000210: 0ad7 233d 0ad7 233d 0ad7 233d 4d7b d73c
00000220: 370e 0ebd 0ad7 233d f69b bdbc 0ad7 23bd
00000230: 0ad7 23bd 0ad7 233d 0ad7 23bd 0ad7 23bd
00000240: 0ad7 233d 0ad7 23bd aec2 9f3c 0ad7 233d
00000250: 5da4 b83c d968 31bc cbcf 043d 0ad7 233d
00000260: 0ad7 23bd 0ad7 233d fa72 10bd 0ad7 23bd
00000270: 0cd7 98bb 0ad7 233d 0ad7 23bd aed2 a7bc
00000280: 9dcd b5bc 0ad7 233d 6159 073d 0ad7 233d
00000290: 0ad7 233d 0ad7 233d 4614 0fbd 8eec 343c
000002a0: 0ad7 233d 0ad7 233d 0ad7 23bd 53bf c0b9
000002b0: d713 163d 08c9 f13c b0d3 79ba 0c67 e6bb
000002c0: 6606 133d 0eab 17bd 0ad7 233d 0ad7 23bd
000002d0: 0ad7 23bd c7c6 2a3c 24d1 7a3c a53f e23c
000002e0: 0ad7 23bd 93a0 c73c 0ad7 23bd 0ad7 233d
000002f0: 0ad7 233d 0ad7 23bd 7f7e 7a3c 0ad7 233d
00000300: fbb7 5fbc 0d19 0c3d 0ad7 23bd 0793 b63c
00000310: 9d02 da3c 228c 7e3c 0ad7 23bd 9241 2f3b
00000320: 0ad7 233d 0ad7 23bd c319 cf3c d298 1ebd
00000330: 0ad7 23bd 0ad7 23bd 0ad7 233d 0ad7 233d
00000340: 0ad7 23bd 0ad7 233d 0ad7 233d d9a1 9a3c
00000350: 0ad7 233d 2ca6 9b3c a703 733c 0ad7 233d
00000360: 68cf dabb 0ad7 233d d15a e4bb 0ad7 233d
00000370: 5161 fc3b a8ce 04bd d766 5fbc 0ad7 23bd
00000380: 0ad7 23bd 42a1 5c3c 0ad7 23bd 0ad7 23bd
00000390: 87de b33c bc91 d63c 27ff 12bd 0ad7 233d
000003a0: 0a77 f8bc 0ad7 23bd bc5d 8b3c 0ad7 233d
000003b0: 0ad7 23bd 95c1 b33c acf5 c23c 3315 183d
000003c0: 857d 6a3c 0ad7 23bd 0ad7 23bd 0ad7 233d
000003d0: 0ad7 233d 0ad7 233d 0ad7 233d ae1e c83c
000003e0: d9a4 c1bc 26c3 053d da7c 1b3d 0ad7 23bd
000003f0: b58a 97ba 0ad7 23bd 0ad7 233d 8f7b 5cbc
0.004986339 0.035813864 0.03443163 -0.031700123 -0.04 -0.028245162 -0.03712901 0.034184415
-0.04 -0.037130143 0.04 -0.04 -0.012778256 0.03270627 0.02744916 0.025299633
-0.033337872 0.037698682 0.010293356 0.04 -0.039557584 -0.04 0.037549116 -0.012026035
0.033740543 -0.04 -0.04 -0.04 -0.037653074 -0.01931119 0.035938863 -0.039947353
0.035819445 0.04 -0.04 -0.037446763 -0.03805078 -0.04 0.035871364 -0.017779542
0.03582899 -0.037520684 -0.04 -0.036875516 -0.039815042 0.04 -0.0019493127 -0.04
-0.03981524 0.016288709 -0.02582455 0.04 -0.04 -0.0061978656 -0.03660692 -0.04
-0.0372507 -0.026084552 0.032382224 0.001571282 -0.04 0.04 0.035887953 -0.012415085
-0.04 -0.04 0.015486931 0.03375307 0.03600142 -0.027605848 0.008059615 0.006952597
-0.039006725 -0.027283486 -0.04 -0.039697625 -0.021721805 0.032630123 -0.04 0.010197372
-0.006476157 -0.04 0.030804293 -0.03981513 -0.03637008 0.0043372056 0.0361912 -0.0041031055
0.00255146 -0.04 -0.0056885076 -0.039950676 -0.04 -0.038013328 0.04 0.035963707
-0.0030227508 -0.039598703 0.035840258 0.03381732 -0.032144852 0.04 0.0040484983 0.04
0.024692995 0.04 -0.04 0.03174921 -0.039538376 -0.010982221 0.03619102 -0.04
-0.034928884 -0.04 -0.04 -0.04 0.03581675 -0.032841723 0.04 -0.03208301
-0.04 0.04 0.036280867 -0.005674886 -0.027233541 0.04 0.04 -0.037127554
0.04 -0.04 -0.03801182 -0.04 0.04 0.04 0.04 0.026303912
-0.034681525 0.04 -0.023145657 -0.04 -0.04 0.04 -0.04 -0.04
0.04 -0.04 0.01950201 0.04 0.022539312 -0.01082822 0.03242473 0.04
-0.04 0.04 -0.0352659 -0.04 -0.0046643075 0.04 -0.04 -0.020486202
-0.02219277 0.04 0.033044223 0.04 0.04 0.04 -0.034931444 0.011042727
0.04 0.04 -0.04 -0.0003676364 0.036640014 0.029514804 -0.000953014 -0.007031327
0.035894774 -0.037028365 0.04 -0.04 -0.04 0.010423369 0.015308652 0.027618239
-0.04 0.02436856 -0.04 0.04 0.04 -0.04 0.015288948 0.04
-0.013654704 0.034203578 -0.04 0.022286905 0.026612574 0.01553634 -0.04 0.0026741964
0.04 -0.04 0.025280839 -0.03871996 -0.04 -0.04 0.04 0.04
-0.04 0.04 0.04 0.018876003 0.04 0.019000135 0.014832414 0.04
-0.006677557 0.04 -0.006968834 0.04 0.0077020307 -0.032423645 -0.013635359 -0.04
-0.04 0.013466181 -0.04 -0.04 0.021956695 0.026192538 -0.035887863 0.04
-0.0303302 -0.04 0.01701247 0.04 -0.04 0.021942893 0.023798786 0.037129592
0.014312153 -0.04 -0.04 0.04 0.04 0.04 0.04 0.024428692
-0.023638176 0.03265681 0.037960865 -0.04 -0.0011561724 -0.04 0.04 -0.013457193

net.2.module.bias f4 [128]
00000000: 5325 a83d 5b5b 0cbd f528 d43c 0b84 31bd
00000010: 277c eebc 7097 16bd f1c9 033d 527a ae3c
00000020: 9022 7ebd 775b b73d 72f9 19bd b9ba 923c
00000030: 00dd 98bd 127a dabc 0626 943a 8d81 82bd
00000040: de91 b4bd f865 2e3c 95f8 0f3c 0fd4 edbc
00000050: 8143 4bbd a66d 823d 8571 8a3d 9c34 d43d
00000060: 2626 843d 7256 7cb9 d2f4 8bbd f5f4 89bd
00000070: 9ae2 8d3d f729 b4bc bfe3 6bbd 49d4 153d
00000080: c91d 37bd 5e15 41bd 2947 8cbd 3715 0a3d
00000090: d87f 26bd effa f43c e883 aa3d ec2c 45bc
000000a0: 538b c03d eab1 77bd af82 a6bd d4da 95bd
000000b0: c5fd 5f3d 9edb 60bc bdde 2b3d fcfd 843d
000000c0: 1d6d 8cbd 9b3b 9b3d 2313 383c 42f2 c5bc
000000d0: d6e9 4d3d 4b06 14bc 6f27 2abd d8cc a3bb
000000e0: e149 e63b dc6c d5bc 874b 4ebd 1c51 fb3c
000000f0: 7c57 0d3d 0099 eb3b 59bc ac3d dab9 59bd
00000100: ae83 e7bc ed22 0abd 254e 593d f28f a2bd
00000110: 99a2 a93d 575f b13d 1d3d 84bd 863b cebc
00000120: 8ca4 62bd 1d6f 2d3d 2cfa e93b 36c8 74bd
00000130: 8f40 293d ed90 26bc bd5c e83b 7491 0ebd
00000140: 2c13 83bd 204e c7bb 2738 873d efbd 00bd
00000150: b635 a33c 7b67 75ba d8a6 8d3d 3250 8f3d
00000160: 5559 603b 633b be3c 9422 2fbd 5019 a93d
00000170: 8cc9 c53d 2ed2 8c3d adda 983d 8f88 553d
00000180: 0a6f a4bd be89 3cbc 90ee 82bd 4ec8 a03d
00000190: 0086 d23c d5ef 8fbd 66b9 ff3c 4109 4f3d
000001a0: ba59 bc3c f740 883d 27db b3bc ff85 a5ba
000001b0: 9741 1f3d f9d6 173d e99d b2bd bc08 123b
000001c0: 4fa1 db3d f1b5 88bc 2101 41bd 44ba 31bd
000001d0: 4d89 153c 6510 da3c e997 2ebd db06 ae3d
000001e0: 621a fe3c bb18 a53c 8e29 9bbd 0dab 683d
000001f0: 2b28 ea3c 8f21 aebd dd71 723d 06eb 333d
0.08210244 -0.03426681 0.025898436 -0.043338817 -0.029111935 -0.036765516 0.03217501 0.021298561
-0.06204468 0.089529924 -0.037591405 0.017911302 -0.074640274 -0.026669536 0.0011302836 -0.06372366
-0.088168845 0.010644428 0.008787294 -0.029031781 -0.049624924 0.0636857 0.067599334 0.10361597
0.06452589 -0.00024064796 -0.06833805 -0.06736175 0.069279864 -0.021992667 -0.057590242 0.036579404
-0.04470614 -0.047139518 -0.0684951 0.03371164 -0.040649265 0.02990481 0.0832594 -0.012034636
0.09401574 -0.060472406 -0.08130395 -0.07317129 0.054685373 -0.013724236 0.041960467 0.06493756
-0.06856749 0.07579728 0.011235031 -0.02416337 0.05027183 -0.0090347035 -0.041541513 -0.0049987845
0.00702785 -0.026052885 -0.050364997 0.030678324 0.03450726 0.00718987 0.08434362 -0.053155757
-0.028261032 -0.033724714 0.05305304 -0.07937612 0.08282966 0.08660763 -0.06456969 -0.025174867
-0.055332705 0.042342294 0.0071404185 -0.05976125 0.041321333 -0.010166389 0.0070911334 -0.034806684
-0.06400141 -0.0060823113 0.06602507 -0.031431135 0.019923072 -0.0009361428 0.069165885 0.06997718
0.0034232934 0.023221677 -0.042757586 0.08256781 0.09657583 0.06876026 0.07463584 0.052132186
-0.080289915 -0.01150745 -0.063931584 0.07850705 0.025698662 -0.07028166 0.031216335 0.050545935
0.022992004 0.06653016 -0.021955086 -0.0012628435 0.03888091 0.03707025 -0.08721525 0.0022283038
0.107241265 -0.016688319 -0.047120217 -0.043390527 0.009126973 0.026619146 -0.04262534 0.08497401
0.03101844 0.020153394 -0.07576285 0.05680375 0.028583607 -0.085024945 0.05919062 0.043925308

net.4.module.weight f4 [1, 128]
00000000: ba8d 153d 0ad7 23bd 4fe0 15bd 5050 0e3d
00000010: e3b2 af3c 0ad7 233d f1f8 183d a915 193d
00000020: 0ad7 23bd 1640 153d 0ad7 23bd b676 153d
00000030: fddb dd3c 3c84 153d 0ad7 23bd c305 23bd
00000040: 0ad7 233d 0ad7 233d 36c1 22bd 0ad7 23bd
00000050: a869 23bd fcb4 22bd 05fc 143d fd8c 153d
00000060: b201 16bd 0373 873b d057 16bd 69c6 203d
00000070: 53a1 213c ac2e 21bd 0ad7 23bd e042 16bd
00000080: 753b 23bd 2d69 1bbd e051 23bd e9a9 23bd
00000090: 0ad7 23bd 080c c4bc 0eed 6cbc 6ef5 1abd
000000a0: 1bd4 153d d55d 153d 0ad7 23bd 1dbb d53c
000000b0: b573 153d 6010 c1bb dc53 153d 9d37 153d
000000c0: 0ad7 23bd 14b7 ae3c 75ea 15bd 20b3 153d
000000d0: 9a5e 153d c023 16bd 6250 08bc 0ad7 23bd
000000e0: 0ad7 233d a589 78bc 0572 20bd 605e 153d
000000f0: 4d2a 163d 542d 16bd 1064 15bd 3e7e 153d
00000100: b115 003d 9bdd 153d 4c6a 16bd 0ad7 23bd
00000110: 5ee8 1fbd 63a9 153d a169 213d 2a19 16bd
00000120: 0e7d 153d 6084 183d c01e 16bd cece dfbc
00000130: 4d5f 153d 2d87 07bd 0ad7 23bd 9061 16bd
00000140: f78d 083d 8f4d 16bd 5721 16bd d6c4 153d
00000150: ec0b 16bd e1ab 013d 1207 153d afbb 023d
00000160: 0ad7 23bd 13bf 153d 287a 97bc 9c48 15bd
00000170: 26aa 153d e11e 16bd de72 16bd bf7a 16bd
00000180: 0ad7 23bd 16f2 15bd 7c93 92bc 0ad7 23bd
00000190: 8379 0f3d 20f3 913c 1b3a 153d 0ad7 23bd
000001a0: afa6 153d b18b 153d cc95 153d e47b 20bd
000001b0: b167 183d 4c8e 153d f297 773c 0ad7 23bd
000001c0: 0abf 153d 0ad7 23bd 0ad7 233d 0edb 153d
000001d0: 6f51 fbbb ec46 153d 7985 92bc 2857 153d
000001e0: 9508 16bd 404b 20bd 3d6a 23bd 6d94 c63c
000001f0: 8c78 153d 7b72 7c3c fa0e 153d d7ac 0c3d
0.036512114 -0.04 -0.03659087 0.03474456 0.021447605 0.04 0.037346784 0.037374172
-0.04 0.03643807 -0.04 0.036490165 0.027082438 0.03650306 -0.04 -0.039800417
0.04 0.04 -0.03973504 -0.04 -0.039895684 -0.03972338 0.036373157 0.03651141
-0.03662271 0.0041335835 -0.03670484 0.03925172 0.009865123 -0.03935115 -0.04 -0.03668487
-0.039851625 -0.0379421 -0.039873004 -0.03995696 -0.04 -0.023931518 -0.014460815 -0.037831716
0.036579233 0.03646644 -0.04 0.0260902 0.0364873 -0.0058918446 0.036456928 0.03642999
-0.04 0.021327533 -0.03660055 0.03654778 0.036467172 -0.036655188 -0.008319946 -0.04
0.04 -0.015169536 -0.039171237 0.036466956 0.036661435 -0.036664322 -0.03647238 0.036497347
0.031270687 0.036588293 -0.036722466 -0.04 -0.039039962 0.036538493 0.039407376 -0.036645092
0.036496215 0.037235618 -0.03665042 -0.027320292 0.03646784 -0.033087898 -0.04 -0.036714137
0.033338513 -0.03669506 -0.03665289 0.03656467 -0.036632463 0.031658057 0.036383696 0.03191727
-0.04 0.036559176 -0.018490866 -0.0364462 0.03653922 -0.036650542 -0.03673064 -0.036738154
-0.04 -0.036607824 -0.017892592 -0.04 0.035027992 0.017816126 0.036432367 -0.04
0.036535915 0.036510173 0.03651981 -0.03918065 0.037208263 0.036512658 0.01511191 -0.04
0.036559142 -0.04 0.04 0.03658586 -0.0076696198 0.03644459 -0.01788591 0.03646007
-0.03662928 -0.039134264 -0.03989624 0.024240697 0.036491916 0.015408154 0.036391236 0.03434452
