checkpoints/nd/dim_2/width_128/method_wgan-lp.pt (torch, 69975 bytes, 5 tensors)

net.0.weight f4 [128, 2]
0	0xbf48777c	-0.7830732
1	0xbe80f07c	-0.25183475
2	0x3d0baf8f	0.034102973
3	0x3d210b5c	0.039317474
4	0x3efd6f13	0.49498805
5	0xbec675b1	-0.38761666
6	0xbf001a99	-0.50040585
7	0xbe35619a	-0.17713013
8	0xbf172b90	-0.59050846
9	0x3f07480c	0.5284431
10	0x3e80dfe3	0.25170812
11	0xbf099cb4	-0.53754735
12	0x3e84616f	0.25855586
13	0xbd9e5f3f	-0.077330105
14	0xbf159ef5	-0.58445674
15	0x3e1e83c6	0.15479955
16	0xbf32f7c1	-0.6990929
17	0x3ce2f09d	0.027702624
18	0xbefbd074	-0.49182475
19	0xbe5f5e2a	-0.21813264
20	0xbf139675	-0.57651454
21	0xbe901d5b	-0.28147396
22	0x3ebf3083	0.373417
23	0xba28e9d7	-0.0006443536
24	0xbe038c6d	-0.12846537
25	0xbf27cb1e	-0.6554431
26	0x3f426f84	0.7595141
27	0xbe40e876	-0.18838677
28	0xbc98533a	-0.018594373
29	0xbf040a05	-0.5157779
30	0xbdb23313	-0.08701148
31	0xbddface9	-0.10921652
32	0xbf2e3007	-0.68042034
33	0xbea46bce	-0.32113498
34	0x3f04fe3d	0.51950437
35	0x3e8671f4	0.26258814
36	0x3e5e4985	0.21707733
37	0x3f25eb1e	0.64811885
38	0xbf3323b5	-0.6997636
39	0xbf38fe22	-0.72262776
40	0xbd89e201	-0.0673256
41	0x3f01308d	0.5046471
42	0x3e0c04e2	0.13673738
43	0x3e75032b	0.2392699
44	0xbde37b08	-0.11107451
45	0xbe624448	-0.2209636
46	0x3d872048	0.06597954
47	0xbc8b280a	-0.016986866
48	0x3d9ea457	0.07746189
49	0x3f0541c3	0.5205347
50	0x3f10afe5	0.56518394
51	0xbd27b973	-0.040948343
52	0x3e18b528	0.14912856
53	0x3eaac618	0.3335426
54	0x3f005ce9	0.5014177
55	0x3de6f6d2	0.11277546
56	0xbcc039f6	-0.023465138
57	0xbf024742	-0.5088998
58	0xbea85f99	-0.32885435
59	0xbe31ce92	-0.17363957
60	0xbf1a27a7	-0.60216755
61	0x3f0532cf	0.5203065
62	0x3d996732	0.07490386
63	0x3f02879f	0.5098819
64	0x3ef79805	0.4835817
65	0xbeb0020a	-0.34376556
66	0xbeb3bd74	-0.3510548
67	0xbecc33ac	-0.39883173
68	0x3f4c4a31	0.7980071
69	0x3ee3be33	0.44481048
70	0xbf25a615	-0.64706546
71	0x3f18d898	0.59705496
72	0xbc5b71a6	-0.013393795
73	0xbf3a23e0	-0.7271099
74	0x3ef3f5f5	0.47648588
75	0x3e8d398d	0.2758297
76	0xbea043e4	-0.31301796
77	0x3f1210a3	0.57056636
78	0x3e4fc8ff	0.20291518
79	0xbd0e0624	-0.034673825
80	0x3eb8a09a	0.3606003
81	0x3e198c93	0.14995031
82	0x3ed378c7	0.41303083
83	0xbf0a363f	-0.5398902
84	0xbd0bfa5d	-0.034174312
85	0xbe217344	-0.15766627
86	0xbf064be1	-0.5245953
87	0xbf3345b6	-0.70028245
88	0x3f28808b	0.6582114
89	0x3f469d8d	0.77584153
90	0x3ec69c49	0.3879111
91	0xbee1f789	-0.44134167
92	0x3f0056d0	0.50132465
93	0x3ec03e33	0.37547454
94	0xbf2dab98	-0.67839956
95	0xbf121a9f	-0.5707187
96	0xbe9b58ff	-0.30341336
97	0xbed484ed	-0.41507664
98	0xbf3add03	-0.7299349
99	0xbf1c54db	-0.6106698
100	0xbe7b6aec	-0.24552506
101	0xbed28d08	-0.41123223
102	0xbf01ab49	-0.50651985
103	0xbf110ea0	-0.5666294
104	0x3f42235d	0.7583521
105	0x3ef279aa	0.47358447
106	0x3d8c7a86	0.06859307
107	0x3d2a894d	0.041634846
108	0xbe8f9f7b	-0.2805136
109	0x3f10eca7	0.566111
110	0xbf0579bf	-0.52138895
111	0x3f1eaef2	0.61985695
112	0x3f24a1be	0.643093
113	0x3e9c380f	0.3051152
114	0x3e50e0cf	0.20398258
115	0xbe4f03da	-0.20216313
116	0x3d2b3a4b	0.04180364
117	0x3e9a3ed9	0.30126074
118	0xbdabc42c	-0.08387026
119	0xbeb7bc57	-0.3588588
120	0x3f2da4ad	0.678294
121	0xbf07c852	-0.5304004
122	0x3db0d92b	0.086351715
123	0xbf0888ec	-0.53333926
124	0x3e6f6959	0.2338003
125	0x3e46631f	0.19373749
126	0xbf07655f	-0.52889055
127	0x3e709117	0.23492847
128	0x3dde886a	0.10865863
129	0xbf1041f9	-0.56350666
130	0x3e614041	0.21997167
131	0xbf342f11	-0.7038432
132	0xbeec4d7d	-0.4615287
133	0xbf0a1a48	-0.5394635
134	0x3ef33219	0.4749916
135	0x3e8c40b3	0.27393112
136	0x3e9bd88d	0.30438653
137	0x3e7cd27a	0.24689665
138	0x3f0efa3d	0.55850583
139	0xbedeeeae	-0.43541473
140	0x3f16e90a	0.5894934
141	0xbe39b0fb	-0.18133919
142	0x3f35af3a	0.709705
143	0xbdd8dab9	-0.10588593
144	0xbf031453	-0.5120289
145	0xbf0c0603	-0.54696673
146	0x3f1b1773	0.60582656
147	0x3efe5dca	0.4968093
148	0xbe14dc96	-0.14537272
149	0xbf00bac9	-0.5028501
150	0xbf1af0d4	-0.60523725
151	0xbf478c21	-0.77948195
152	0x3d8edff1	0.06976307
153	0x3ee962d8	0.45583224
154	0xbe2d0f76	-0.16900429
155	0x3f173182	0.5905992
156	0x3e2d80df	0.16943692
157	0xbedb21fc	-0.42799366
158	0x3eb46c5a	0.35238916
159	0x3ec18d98	0.3780334
160	0x3e38165b	0.17977278
161	0xbeade904	-0.3396684
162	0x3e63ab54	0.22233325
163	0x3f282a67	0.656897
164	0xbf2b5063	-0.66919535
165	0x3ed60e97	0.41808006
166	0x3ba3c46b	0.00499778
167	0xbf3ce1e7	-0.737822
168	0x3ea1c3cc	0.31594694
169	0xbccc0d1f	-0.0249086
170	0xbf1e444e	-0.61822975
171	0x3ef95f58	0.48705554
172	0x3d520cf9	0.051281903
173	0x3b224c00	0.0024764538
174	0x3f27cd23	0.6554739
175	0xbdef729a	-0.116917804
176	0xbe3a5b9a	-0.18199006
177	0x3ef62ca7	0.48080942
178	0x3ebf9a46	0.3742239
179	0xbd6cdfa3	-0.057830464
180	0x3f27aaed	0.6549519
181	0xbf084d69	-0.5324312
182	0xbf477132	-0.779071
183	0xbdb3cdd9	-0.08779497
184	0x3e9d34bd	0.307043
185	0x3e80a852	0.25128418
186	0x3d50329e	0.050829522
187	0xbe8baab5	-0.27278677
188	0xbd5f23d1	-0.054477517
189	0xbf28baf1	-0.6591025
190	0xbe1e9dfe	-0.15489957
191	0x3f22453b	0.6338689
192	0x3de23b65	0.11046485
193	0x3f2fc052	0.6865283
194	0xbf1a05e9	-0.6016527
195	0x3ef3b517	0.47599098
196	0xbe35fbcc	-0.17771834
197	0xbf19e8b1	-0.60120684
198	0x3eaddcba	0.33957464
199	0x3ee00faf	0.43761966
200	0x3ed1e509	0.40995052
201	0x3ed400cd	0.4140686
202	0xbf170509	-0.5899206
203	0xbd2bfabc	-0.041987166
204	0x3f38cc37	0.7218661
205	0x3f159a58	0.58438635
206	0xbe71e455	-0.23622258
207	0x3edb59d6	0.42841977
208	0xbf0a90a8	-0.5412698
209	0xbee71999	-0.45136717
210	0xbe99ec4d	-0.30063096
211	0x3f48b74b	0.7840468
212	0x3ea0014b	0.31250986
213	0xbea4112c	-0.3204435
214	0x3d482544	0.048863664
215	0x3ef23001	0.4730225
216	0xbef696b8	-0.48161864
217	0xbe3decd9	-0.18547381
218	0xbf289c71	-0.6586371
219	0x3eedd661	0.4645262
220	0xbeba454c	-0.36380994
221	0xbed99d39	-0.42502764
222	0xbf299ef4	-0.6625817
223	0xbf1d2c88	-0.61396074
224	0x3ddc43e5	0.10755137
225	0xbf07807f	-0.52930444
226	0x3eb414b2	0.3517204
227	0xbea71279	-0.3263128
228	0x3eb70430	0.35745382
229	0xbb0bd194	-0.0021334635
230	0x3effe6e6	0.4998085
231	0xbf38b49e	-0.721506
232	0xbef0c340	-0.47023964
233	0xbecb390d	-0.39691964
234	0xbe72a736	-0.23696598
235	0xbf09789c	-0.5369966
236	0x3de31e27	0.110897355
237	0xbec9f6c4	-0.3944608
238	0xbf23dd47	-0.6400952
239	0x3e9d9034	0.3077408
240	0x3ecff037	0.40612957
241	0x3e645193	0.22296743
242	0x3eec6a31	0.46174768
243	0xbe355504	-0.17708212
244	0xbf0ee34d	-0.55815583
245	0xbdd2a241	-0.10284854
246	0xbf12adba	-0.57296336
247	0x3e9e750c	0.30948675
248	0x3eddb914	0.43305266
249	0xbefba09b	-0.4914597
250	0xbe0f0d55	-0.1396993
251	0x3d4ecad3	0.050486397
252	0x3d08accc	0.033367917
253	0x3ea268ff	0.3172073
254	0xbe7c21b9	-0.24622239
255	0x3e390898	0.18069685

net.0.bias f4 [128]
0	0xbda00862	-0.07814099
1	0x3ee799f6	0.4523465
2	0x3ebf0a88	0.37312722
3	0x3ef65b72	0.48116642
4	0x3f22287e	0.63343036
5	0x3ed1d638	0.40983748
6	0xbf238ff8	-0.63891554
7	0x3e122115	0.14270432
8	0xbf0b2d3d	-0.54365903
9	0xbe31a5c8	-0.17348397
10	0x3d227a25	0.039667267
11	0xbf32a780	-0.69786835
12	0xbec9824d	-0.39357224
13	0xbef4abc8	-0.4778731
14	0x3f31d8d7	0.69471496
15	0x3d9ddd30	0.07708204
16	0x3ef2a5da	0.4739216
17	0x3ec6779e	0.38763136
18	0x3dbdfa9c	0.092763156
19	0xbedd431c	-0.43215263
20	0x3c84dfd3	0.016220009
21	0x3ec22e76	0.37926072
22	0x3dd8732e	0.10568844
23	0xbf1fb94e	-0.6239213
24	0x3f299921	0.6624928
25	0xbf0ddd19	-0.55415493
26	0x3e5483c2	0.20753387
27	0x3f452569	0.7701021
28	0xbe72babf	-0.2370405
29	0x3f2ef194	0.6833737
30	0xbf2e3bff	-0.68060297
31	0x3f250487	0.64460033
32	0x3f0ea2a9	0.5571695
33	0x3f11e0c3	0.56983584
34	0x3ef1e56d	0.4724535
35	0x3e811dc8	0.25218034
36	0xbee6c064	-0.45068657
37	0xbe57143a	-0.2100381
38	0xbea6b89b	-0.32562718
39	0x3f3e07df	0.7423076
40	0x3ed81d98	0.42210078
41	0xbeb87dd4	-0.360335
42	0x3e9ee7e7	0.31036302
43	0x3f19a7cb	0.60021657
44	0xbe1df7c4	-0.15426546
45	0x3ea4fcbe	0.32224077
46	0x3d8d691d	0.069048144
47	0xbf4941e0	-0.7861614
48	0x3e618b64	0.2202583
49	0xbf588a98	-0.8458648
50	0x3f21e82b	0.63244885
51	0xbe9e3fc1	-0.30908015
52	0x3e6bd0e8	0.2302891
53	0xbe993008	-0.29919457
54	0xbe833b2a	-0.25631076
55	0xbf3a51a9	-0.72780854
56	0xbbea5cfd	-0.0071521983
57	0x3e4f77d5	0.20260556
58	0xbeb22b90	-0.3479886
59	0x3f36fab2	0.7147628
60	0xbd84b12b	-0.064791046
61	0x3f5b90cb	0.8576781
62	0x3f42b1da	0.7605263
63	0x3d02fbbe	0.03197836
64	0x3f224909	0.6339269
65	0xbf451456	-0.76984155
66	0xbedd0528	-0.43167996
67	0xbe59102b	-0.21197574
68	0x3f4e5a40	0.8060646
69	0x3ed9dac2	0.4254971
70	0x3e891693	0.26775035
71	0x3f0f2214	0.55911374
72	0xbeb6865a	-0.35649377
73	0x3e8453c7	0.25845167
74	0x3e88ccd8	0.26718783
75	0xbeaa9f8c	-0.3332485
76	0x3ec22c99	0.3792465
77	0xbed5163b	-0.41618523
78	0xbf410205	-0.75393707
79	0x3eee1e36	0.46507424
80	0x3ee9a704	0.45635235
81	0x3f0ed7f3	0.5579826
82	0xbf3bc160	-0.7334194
83	0xbf426e7b	-0.7594983
84	0xbe849ca0	-0.25900745
85	0x3e93b649	0.2885001
86	0x3f163df8	0.58688307
87	0xbf1f7a79	-0.62296253
88	0x3f364bb8	0.7120929
89	0x3f583289	0.8445211
90	0x3eebd40a	0.4606021
91	0x3eb8b81f	0.36077973
92	0x3f514524	0.81746125
93	0x3e96c626	0.2944805
94	0x3dfaf4c6	0.12253718
95	0x3f18c337	0.59672874
96	0xbf3ef004	-0.74584985
97	0x3e9145f6	0.28373688
98	0x3e0d369b	0.13790362
99	0xbf1b0553	-0.60555
100	0xbf157a60	-0.58389854
101	0xbe72a325	-0.23695047
102	0xbf1ea6ab	-0.61973065
103	0xbf25811f	-0.6465015
104	0x3eaf7e69	0.3427613
105	0xbf40c64d	-0.7530258
106	0x3ee9b216	0.4564368
107	0x3f4c0697	0.79697555
108	0xbf0bbec1	-0.5458794
109	0xbf17fdf0	-0.5937185
110	0x3f2a7a2e	0.6659268
111	0x3e912523	0.28348646
112	0xbf32e86a	-0.69885886
113	0xbd7a5f94	-0.061126307
114	0xbf2afca5	-0.66791755
115	0x3db4a179	0.08819861
116	0x3e9cdc1e	0.30636686
117	0x3f0f1250	0.5588732
118	0x3ebd021a	0.36915666
119	0xbc0c16af	-0.00855033
120	0x3ebef79d	0.3729829
121	0x3f2c5ae7	0.67326206
122	0xbedf0534	-0.43558657
123	0x3eb7e961	0.3592024
124	0x3eb7e993	0.3592039
125	0x3e8b35b1	0.271894
126	0x3e4ad757	0.19808708
127	0xbe53c43b	-0.20680325

net.2.weight f4 [128, 128]
0	0xbb80c902	-0.003930212
1	0x3cfa6dba	0.0305699
2	0x3c57c011	0.013168351
3	0xbd8e9535	-0.06962053
4	0x3d9f677a	0.077834085
5	0xbdcad44e	-0.09903775
6	0xbd8fdfed	-0.07025132
7	0x3dcc957e	0.09989451
8	0x3cd491d8	0.02594845
9	0x3cac37cc	0.0210227
10	0x3d90fdaa	0.070796326
11	0xbde46f5c	-0.111540526
12	0xbd82bded	-0.06383882
13	0xbdaf12c7	-0.08548503
14	0xbce2968a	-0.027659673
15	0x3d2be75f	0.0419687
16	0x3d4bf969	0.049798403
17	0x3d6badf8	0.057538956
18	0x3d56875e	0.05237519
19	0xbd692d8d	-0.056928206
20	0x3dfbb5c6	0.1229053
21	0x3c18db09	0.009329566
22	0xbd7f3269	-0.062303934
23	0x3dafe729	0.08589012
24	0xbded4025	-0.115845
25	0x3dc66941	0.09688044
26	0x3e8f04aa	0.27933246
27	0x3d86483d	0.06556747
28	0x3d8a7fc2	0.06762649
29	0xbe047d28	-0.12938368
30	0xbe4e8f86	-0.20171937
31	0xbe422928	-0.18961012
32	0x3aa266d7	0.0012390268
33	0xbd9c468b	-0.076306425
34	0xbd90c7a0	-0.070693254
35	0x3cd00974	0.025395133
36	0x3d25c8e1	0.040474776
37	0xbd188155	-0.037232716
38	0xbb93def8	-0.004512664
39	0x3d17b5f1	0.037038747
40	0x3c897f33	0.016784286
41	0x3d451dfa	0.04812429
42	0x3c082022	0.008308442
43	0x3ca7b2c3	0.020470982
44	0xbd0a58b4	-0.033776
45	0x3d6cc1b3	0.057801913
46	0x3dbdb430	0.09262884
47	0xbd10891a	-0.035287
48	0xbda6ab4a	-0.081381395
49	0x3d18e9c0	0.037332296
50	0xbdbacf97	-0.09121626
51	0xbbaecfcb	-0.0053348294
52	0x3d50223c	0.0508139
53	0x3d06f356	0.032946907
54	0x3d43ccb3	0.04780264
55	0xbd7c7d49	-0.06164292
56	0xbda251e6	-0.07925777
57	0xbd904e11	-0.0704614
58	0xbf0b95a1	-0.5452519
59	0x3d6f5732	0.058432765
60	0x3da7bc1f	0.08190178
61	0xbc87225d	-0.016495878
62	0xbe207786	-0.15670595
63	0x3dfdd520	0.12394166
64	0x3dec43aa	0.115363434
65	0xb9d1969b	-0.00039975796
66	0xbc701569	-0.014653542
67	0xbcdef612	-0.027216945
68	0x3d5fb557	0.0546163
69	0x3dc0ff62	0.094237104
70	0x3e07f6bd	0.13277717
71	0x3dd9cdf3	0.10634985
72	0xbdc2ee7a	-0.09518142
73	0x3dcd9829	0.10038788
74	0x3d0e82ab	0.034792583
75	0xbc890b1e	-0.016728934
76	0xbe80ce92	-0.251576
77	0xbd9daabc	-0.076985806
78	0xbcea780c	-0.028621696
79	0x3e36ee1e	0.17864272
80	0xbd223755	-0.03960355
81	0xbe158d60	-0.14604712
82	0xbcae9fab	-0.02131637
83	0xbe113673	-0.14180927
84	0x3c31fbf9	0.010863298
85	0x3c047141	0.008083642
86	0xbd6c51c1	-0.057695154
87	0x3def48d9	0.116838165
88	0xbe8a6bab	-0.2703527
89	0xbcf160a5	-0.029465029
90	0xbd4b0ed4	-0.049574688
91	0x3d2edd8c	0.042691752
92	0xbb70b1b8	-0.0036727022
93	0xbd9177e0	-0.071029425
94	0x3d7efbbd	0.062251795
95	0xbd8a8663	-0.067639135
96	0xbed0703f	-0.40710637
97	0x3e048866	0.12942657
98	0x3dbcea6b	0.09224399
99	0xbeebadb6	-0.46030968
100	0xbdb35907	-0.08757215
101	0x3db80c23	0.0898669
102	0xbe3dbf61	-0.18530037
103	0xbe1d2f3a	-0.15350047
104	0x3d3386d3	0.04382975
105	0x3de55303	0.11197474
106	0xbda75873	-0.08171167
107	0xbd078008	-0.033081084
108	0xbcc68ede	-0.024238046
109	0x3d8838ef	0.06651484
110	0x3d307a39	0.04308531
111	0x3d0cfdf0	0.03442186
112	0xbe50feca	-0.20409694
113	0x3deddbeb	0.11614212
114	0xbde774c4	-0.11301568
115	0x3db7c735	0.089735426
116	0x3da1f6d5	0.079084076
117	0xbde5c34c	-0.112188905
118	0x3ba7aeb8	0.0051172636
119	0x3e1370f2	0.14398554
120	0x3dc5437e	0.09632014
121	0xbb37c9d5	-0.0028043885
122	0x3a106604	0.00055083656
123	0x3e2c2aa5	0.16813143
124	0xbcb157da	-0.021648336
125	0xbbe46057	-0.0069694924
126	0xbe92f7d8	-0.28704715
127	0xbdb1152e	-0.08646618
128	0xbc7f4860	-0.01558122
129	0xbc599aa2	-0.013281496
130	0xbd99950a	-0.0749913
131	0xbd2e3bec	-0.042537615
132	0xbbc15d1c	-0.005900992
133	0xbca923ae	-0.020646896
134	0x3e935fc7	0.2878401
135	0xbd379c5c	-0.04482685
136	0xbc92098a	-0.017826814
137	0x3d652b97	0.055949774
138	0xbd8d4c2f	-0.068992965
139	0xbdd615d8	-0.10453385
140	0xb9c345ad	-0.0003724521
141	0xbd0b147b	-0.03395508
142	0x3d3bc617	0.04584321
143	0x3dafaaaf	0.08577477
144	0xbcd13f75	-0.025542954
145	0xbdba0f52	-0.09084953
146	0x3d3e54f6	0.046467744
147	0x3c92391c	0.017849497
148	0x3d8bbe62	0.06823422
149	0x3af6c374	0.001882656
150	0xbcf4add9	-0.029868053
151	0x3d427f1a	0.047484495
152	0x3d8f8b07	0.07008939
153	0x3d981682	0.07426168
154	0x3d0e25fe	0.0347042
155	0x3d4304ff	0.047612187
156	0xbd16d74e	-0.036826424
157	0x3d4593f9	0.04823682
158	0x3cb5ede6	0.022208165
159	0x3dd752b8	0.10513824
160	0x3d64548a	0.055744685
161	0x3d261bf9	0.04055402
162	0x3d44eeef	0.048079427
163	0x3c9728ab	0.01845201
164	0xbdafdf36	-0.08587496
165	0xbb82340b	-0.003973489
166	0xbd54cefc	-0.05195521
167	0x3d7cc7b7	0.0617139
168	0x3d2e0cf3	0.042492818
169	0x3d00a113	0.031403612
170	0xbcf2bcaf	-0.029630987
171	0x3cae6a24	0.021290846
172	0x3d4866e0	0.048926234
173	0x3db645d7	0.0890004
174	0xbcdcb63b	-0.026942363
175	0xbd98f18d	-0.07467947
176	0xbc8254f8	-0.015909657
177	0xbdac943f	-0.08426713
178	0x3d2a08c6	0.041512273
179	0x3db759ce	0.08952676
180	0x3d394f39	0.04524157
181	0xbd067b5c	-0.03283249
182	0xbd4ff1a5	-0.05076756
183	0x3b76ce49	0.0037659577
184	0x3ba78187	0.0051118764
185	0xbcf64b15	-0.030065099
186	0xbcb1d318	-0.021707103
187	0x3d9a77cd	0.075423814
188	0xbd23d16f	-0.039994653
189	0x3cefcba8	0.029271916
190	0x3dfc8c9f	0.12331509
191	0x3c58a51d	0.01322296
192	0x3d0cc1c4	0.034364477
193	0x3bb1a763	0.0054215654
194	0x3d67c256	0.056581818
195	0xbd8ecb23	-0.06972339
196	0xbd13423f	-0.03595185
197	0xbd323572	-0.043508
198	0x3c129d2f	0.008948608
199	0x3d870675	0.065930285
200	0x3c72e9d8	0.0148262605
201	0xbc31ad6e	-0.0108445715
202	0x3d1cfe09	0.038328204
203	0x3c91460a	0.017733593
204	0xbdbc578f	-0.09196388
205	0x3cf46d44	0.029837258
206	0xbd6e2161	-0.0581373
207	0x3ccb7db1	0.024840208
208	0x3cad746f	0.021173684
209	0xbd084750	-0.033271134
210	0x3dba1c2f	0.09087407
211	0xbd48d845	-0.049034376
212	0x3de12009	0.10992438
213	0xbd11a720	-0.035559773
214	0x3dbf96f2	0.093549624
215	0x3cc6e6fb	0.024280062
216	0x3c96a4e4	0.018389173
217	0xbcf18a3f	-0.029484866
218	0xbbab34cd	-0.0052248
219	0x3caccad9	0.021092819
220	0x3c9f835e	0.01947182
221	0xbd93513e	-0.0719323
222	0x3d14bfeb	0.03631584
223	0x3cd44424	0.025911398
224	0xbd97eb0a	-0.07417877
225	0xbb3031e5	-0.0026885208
226	0xbd8919f4	-0.06694403
227	0xbd1dabc1	-0.038493875
228	0xbe08a19d	-0.133429
229	0x3d871f8a	0.065978125
230	0xbd84b966	-0.064806744
231	0x3cd36f9c	0.025810055
232	0x3cf6cb43	0.03012622
233	0x3d49546c	0.049152777
234	0xbdb412d9	-0.087926574
235	0xbd04994e	-0.032372765
236	0xbd2e042c	-0.042484447
237	0xbd3c4605	-0.045965213
238	0x3d63a048	0.055572778
239	0xba5c85ad	-0.0008412253
240	0x3cf0abb4	0.02937875
241	0x3d3025c2	0.04300476
242	0xbd180fc7	-0.03712442
243	0x3cab2c78	0.020895228
244	0x3d0fa89b	0.035072904
245	0xbb81cea5	-0.0039614015
246	0xbd2ea032	-0.042633243
247	0x3c4940a8	0.012283482
248	0xbdc29c0b	-0.09502419
249	0x3b2a9726	0.0026030033
250	0x3cda85df	0.026675163
251	0xbd39936c	-0.045306608
252	0xbd6a5aa5	-0.05721535
253	0xbdc541e8	-0.09631711
254	0x3d1d0fe6	0.03834524
255	0x3dfaccc2	0.12246086

net.2.bias f4 [128]
0	0xbdcc8018	-0.099853694
1	0xbc161eca	-0.009162614
2	0x3b9ee00c	0.004848486
3	0x3d074db3	0.033033084
4	0xbde7369f	-0.11289715
5	0xbd6cef51	-0.057845417
6	0x3beba62e	0.007191441
7	0x3e2c6671	0.16835953
8	0xbdbe59e9	-0.09294493
9	0x3d30deee	0.043181352
10	0x3dc9b9ab	0.098498665
11	0xbd9d80c1	-0.076905735
12	0xbaa1d4bd	-0.0012346726
13	0xbcbfe833	-0.02342615
14	0x3c946df8	0.018118843
15	0x3c5a56f3	0.013326394
16	0xbc1d3226	-0.009594476
17	0xbd0d8477	-0.034550156
18	0x3cb8206d	0.0224764
19	0x3cd4ddf6	0.025984745
20	0xbd20f0b8	-0.039292067
21	0x3d173e0c	0.036924407
22	0xbd447084	-0.047958866
23	0x3de491bd	0.1116061
24	0x3dc05f5f	0.093931906
25	0x3c2b46cc	0.010453891
26	0xbd8451d0	-0.06460917
27	0xbd64e620	-0.055883527
28	0xbcc48ada	-0.02399199
29	0xbd9b2b26	-0.07576589
30	0x3d55ec29	0.052227173
31	0x3e277910	0.16354775
32	0x3d000070	0.031250417
33	0xbd0670eb	-0.03282253
34	0x3cabeb27	0.020986153
35	0xba3e7999	-0.0007266044
36	0xb998cac2	-0.00029142766
37	0x3cae88e5	0.02130551
38	0xbd3e9486	-0.04652836
39	0x3d3b1805	0.045677204
40	0x3c64fc60	0.0139761865
41	0xbc33485e	-0.010942547
42	0xbdde43b1	-0.10852755
43	0x3d9c91f2	0.07645024
44	0xbd990e7f	-0.07473468
45	0xbbd01202	-0.006349803
46	0xbc849f4b	-0.016189238
47	0xbd8981e0	-0.06714225
48	0xbda2e926	-0.07954626
49	0x3d346cb4	0.04404898
50	0x3d0b0504	0.03394033
51	0xbdd7ca1c	-0.10536596
52	0xbc8b69f7	-0.017018301
53	0xbcf11824	-0.029430456
54	0x3ca2b1a6	0.0198601
55	0xbcfa73bc	-0.030572765
56	0x3ba74062	0.0051041106
57	0xbd1a43e4	-0.0376624
58	0x3e61258a	0.21986976
59	0xbd983d4d	-0.07433567
60	0x3dda989e	0.10673641
61	0xbd609a4a	-0.05483464
62	0xbda6d72a	-0.08146508
63	0xbd9bc661	-0.07606197
64	0x3d69ad57	0.057050075
65	0xbd9fb36e	-0.07797895
66	0xbd25cdb3	-0.040479373
67	0xbe187b48	-0.14890778
68	0x3cab751f	0.020929871
69	0xbbd5cee3	-0.006524907
70	0xbd2a04eb	-0.041508596
71	0xbc68f0ce	-0.014217569
72	0x3da9b109	0.0828572
73	0xbd3b4e92	-0.045729227
74	0x3d834942	0.06410457
75	0xbd3723a7	-0.044711735
76	0xbc7e5260	-0.015522569
77	0x3db9b5f4	0.09067908
78	0xbc2083ab	-0.009797017
79	0xbda02344	-0.078192264
80	0xbda510a0	-0.080598116
81	0x3b657c00	0.0035016537
82	0xbd8b262b	-0.06794389
83	0x3cf80a06	0.030278217
84	0xbcd1d487	-0.025614036
85	0xbdb78188	-0.08960253
86	0xbdd5fb28	-0.10448295
87	0xbcd699bc	-0.026196353
88	0x3c5df4ce	0.0135471355
89	0x3d0e1a8a	0.03469328
90	0xbdfda8e6	-0.123857304
91	0x3da5767f	0.08079242
92	0x3c40795f	0.011747687
93	0x3d61c0dc	0.055115566
94	0xbc8defc3	-0.017326241
95	0xbcfb6dbd	-0.030691976
96	0xbd2f35c8	-0.0427759
97	0xbcbbffcf	-0.022949127
98	0x3d1c76b3	0.038199138
99	0xbdada6ed	-0.08479104
100	0xbd453e30	-0.04815501
101	0x3cbfb88e	0.023403432
102	0x3c9bc7e6	0.019016217
103	0xbd7ef398	-0.062244028
104	0xbc003238	-0.007824473
105	0xbcd95ca9	-0.026533442
106	0xbcbe99d9	-0.02326672
107	0x3d94b6d3	0.072614335
108	0x3d87756f	0.066141956
109	0x3d39c020	0.04534924
110	0xbd932034	-0.07183877
111	0xbd5326ed	-0.051550794
112	0xbdcdcc62	-0.100487486
113	0xbdb57abb	-0.088612996
114	0xbda548c5	-0.0807052
115	0xbe05d688	-0.13070118
116	0x3d5947c9	0.053046975
117	0xbdc71a6d	-0.09721837
118	0xbd1c1238	-0.038103312
119	0xbd4cd789	-0.050010238
120	0x3d3fd86d	0.04683726
121	0xbc4ca924	-0.012491498
122	0x3da73855	0.08165041
123	0xbd207bd5	-0.039180595
124	0xbca06525	-0.01957948
125	0xbcf44f9a	-0.029823113
126	0x3d75567d	0.059896935
127	0xbdd2490c	-0.10267839

net.4.weight f4 [1, 128]
0	0x3e998dae	0.29990906
1	0x38d0876f	9.943439e-05
2	0xbd5a83c0	-0.053348303
3	0xbf12d210	-0.5735178
4	0xbee0624f	-0.43825004
5	0x3ca02f24	0.019553728
6	0xbdc9dd2d	-0.09856639
7	0x3dcb5758	0.09928769
8	0xbea148e6	-0.3150093
9	0x3eac441e	0.3364572
10	0xbe17b0e3	-0.1481357
11	0xbe304572	-0.17213991
12	0x3e58c954	0.2117055
13	0xbd396bb2	-0.045268722
14	0xb9c4f844	-0.00037569006
15	0xbe17b6ef	-0.14815877
16	0xbe9ffb5a	-0.31246454
17	0x3e1bc21a	0.15210763
18	0x3e5f3364	0.21796948
19	0x3e4d84f5	0.2007025
20	0x3e1e7fd0	0.15478444
21	0x3d8cc547	0.06873565
22	0x3d5e9d71	0.054349367
23	0xbe9e9a56	-0.30977124
24	0x3e759669	0.23983158
25	0xbddaf4f8	-0.10691255
26	0x3ec63302	0.3871079
27	0x3d8cda45	0.06877569
28	0x3da6a793	0.08137431
29	0x3e475912	0.19467571
30	0xbe45de26	-0.19323024
31	0xbe3063b7	-0.17225538
32	0xbd7cdf06	-0.06173613
33	0xbea1015a	-0.31446344
34	0x3d57287e	0.05252885
35	0xbe6c542a	-0.23078981
36	0x3d95ef01	0.07320977
37	0xbc80c318	-0.015718028
38	0xbda40704	-0.080091506
39	0xbd8067fc	-0.062698334
40	0xbf0423d3	-0.51617163
41	0x3ea710af	0.32629916
42	0x3da66f14	0.08126655
43	0x3ccfdbae	0.025373306
44	0xbe04abbd	-0.12956138
45	0x3e1d0620	0.15334368
46	0x3e47ba30	0.19504619
47	0x3e615b34	0.22007447
48	0x3dc3835d	0.0954654
49	0xbe83ded5	-0.25755945
50	0x3e98fe55	0.2988154
51	0xbe958ce1	-0.29209045
52	0x3d509d71	0.050931398
53	0xbeb4f825	-0.3534557
54	0x3d212414	0.039341047
55	0xbb888504	-0.0041662473
56	0x3e2a869b	0.1665291
57	0x3e047942	0.12936881
58	0xbd07cf99	-0.033156965
59	0xbe948a1e	-0.29011625
60	0xbe3e87a1	-0.18606426
61	0x3e122a0d	0.14273854
62	0x3dac647c	0.084176034
63	0x3d45ffbf	0.0483396
64	0xbe4ab632	-0.19796064
65	0xbeeb2b37	-0.45931408
66	0xbe3421d3	-0.17591028
67	0x3ea9859b	0.33109745
68	0x3dd32276	0.10309307
69	0xbd91fc6a	-0.07128222
70	0x3e9dd2ab	0.3082479
71	0xbe5f5b7b	-0.21812241
72	0xbdc73ef8	-0.09728807
73	0x3f16684b	0.5875289
74	0xbd76d167	-0.060258295
75	0x3e783333	0.24238281
76	0xbcfca7ab	-0.030841669
77	0x3e599b7d	0.2125072
78	0x3d9a28ce	0.07527314
79	0x3e3e6946	0.18594846
80	0x3e24d2ef	0.1609609
81	0xbd375b3f	-0.044764753
82	0xbf33e8a4	-0.70276856
83	0x3bef6375	0.0073055574
84	0x3e058f2b	0.13042895
85	0x3eaf0e80	0.3419075
86	0xbe4be2db	-0.19910757
87	0x3d818caf	0.063256614
88	0xbe482d85	-0.19548614
89	0x3e1d6c87	0.15373431
90	0x3ca1b52b	0.019739708
91	0x3e50be9c	0.20385212
92	0x3d62b915	0.05535229
93	0xbee4d7eb	-0.44695982
94	0x3e24c5ff	0.16091155
95	0x3d64f6ed	0.05589955
96	0x3f00b083	0.50269336
97	0x3d6361e5	0.05551328
98	0x3e2dae55	0.16961034
99	0x3db4d56e	0.08829771
100	0xbe4b39fe	-0.19846341
101	0xbf715d35	-0.9428285
102	0xbdb48c68	-0.08815843
103	0x3eadb0c4	0.33923924
104	0xbe64265f	-0.22280262
105	0x3dcb1f51	0.099180825
106	0x3d1fa5da	0.038976528
107	0x3dbc6d9b	0.09200593
108	0xbe75e75b	-0.24014036
109	0x3da161d5	0.07879988
110	0xbe6ecc55	-0.23320134
111	0xbdec020d	-0.11523829
112	0xbe2ae0e6	-0.16687354
113	0x3e0f593e	0.13998887
114	0x3f224889	0.6339193
115	0x3eaf08d7	0.34186432
116	0x3e270538	0.16310585
117	0xbecc8217	-0.39943
118	0x3e1458d5	0.14487012
119	0xbcca60b7	-0.02470432
120	0x3e56c1bc	0.20972341
121	0xbe48e00c	-0.19616717
122	0xbe0a0c97	-0.13481365
123	0xbda18910	-0.07887471
124	0x3d408338	0.04700014
125	0x3e536729	0.20644821
126	0xbdb1849d	-0.08667872
127	0xbf3ac149	-0.7295118
