checkpoints/nd/dim_2/width_16/method_wgan-gp.pt (torch, 69975 bytes, 5 tensors)

net.0.weight f4 [128, 2]
0	0x3dab1dfa	0.08355327
1	0xba98d8e3	-0.0011661317
2	0x3dff61f7	0.12469857
3	0xbe1bd0a0	-0.15216303
4	0x3e8449c6	0.25837535
5	0xbd646d2f	-0.055768188
6	0x3d518664	0.051153556
7	0xbd3afc56	-0.045650803
8	0x3e128533	0.14308624
9	0x3d87afdc	0.066253394
10	0x3eea0122	0.4570399
11	0x3eabb55a	0.33536798
12	0x3ed6e7cd	0.41973725
13	0x3f40dd43	0.7533762
14	0x3b8dd0c3	0.004327865
15	0xbeba1ebf	-0.36351582
16	0x3f121be3	0.570738
17	0x3f101c47	0.5629315
18	0xbe890007	-0.26757833
19	0x3f82dfdf	1.022457
20	0x3e4cded2	0.20006874
21	0x3e85d143	0.26136217
22	0xbd4efee3	-0.050536048
23	0xbd347523	-0.044057023
24	0xbc7d379d	-0.015455154
25	0xbd484abd	-0.0488994
26	0xbfa14dbd	-1.2601849
27	0xbed9cf0c	-0.42540777
28	0xbd822f0d	-0.063566305
29	0x3e06adba	0.13152209
30	0x3ec90f8e	0.3926968
31	0xbda8bd61	-0.08239246
32	0xbec83ee0	-0.3911047
33	0xbf6b0fc9	-0.9182096
34	0xbca72b1f	-0.020406304
35	0xbd3f603c	-0.046722636
36	0xbdb32dfc	-0.08749005
37	0x3ed06582	0.40702444
38	0xbebd3305	-0.36952987
39	0xbea57a39	-0.3231981
40	0x3c841aea	0.016126115
41	0x3de2a60e	0.11066829
42	0x3e884427	0.26614496
43	0xbe9e6cff	-0.30942532
44	0xbe56a862	-0.2096267
45	0x3ea0cba0	0.31405354
46	0xbc8163e1	-0.015794696
47	0xbe603072	-0.2189348
48	0xbe8874e7	-0.2665169
49	0xbd685627	-0.056722786
50	0x3c761916	0.015020629
51	0xbe54a654	-0.20766574
52	0xbe5cffad	-0.21581908
53	0xbe22b6ef	-0.15890096
54	0x3e76f45a	0.2411665
55	0xbeefb89b	-0.4682053
56	0xbf83e35b	-1.0303758
57	0x3e8ea03a	0.27856618
58	0x3eb4ce82	0.35313803
59	0x3e16388f	0.14670013
60	0x3d753ac3	0.059870493
61	0x3d145f24	0.036223546
62	0xbe632790	-0.2218306
63	0x3e9501b7	0.2910287
64	0xbe0275ae	-0.12740204
65	0x3e079cd7	0.13243423
66	0xbe8dc62f	-0.27690265
67	0xbe502645	-0.20327099
68	0x3e7b41f3	0.24536876
69	0xbe7f7a86	-0.24949083
70	0xbda0347d	-0.07822511
71	0xbe37ba6e	-0.17942211
72	0x3e064d4f	0.13115428
73	0x3ddd9c20	0.10820794
74	0x3b79402f	0.0038032641
75	0x3e45e21e	0.19324538
76	0x3dab486b	0.08363422
77	0x3e84bdc5	0.25926033
78	0xbedef43f	-0.4354572
79	0x3e4d65c2	0.20058349
80	0x3da93074	0.08261195
81	0x3e731fa1	0.23742534
82	0xbecefef7	-0.40428898
83	0xbdc77c1a	-0.09740467
84	0x3f6a7e0b	0.91598576
85	0xbe3b3a4c	-0.18283957
86	0xbe34cb1d	-0.17655607
87	0xbf4bf0ec	-0.7966449
88	0xbdc66d0b	-0.09688767
89	0x3e00a394	0.125624
90	0xbe9044ab	-0.2817739
91	0x3f0b64ec	0.5445087
92	0xbe516f93	-0.20452718
93	0xbe0b4c6c	-0.13603371
94	0xbe7e657e	-0.24843404
95	0xbd745003	-0.059646618
96	0x3e314945	0.17313106
97	0xbd65ae99	-0.056074712
98	0x3f1b6d33	0.607135
99	0xbd3a0e07	-0.045423534
100	0x3ec8bb62	0.39205462
101	0xbed78ee2	-0.42101198
102	0xbfdb8132	-1.7148802
103	0xbe9dcce2	-0.30820376
104	0x3d1b8564	0.037969008
105	0xbd484e66	-0.04890289
106	0x3eccff4c	0.40038526
107	0xbeb36d42	-0.35044295
108	0xbdfa1958	-0.12211865
109	0x3dad0e9d	0.08450053
110	0xbd9ad8f9	-0.075609155
111	0xbe7fc3d2	-0.24977043
112	0xbd3331c3	-0.04374863
113	0x3dab4e5a	0.08364554
114	0xbdece4ca	-0.115670756
115	0x3e735a67	0.23764955
116	0xbdf65815	-0.12028519
117	0x3c6435f9	0.013928884
118	0xbf3d48f0	-0.7393942
119	0xbe89dc18	-0.2692573
120	0xbe44a06b	-0.1920182
121	0xbe103f7a	-0.14086714
122	0x3d3f5217	0.046709146
123	0xbe7c5ebf	-0.24645518
124	0xbe3bf00d	-0.18353291
125	0xbdfb97d5	-0.12284819
126	0xbe6f9210	-0.23395562
127	0xbb96d95f	-0.0046035494
128	0xbda7eae8	-0.08199102
129	0x3e2d8295	0.16944344
130	0xbf028861	-0.5098935
131	0xbf1effc3	-0.6210901
132	0xbdac58d4	-0.0841538
133	0xbe155eb7	-0.14586912
134	0x3dee3114	0.11630455
135	0xbcffe730	-0.031238168
136	0xbec3f121	-0.38269904
137	0xbef713fe	-0.4825744
138	0x3f139047	0.57642025
139	0xbb0cdf3a	-0.0021495358
140	0x3f1fc191	0.62404734
141	0xbe462382	-0.19349483
142	0xbdddf5fc	-0.108379334
143	0x3e9692bd	0.29408827
144	0xbd97d9a0	-0.074145555
145	0xbc4dad15	-0.012553473
146	0xbf26acfe	-0.65107715
147	0xbed45d76	-0.41477555
148	0xbe647361	-0.22309639
149	0x3e3d4e63	0.18486933
150	0xbd9fb443	-0.07798054
151	0x3df991bf	0.12186002
152	0x3abc85f7	0.0014383186
153	0xbe1989e8	-0.14994013
154	0xbe87800c	-0.2646488
155	0x3eb2e43f	0.34939763
156	0x3f51013c	0.8164251
157	0xbefae61d	-0.49003688
158	0xbc51af10	-0.012798086
159	0xbd890425	-0.06690244
160	0xbdc00c99	-0.09377403
161	0x3ce0a55a	0.027422596
162	0x3e0ee335	0.1395386
163	0xbbfcf88a	-0.007720058
164	0xbe77e97a	-0.24210158
165	0x3e94d202	0.29066473
166	0xbe816b28	-0.25277066
167	0xbf12b5d4	-0.573087
168	0x3e71c10c	0.23608798
169	0xbd270bca	-0.040782727
170	0xbe209788	-0.15682805
171	0x3de46701	0.11152459
172	0x3eb74163	0.35792074
173	0x3eac0def	0.3360438
174	0xbdd3ee1e	-0.103481516
175	0x3dd53d1b	0.104120456
176	0xbe395f36	-0.18102726
177	0xbed2095f	-0.41022775
178	0xbe8e1e36	-0.27757424
179	0xbdddab1e	-0.10823654
180	0x3e98e636	0.29863137
181	0x3e9fb986	0.3119623
182	0x3de11f81	0.10992337
183	0x3eb44802	0.35211188
184	0xbd6fb863	-0.058525454
185	0xbe4b0b59	-0.19828548
186	0x3db8541a	0.09000416
187	0xbde0e676	-0.10981457
188	0xbeadb3b6	-0.3392617
189	0x3c1a071f	0.009401112
190	0xbeac7786	-0.3368494
191	0x3e2212c9	0.15827478
192	0xbe6c5b9b	-0.2308182
193	0x3f166841	0.5875283
194	0xbe2507e1	-0.16116287
195	0x3d97ec46	0.074181125
196	0xb8d406ee	-0.000101102385
197	0xb86ba970	-5.6186167e-05
198	0xbe090a44	-0.13382822
199	0x3e0816f1	0.13290001
200	0xbeee7f28	-0.46581388
201	0x3e90df59	0.282954
202	0x3d1bbc87	0.03802159
203	0xbe355f46	-0.17712125
204	0x3db60634	0.08887902
205	0x3c47db10	0.012198225
206	0xbe4399e0	-0.19101667
207	0x3eee26f7	0.46514103
208	0x3e781db0	0.24230075
209	0x3eaffdf2	0.34373432
210	0xbdf3a249	-0.11896188
211	0xbdb6173d	-0.08891151
212	0xbe8d9ba3	-0.27657804
213	0x3d41cbfd	0.04731368
214	0xbf3440bb	-0.7041127
215	0xbe8c8ddf	-0.2745199
216	0xb9a4e6d0	-0.00031452486
217	0xbe329541	-0.17439748
218	0xbe8ea29b	-0.27858433
219	0x3df8825c	0.12134239
220	0x3ec692d4	0.38783896
221	0x3e8575d1	0.2606645
222	0xbd9c0800	-0.076187134
223	0x3d9ad334	0.07559815
224	0xbe02fe3c	-0.12792295
225	0xbe4a60a7	-0.19763432
226	0x3e38542e	0.18000862
227	0x3d7a6b88	0.061137706
228	0xbd963c56	-0.07335727
229	0x3db31dd5	0.087459244
230	0xbdb236b7	-0.08701842
231	0xbe046b4b	-0.12931554
232	0xbea176db	-0.31535992
233	0xbebea264	-0.3723327
234	0x3cb38b37	0.021916969
235	0x3dd0123e	0.101597294
236	0x3d2001d9	0.039064262
237	0xbd5691dc	-0.052385196
238	0xbdb962a3	-0.090520166
239	0xbe25d9c0	-0.16196346
240	0x3d39ac30	0.045330226
241	0xbd1f891a	-0.03894911
242	0xbed1600f	-0.408936
243	0xbe193e04	-0.14965063
244	0x3e8d7f32	0.27636105
245	0xbe75ed83	-0.24016385
246	0xbec69baf	-0.38790652
247	0xbe3d1dec	-0.18468446
248	0xbe7afedd	-0.24511285
249	0x3ea61402	0.3243714
250	0xbf073730	-0.52818584
251	0xbe3c4f7b	-0.18389694
252	0xbe5281d1	-0.20557334
253	0x3e805175	0.25062147
254	0x3ecfc8b7	0.4058282
255	0x3d2301b4	0.039796546

net.0.bias f4 [128]
0	0x3eb1285b	0.346011
1	0x3cffded8	0.03123419
2	0xbd0e76bc	-0.034781203
3	0x3e79d8b1	0.24399067
4	0x3dd17658	0.102276504
5	0x3ed216f9	0.41033152
6	0xbdc22554	-0.09479776
7	0x3f65e869	0.89807755
8	0xbf19347b	-0.59845704
9	0xbf5a8e89	-0.8537374
10	0xbe8984e2	-0.26859194
11	0x3c6b1bd6	0.014349898
12	0x3ee27422	0.44229227
13	0x3ed5cc0a	0.41757232
14	0x3e67ffff	0.22656249
15	0x3f6d7b80	0.9276657
16	0xbf9ea9d8	-1.2395582
17	0x3d9bdd35	0.07610551
18	0x3ee0ec0e	0.43930095
19	0x3ddd1811	0.10795606
20	0x3f0b7e1e	0.54489315
21	0x3d469f1f	0.048491593
22	0x3f2d84b5	0.6778062
23	0x3f14ab46	0.5807384
24	0x3f4f90f6	0.8108057
25	0x3f139a8f	0.5765771
26	0xbc395584	-0.011311892
27	0xbf1d9bb6	-0.6156572
28	0xbf17997d	-0.5921858
29	0x3f21aff7	0.63159126
30	0xbd0973d8	-0.033557743
31	0x3ee281a0	0.4423952
32	0x3e713c53	0.23558168
33	0x3f0b13b4	0.5432694
34	0x3b8cb962	0.0042945603
35	0x3f21580c	0.63024974
36	0x3eb44e36	0.3521592
37	0x3e1b0f05	0.15142448
38	0x3f0122fd	0.5044401
39	0xbf4dd96b	-0.8040988
40	0xbd80af64	-0.06283453
41	0x3f11566c	0.56772494
42	0xbdc31289	-0.0952502
43	0xbfc37247	-1.526925
44	0x3e53d983	0.20688443
45	0xbd0a3e54	-0.033750847
46	0xbe39434f	-0.18092082
47	0x3eb27760	0.348567
48	0xbdc11df7	-0.094295435
49	0x3f8c444a	1.095834
50	0xbf628e9b	-0.8849885
51	0xbfa1ff27	-1.2655991
52	0x3e5b0b92	0.21391132
53	0x3e7ab02b	0.24481265
54	0x3e0df684	0.1386357
55	0x3f4c0a6c	0.797034
56	0x3e9fb7c0	0.31194878
57	0x3ed1a3a9	0.40945175
58	0x3f45a9d9	0.7721229
59	0xbea56a94	-0.32307875
60	0x3ec0d627	0.37663385
61	0x3e6792d0	0.22614598
62	0xbe26a671	-0.1627443
63	0xbe4cbed2	-0.19994667
64	0x3e959959	0.29218557
65	0xbfa57c53	-1.2928566
66	0x3f0f911a	0.5608078
67	0x3d8957da	0.067062095
68	0xbd1b72dd	-0.03795134
69	0x3edbea3c	0.42952144
70	0xbef9bea2	-0.48778254
71	0x3ed976af	0.4247336
72	0x3eade76c	0.33965623
73	0x3eb199ff	0.34687802
74	0x3e907911	0.28217366
75	0x3e5206b4	0.2051037
76	0x3e2c0d41	0.16801931
77	0x3f170f40	0.59007645
78	0x3f55cf63	0.8351957
79	0x3f3f032e	0.74614227
80	0xbe9bbaa1	-0.30415824
81	0x3cb18335	0.02166901
82	0x3ef25798	0.47332454
83	0x3f6f47e0	0.9346905
84	0x3f097236	0.536899
85	0xbe38ea8d	-0.18058224
86	0xbebe970f	-0.37224624
87	0x3e2947d9	0.16531314
88	0x3f2b4f57	0.6691794
89	0xbdc9f978	-0.098620355
90	0x3dc1ce3c	0.09463164
91	0x3e684ef2	0.22686365
92	0xbf254ba2	-0.6456853
93	0x3cb79079	0.022407757
94	0x3f052580	0.52010345
95	0x3e4f63e5	0.2025295
96	0xbe59ff6f	-0.21288846
97	0x3e8fad1a	0.28061754
98	0xb9de8774	-0.0004244406
99	0x3ec9c595	0.39408556
100	0x3dc3c736	0.09559481
101	0xbf09bfbb	-0.5380818
102	0xbe8fba6c	-0.28071916
103	0xbdbad446	-0.09122519
104	0xbec91cc8	-0.3927977
105	0xbddfd5ba	-0.10929437
106	0x3ee2f28c	0.44325674
107	0x3f0ce5d6	0.550382
108	0x3eda84db	0.42679486
109	0xbf046ef6	-0.5173181
110	0x3eb05f9f	0.34447953
111	0xbec2555d	-0.37955752
112	0x3f4ce582	0.800377
113	0x3ea47a94	0.3212477
114	0x3dece0d9	0.11566324
115	0x3e1ec5a1	0.15505077
116	0xbe3b5110	-0.18292642
117	0x3f01a645	0.5064433
118	0x3c7756f0	0.015096411
119	0xbf21e98e	-0.63247
120	0x3d7d681d	0.06186687
121	0xbec78c6f	-0.3897433
122	0x3f8cc77b	1.0998377
123	0xbe881b00	-0.265831
124	0x3f066bf1	0.52508456
125	0x3edc012b	0.4296964
126	0x3ed1bdcb	0.40965113
127	0x3f2738fc	0.65321326

net.2.weight f4 [128, 128]
0	0xbdc8d0c8	-0.09805447
1	0x3e6c3c00	0.23069763
2	0xbde5e173	-0.11224642
3	0x3d90d5fc	0.07072064
4	0xbd695d5d	-0.056973804
5	0xbdba6274	-0.0910081
6	0x3ddae4cb	0.1068817
7	0xbc4a9bc4	-0.012366239
8	0xbe8b9097	-0.2725875
9	0xbecdac6b	-0.40170607
10	0xbe6bf285	-0.23041733
11	0xbdfd5c2c	-0.12371096
12	0x3de147c2	0.11000015
13	0x3ea18e3c	0.3155383
14	0xbdc01d8d	-0.09380636
15	0x3ce4bf95	0.027923385
16	0x3dd9389f	0.10606503
17	0x3da04b61	0.078268774
18	0x3ebbba4e	0.36665577
19	0xbe618b86	-0.2202588
20	0xbe91d641	-0.28483775
21	0x3cdf4610	0.027255088
22	0xbe0aad71	-0.13542725
23	0xbdbc5f90	-0.091979146
24	0xbe00731b	-0.12543909
25	0x3db67a74	0.08910075
26	0x3d7fd902	0.062462814
27	0xbcc399da	-0.023877073
28	0x3da1ce3d	0.07900665
29	0x3e0366a1	0.12832119
30	0xbef7b539	-0.4838045
31	0xbc7a8946	-0.015291518
32	0xbc5ee05f	-0.013603299
33	0xbccec276	-0.02523921
34	0x3dc8f78e	0.09812842
35	0xbdd6e24d	-0.10492382
36	0xbd853e51	-0.065060265
37	0x3e6a91a3	0.22907118
38	0xbd88a503	-0.066720985
39	0xbe8311dc	-0.25599563
40	0xbe2a1bb6	-0.16612133
41	0xbe720d9f	-0.23638009
42	0xbc3912cb	-0.0112959845
43	0x3e9a999e	0.30195326
44	0x3d4078ee	0.046990328
45	0xbd570acd	-0.052500535
46	0x3dd97d00	0.10619545
47	0xbe358b39	-0.1772889
48	0x3d4fadb2	0.050702758
49	0x3e3c6787	0.18398868
50	0x3d35fc6a	0.044430174
51	0x3d0fa345	0.035067815
52	0x3e59749d	0.2123589
53	0x3ddc8475	0.10767452
54	0xbca7eaf4	-0.020497777
55	0xbdb015bb	-0.08597895
56	0xbbba56cd	-0.005686617
57	0xbdb4b561	-0.08823658
58	0x3bf1c8a9	0.007378657
59	0x3d94fb6a	0.07274516
60	0xbd9de500	-0.07709694
61	0x3dfa4f07	0.122221045
62	0xbe373ba2	-0.17893842
63	0x3dc964dc	0.098336905
64	0xbd6d8931	-0.057992164
65	0x3d9ee0f1	0.07757748
66	0x3d8a69ff	0.067584984
67	0xbd82e802	-0.06391908
68	0x3d2e0910	0.04248911
69	0xbec36f71	-0.3817096
70	0xbd73121a	-0.059343435
71	0x3e00d1f9	0.12580098
72	0x3d12c7bd	0.035835017
73	0xbe52b547	-0.20576964
74	0x3dcc0b6e	0.099631175
75	0x3d002af0	0.03129095
76	0x3e21056f	0.15724729
77	0x3c979970	0.018505782
78	0x3db479b2	0.08812274
79	0xbe04a3c6	-0.129531
80	0xbd907af7	-0.07054704
81	0x3e0aabeb	0.13542144
82	0x3d1e923e	0.038713686
83	0xbcfa486b	-0.03055211
84	0x3a0df49e	0.0005415174
85	0x3eb48c72	0.352634
86	0xbba735c8	-0.005102847
87	0xbe4427e8	-0.19155848
88	0xbe940bad	-0.28915158
89	0x3daaed63	0.08346059
90	0xbe653079	-0.22381772
91	0xbcb000b5	-0.021484712
92	0xbe013afb	-0.12620156
93	0x3dad8639	0.084728666
94	0xbc8627f0	-0.016376466
95	0x3e5d3430	0.21601939
96	0x3d96c54d	0.07361851
97	0xbe3d2fc0	-0.18475246
98	0x3d85d823	0.065353654
99	0x3e746fbd	0.2387075
100	0x3e4c2c80	0.1993885
101	0x3cee4098	0.029083535
102	0xbcc48360	-0.023988426
103	0x3d8d7711	0.06907476
104	0xbf0d5a13	-0.5521557
105	0xbd844947	-0.06459289
106	0xbdb7dd7d	-0.089777924
107	0x3dab7f74	0.08373919
108	0x3e488408	0.19581616
109	0x3ae511a9	0.0017476577
110	0xbd8b9467	-0.06815415
111	0x3cf660c3	0.030075436
112	0x3dfdcd79	0.123927064
113	0xbe8ff52e	-0.28116745
114	0x3c06a5fb	0.008218284
115	0xbe103c37	-0.1408547
116	0x3df5aa13	0.1199533
117	0x3d09519a	0.033525087
118	0x3ea27e50	0.31736994
119	0xbc26edea	-0.010188559
120	0x3e6858ce	0.22690126
121	0x3c87e33a	0.016587842
122	0x3e05b0f4	0.13055784
123	0xbde7bddf	-0.11315512
124	0xbca8d730	-0.020610422
125	0x3e1374da	0.14400044
126	0x3d258f93	0.040420126
127	0x3e713097	0.23553692
128	0x3cfbc173	0.030731892
129	0x3dad84b5	0.084725775
130	0xbd077e7d	-0.033079613
131	0xbd281843	-0.041038763
132	0x3d8a64ca	0.06757505
133	0x3e4d43bd	0.20045371
134	0x3cbbc48b	0.022920867
135	0xbdc8638d	-0.09784613
136	0xbde57d0a	-0.1120549
137	0x3f0c0f4e	0.54710853
138	0x3dc57051	0.09640563
139	0xbe2a1ea7	-0.16613255
140	0x3d31d15c	0.04341255
141	0x3e714fb3	0.23565559
142	0xbbfa1ffe	-0.0076332083
143	0x3e13b9d2	0.14426354
144	0x3df6732a	0.120336846
145	0x3de70ca2	0.112817064
146	0x3e1d1414	0.1533969
147	0x39da235c	0.00041606545
148	0x3bd4b431	0.006491207
149	0x3d8d06c1	0.06886054
150	0x3ca18e78	0.019721255
151	0xbcd9c307	-0.026582254
152	0xbe2f1251	-0.17096831
153	0xbdc1ec22	-0.09468867
154	0x3e23c68f	0.15993713
155	0xbea1d8c9	-0.31610706
156	0xbe38fb17	-0.18064533
157	0x3d4c09be	0.04981398
158	0xbbe5f694	-0.00701792
159	0xbdade74c	-0.08491382
160	0xbd4b302a	-0.04960648
161	0x3de19eb6	0.110166
162	0x3d2f2993	0.042764258
163	0xbe12e5b4	-0.14345437
164	0xbdb1c80b	-0.08680733
165	0x3de54f59	0.11196775
166	0x3d233492	0.039845057
167	0xbdf1980a	-0.11796577
168	0xbdc15b94	-0.09441295
169	0x3da57b80	0.080801964
170	0x3df669ef	0.12031924
171	0xbead008a	-0.33789474
172	0x3daa0953	0.0830256
173	0x3d204445	0.039127607
174	0x3e99240d	0.29910317
175	0x3dbbea2c	0.09175524
176	0x3dbf2b72	0.093344584
177	0x3eb821bd	0.3596324
178	0x3eedfe1f	0.46482942
179	0x3b855096	0.0040684445
180	0xbd042185	-0.03225853
181	0x3d9822fc	0.07428548
182	0x3dc6162e	0.09672199
183	0xbe92f750	-0.2870431
184	0x3e0c1313	0.13679151
185	0x3cfe9fc7	0.031082047
186	0x3d98ffe7	0.074706845
187	0x3e73510c	0.23761386
188	0xbd457925	-0.048211236
189	0xbd7738cd	-0.060356904
190	0x3d4893d7	0.048969116
191	0xbd868125	-0.06567601
192	0x3d6de82f	0.058082756
193	0xbdd5c766	-0.10438423
194	0x3d8ea9d3	0.06965985
195	0xbba7f335	-0.005125428
196	0xbbfe27aa	-0.007756193
197	0x3e93a169	0.28834084
198	0x3de4149b	0.11136743
199	0xbd4c8d23	-0.049939286
200	0xbd4e69c6	-0.050393842
201	0xbdd27695	-0.10276524
202	0x3d104d45	0.03522994
203	0xbbc9a4ad	-0.006153664
204	0x3c39fc40	0.011351645
205	0x3db43760	0.087996244
206	0x3cd58cc3	0.026068097
207	0xbdb82103	-0.089906715
208	0xbe72f7c0	-0.23727322
209	0x3db70db0	0.089381576
210	0xbd82d673	-0.06388559
211	0xbd554d40	-0.052075624
212	0x3dbbda3c	0.09172484
213	0x3dcbffbb	0.09960886
214	0xbd67a1f8	-0.05655095
215	0xbbaeccdf	-0.005334481
216	0xbc1a147b	-0.009404297
217	0x3dc9045f	0.09815287
218	0x3e251f09	0.1612512
219	0xbe7e430b	-0.24830262
220	0xbe35e3e4	-0.17762715
221	0x3cea322d	0.028588379
222	0x3c5d9fd6	0.013526877
223	0x3e00c680	0.12575722
224	0xbdabda02	-0.08391191
225	0x3e19a663	0.15004878
226	0xbe7b9d90	-0.24571824
227	0x3e120754	0.14260608
228	0xbdba5dd0	-0.090999246
229	0x3ade7986	0.0016973473
230	0xbd0c2335	-0.034213264
231	0x3e85723f	0.26063725
232	0x3e0cc697	0.13747631
233	0x3e152035	0.14563067
234	0xbe502338	-0.20325935
235	0xbd439029	-0.047744904
236	0xbd28c770	-0.041205823
237	0xbd1db471	-0.03850216
238	0x3d285e4c	0.041105554
239	0x3df9d54d	0.12198887
240	0xbc1366f4	-0.008996714
241	0x3d8095ef	0.062785976
242	0xbccb542f	-0.024820415
243	0x3e4a78dd	0.19772668
244	0xbe2a5487	-0.16633807
245	0x3d3c23c4	0.045932546
246	0xbdc95c54	-0.09832063
247	0x3d1db8fe	0.0385065
248	0xbdd96e0a	-0.106166914
249	0xbc2b4192	-0.010452645
250	0x3db13747	0.086531214
251	0x3de3a57e	0.111155495
252	0x3de9f369	0.1142338
253	0x3d0f2a8a	0.034952678
254	0xbd52d611	-0.05147368
255	0x3da0c607	0.07850271

net.2.bias f4 [128]
0	0xbebe4679	-0.3716314
1	0xbefe86e9	-0.49712303
2	0xbaccca8a	-0.0015624326
3	0x3d7117b5	0.0588605
4	0xbd4f6d86	-0.05064156
5	0xbeb045e4	-0.34428322
6	0x3d7698f2	0.060204454
7	0xbd1f9575	-0.038960893
8	0x3dcdbb36	0.10045473
9	0x3eaa540e	0.33267254
10	0x3db0fa62	0.08641507
11	0xbde5bdfd	-0.11217878
12	0xbe9cd040	-0.30627632
13	0xbedd26fa	-0.431938
14	0xbd161bc8	-0.036647588
15	0x3dfb5c00	0.12273407
16	0x3e9ec760	0.31011486
17	0xbd849323	-0.064733766
18	0x3eeb0dbf	0.45908925
19	0xbd690ddc	-0.056897983
20	0xbd571aa9	-0.05251566
21	0x3cbbb67e	0.022914167
22	0xbd912e47	-0.07088905
23	0xbcfdd270	-0.030984133
24	0xbcd00bde	-0.025396284
25	0xbe8ec390	-0.27883577
26	0xbe638d4e	-0.22221872
27	0x3f69bc44	0.91302896
28	0x3b56c95a	0.0032773823
29	0xbd72b0c3	-0.059250604
30	0x3e3997b7	0.18124281
31	0x3fa4f157	1.2886151
32	0xbe8303ae	-0.25588745
33	0xbcee7f4b	-0.029113432
34	0x3f30724d	0.6892441
35	0xbcfcd7d2	-0.03086463
36	0x3c83083d	0.01599514
37	0x3f94d26f	1.1626719
38	0x3b50260b	0.0031760957
39	0x3d749fdf	0.059722777
40	0xbe784a11	-0.24247004
41	0xbd3d4cc5	-0.04621579
42	0xbde8107b	-0.113312684
43	0x3c761a13	0.015020865
44	0x3d133a1d	0.035944093
45	0xbddf8a65	-0.109150685
46	0xbefa11f6	-0.48841828
47	0xbc56ea23	-0.013117346
48	0x3be2cdf5	0.0069215246
49	0xbe783ad7	-0.24241196
50	0xbcc5a7a0	-0.024127781
51	0xbe15b50e	-0.14619848
52	0xbc7d38d0	-0.01545544
53	0x3de67774	0.112532526
54	0xbdfe92ba	-0.124303296
55	0x3fb7c284	1.4356236
56	0xbe11c98f	-0.14237045
57	0x3fbe8d45	1.4886862
58	0x39f13e3c	0.0004601347
59	0x3dbd7e81	0.09252644
60	0x3d18ae44	0.037275568
61	0xbec2b44e	-0.38028187
62	0xbd837e4a	-0.06420572
63	0xbdb89658	-0.09013051
64	0xbe5fa10e	-0.21838781
65	0xbcf72729	-0.03017004
66	0xbe9550fd	-0.29163352
67	0x3e7d0226	0.24707851
68	0xbdb7bc37	-0.08971446
69	0x3d6a7d94	0.057248667
70	0xbded5d84	-0.11590102
71	0x398607d5	0.00025564307
72	0xbe5e6b51	-0.21720625
73	0x3d044a40	0.032297373
74	0x3eaa12f1	0.33217576
75	0x3f24c985	0.64369994
76	0xbd1e6ff7	-0.038680997
77	0xbdd9642f	-0.10614812
78	0xbdc1977e	-0.09452723
79	0xbdc20706	-0.09473996
80	0xbe8a993a	-0.27070028
81	0x3e01cc9b	0.12675707
82	0xbdd1efc3	-0.10250809
83	0xbe29b96d	-0.1657464
84	0x3d274faa	0.040847458
85	0xbe0d471e	-0.1379666
86	0x3dd39a1d	0.10332129
87	0xbce1700e	-0.027519252
88	0xbebf785c	-0.37396514
89	0xbc7dc5d4	-0.01548906
90	0xbc88f424	-0.016717978
91	0xbe7600ea	-0.24023786
92	0x3fc902ab	1.5703939
93	0xbe840b7f	-0.2579002
94	0xbede68ed	-0.43439427
95	0xbddf1703	-0.10893061
96	0xbd99caa2	-0.07509352
97	0xbce2e1d4	-0.027695574
98	0xbdde329f	-0.10849499
99	0x3f88a4e6	1.0675323
100	0xbe9acffe	-0.3023681
101	0xbd858b63	-0.065207265
102	0x3f65fa33	0.898349
103	0x3f93a504	1.1534734
104	0x3d2b9a1e	0.041895024
105	0x3f43feed	0.7656086
106	0xbc8e650b	-0.017382165
107	0xbdd95913	-0.10612693
108	0x3e24d7a2	0.16097882
109	0xbce4bca4	-0.027921982
110	0xbd814b04	-0.06313136
111	0x3cd4b280	0.025964022
112	0xbed5f5f8	-0.41789222
113	0x3d1555ee	0.036458902
114	0x3d765452	0.060139008
115	0xbdb83fc2	-0.08996536
116	0xbccb6cd7	-0.024832172
117	0xbeed38fc	-0.46332538
118	0xbe0a4c51	-0.13505675
119	0xbf09555d	-0.5364588
120	0xbd170c80	-0.036877155
121	0x3d26afb0	0.040694892
122	0xbd00d9e8	-0.03145781
123	0x3d03890d	0.032113124
124	0xbc91ce29	-0.0177985
125	0xbec9166a	-0.39274913
126	0xbebcc91a	-0.36872178
127	0xbdaeafbe	-0.08529614

net.4.weight f4 [1, 128]
0	0xbb42b3a0	-0.0029709116
1	0xbd836029	-0.064148255
2	0x3b8b4d3e	0.0042511513
3	0x3988d715	0.0002610019
4	0xbd915d5c	-0.07097885
5	0xbd32e3ab	-0.043674152
6	0xbef3635b	-0.4753674
7	0x3a8e20cb	0.0010843513
8	0xbba3c6ea	-0.0049980776
9	0x3d97228b	0.073796354
10	0xbe2bfaab	-0.16794841
11	0xb9dbf4c1	-0.0004195329
12	0xbe90c108	-0.2827227
13	0x3ec3abe1	0.3821707
14	0xbbd1ab3c	-0.0063985866
15	0x3f84d29a	1.037677
16	0x3d0a70df	0.03379905
17	0x3d0bc68e	0.034124903
18	0xbdb34ba9	-0.087546654
19	0x3d32c411	0.043644015
20	0x3a14f376	0.00056820305
21	0x3f32ee07	0.6989445
22	0xb9af91be	-0.00033487187
23	0x3e0eb20a	0.13935104
24	0x3dbfbf74	0.09362689
25	0xbeed21d1	-0.46314862
26	0xbe88d684	-0.26726162
27	0x3db82154	0.08990732
28	0x3ce0411f	0.027374802
29	0x3da57d1f	0.080805056
30	0x3c0b9d88	0.008521445
31	0x3d67b23f	0.056566473
32	0x3acc5c20	0.001559142
33	0x3bddc662	0.006768034
34	0x3e9eba47	0.31001493
35	0xbda34579	-0.07972235
36	0x38f2ccc2	0.00011577598
37	0x3e63deb7	0.22252928
38	0x3cc3fea5	0.023925135
39	0x3a03499b	0.00050082215
40	0x3b5dc63d	0.0033840083
41	0xba38748a	-0.00070364086
42	0x3ca50bb0	0.020147175
43	0x3c92255f	0.017840086
44	0xb9b48de8	-0.00034438004
45	0x3b2122a4	0.0024587298
46	0x3f0d7c31	0.55267626
47	0x3ae67d04	0.0017584865
48	0x3b37397a	0.0027957843
49	0xbbd7bda1	-0.006583885
50	0x3a504a57	0.0007945648
51	0x3aa5b8cc	0.0012643575
52	0x3a9af268	0.001182151
53	0x3dbfbf98	0.093627155
54	0x3cd6384d	0.026149893
55	0x3e056f92	0.13030842
56	0x3a8e105d	0.0010838617
57	0x3def4f69	0.11685068
58	0x3b48c0c5	0.0030632478
59	0xbd8f9b0c	-0.07011995
60	0xbc804384	-0.015657194
61	0xbe39c36a	-0.18140951
62	0xbd8c8c7d	-0.068627335
63	0x3b8b481c	0.0042505395
64	0x3f63b122	0.8894216
65	0xbe0d3fbe	-0.13793847
66	0x3f05820b	0.52151555
67	0xbd366206	-0.044527076
68	0x3da16bda	0.07881899
69	0x39cf00b3	0.00039482638
70	0x3b13636c	0.002248968
71	0xbb81e32c	-0.0039638486
72	0xbb5d08d6	-0.003372719
73	0x3a0b3522	0.00053103466
74	0x3cbadd70	0.022810668
75	0x39d7e761	0.00041180386
76	0xbd595329	-0.053057823
77	0x3c0f827e	0.008759139
78	0x3e807d85	0.25095764
79	0x3da796a1	0.08183027
80	0x3909aef7	0.00013130518
81	0xba4d7a29	-0.00078383327
82	0x3e22d0f0	0.15900016
83	0xbf9d9705	-1.2311713
84	0x3a812342	0.0009852427
85	0x3e31832f	0.17335199
86	0x3ac73aa2	0.0015199969
87	0x3cecd3b3	0.02890954
88	0x3dfb6d71	0.12276734
89	0x3ae1ad8a	0.0017217856
90	0x3c4b9044	0.012424532
91	0x3d797afb	0.0609083
92	0x3e2d16f6	0.1690329
93	0xbe51566f	-0.20443128
94	0x3d1db647	0.03850391
95	0x3ed83a5f	0.42232034
96	0xbca9b755	-0.020717302
97	0x3cd7b8ac	0.026333176
98	0x3d3e8af9	0.046519253
99	0x3d0bed1a	0.034161665
100	0xbd0d3f26	-0.03448405
101	0x3d8eded1	0.069760926
102	0xbb14a23f	-0.0022679714
103	0x3e815ce1	0.25266173
104	0x3dadbf22	0.08483721
105	0xb8c3f81e	-9.34454e-05
106	0x3b9aae36	0.0047204746
107	0xbcfd1d3c	-0.03089773
108	0x3c966fdd	0.018363887
109	0xba68693c	-0.0008865779
110	0x3cd560d6	0.026047152
111	0xb9c5dfaf	-0.00037741425
112	0x3e35ec63	0.17765956
113	0x3ea1413a	0.31495076
114	0x3cafe6af	0.021472303
115	0x3dc55eeb	0.09637245
116	0xbd12d340	-0.035845995
117	0x3e24402a	0.16040102
118	0xbdaaa546	-0.08332305
119	0xbe130576	-0.14357552
120	0x3cfe0753	0.031009352
121	0xb9d9d937	-0.00041551303
122	0x3db2e244	0.08734563
123	0xbdeb7d0c	-0.1149846
124	0x3c80e24a	0.015732903
125	0xbdbad3ab	-0.09122404
126	0xbd84dad2	-0.06487049
127	0x3c439e01	0.011939527
