checkpoints/nd/dim_2/width_16/method_cowgan.pt (torch, 69975 bytes, 5 tensors)

net.0.weight f4 [128, 2]
0.60574627 -0.2154288 -0.16878054 0.6441131 -0.29410055 -0.31680506 -0.1943895 0.21983218
0.60650885 0.39972392 0.69820106 0.6498031 0.012882353 0.07402234 0.43576607 -0.091278315
0.5321154 0.519936 0.74000525 -0.3749247 0.2820341 0.1056005 -0.44278184 -0.78175807
-0.5688065 0.5681926 0.4636291 0.46088263 -0.46737587 -0.602087 -0.1112651 -0.66344476
0.5534134 0.83781946 0.045567557 0.666926 0.033980742 -0.6167895 0.45850664 -0.02941252
0.100817725 -0.3056731 -0.4838436 0.36545625 -0.6968845 0.26346615 0.15773252 0.09550287
0.3530639 0.104009256 -0.507617 -0.12191419 0.43934646 -0.28632626 0.07825329 0.61928505
-0.14030612 -0.3853731 0.29515943 -0.42079648 -0.54876834 0.03873228 -0.19264409 -0.13186362
0.2313442 -0.397375 0.31515265 -0.43623114 -0.48652336 -0.31780243 -0.1326145 -0.56164736
0.46900043 0.030939056 0.32197773 0.32690817 -0.4381293 -0.23456405 0.1256114 -0.029844895
-0.39060777 0.37669864 -0.4189202 0.7903914 0.21485229 -0.8504038 0.09140326 0.5041405
0.30933788 -0.3217382 -0.3171404 -0.6699529 -0.10347765 0.6009615 0.28984892 0.074363746
0.017378472 0.34108067 -0.23947054 -0.17694768 -0.3893516 -0.29523742 0.4492634 0.41134712
-0.18150538 0.07988233 -0.41419724 -0.009218279 0.4083889 0.76414454 0.37049472 0.3510678
-0.74873304 -0.5556409 -0.045491103 0.054374862 0.30593964 0.22176221 -0.24247122 -0.38394073
-0.40144947 0.10499467 0.5844598 -0.16375773 0.02694727 0.009457138 -0.5100754 0.62354666
-0.5901234 0.28114828 -0.40209362 -0.0792138 0.60295945 0.18168892 0.5033783 0.49174473
0.015706519 -0.48083892 -0.05878569 0.397874 -0.1189238 -0.270827 -0.13478646 -0.066622026
0.1499779 -0.51817596 0.19570951 -0.40963632 0.50719047 0.33079624 -0.11491907 0.0006201454
0.56674737 -0.4460594 -0.5966929 -0.56565344 -0.6225387 -0.58808196 0.59095144 -0.00076698646
0.2558864 -0.36644194 -0.4940566 -0.50702095 -0.33890763 0.7419796 -0.41197863 0.55426306
-0.17079537 -0.28478506 -0.2796542 0.31823176 0.33299863 -0.6596433 0.005517927 -0.35518232
-0.49163908 0.3351198 0.54429907 0.64085466 -0.7899607 0.15753892 0.36730826 -0.39963463
0.5691371 0.16273941 -0.7219579 0.5166146 -0.5018364 -0.5030621 -0.45925063 0.2786599
-0.07355135 -0.3335929 0.6961463 0.32126725 -0.27194384 0.31639335 0.063347526 0.6785993
0.03794034 -0.06556937 0.73442006 0.5622144 -0.4749373 -0.44851246 -0.04446855 -0.35664082
0.60449123 -0.5078865 0.115613766 -0.52307016 0.093966335 -0.6051395 -0.4096482 -0.09904283
0.20357375 -0.8800072 -0.50115615 -0.2269836 -0.29392317 -0.07924339 0.25748837 0.18811685
-0.3490068 0.16188887 -0.6357771 0.2981328 0.7436124 0.5616002 0.42315814 -0.6259919
0.63579357 -0.37849948 0.6165331 -0.04226724 0.1731814 -0.44180173 0.2661171 -0.532651
0.69585806 0.27442867 0.21426886 0.58563495 0.3471564 -0.38492095 0.26837587 -0.5670041
-0.034730513 0.47851288 0.3825897 0.42727485 -0.40696722 -0.20440945 -0.21246682 0.12551853
00000000: 3012 1b3f 5e99 5cbe ced4 2cbe 99e4 243f
00000010: 5994 96be 4634 a2be 0b0e 47be b01b 613e
00000020: 2a44 1b3f 9da8 cc3e 4ebd 323f 7f59 263f
00000030: 8110 533c 0699 973d bb1c df3e 20f0 babd
00000040: b738 083f 871a 053f fc70 3d3f 21f6 bfbe
00000050: c666 903e 1345 d83d 4db4 e2be 4c21 48bf
00000060: 4e9d 11bf 1275 113f cb60 ed3e cff8 eb3e
00000070: e44b efbe 6022 1abf f5de e3bd 84d7 29bf
00000080: 80ac 0d3f 567b 563f 0ca5 3a3d aabb 2a3f
00000090: 642f 0b3d ebe5 1dbf 62c1 ea3e 86f2 f0bc
000000a0: 8679 ce3d 2f81 9cbe 59ba f7be 151d bb3e
000000b0: 0667 32bf 09e5 863e a284 213e 0297 c33d
000000c0: cbc4 b43e ce02 d53d 30f3 01bf 26ae f9bd
000000d0: 05f2 e03e 5b99 92be 4343 a03d 7789 1e3f
000000e0: 68ac 0fbe 9f4f c5be 231f 973e a372 d7be
000000f0: 157c 0cbf bda5 1e3d 7e44 45be 4207 07be
00000100: 7ee5 6c3e bc74 cbbe b05b a13e b059 dfbe
00000110: 9719 f9be 00b7 a2be 18cc 07be 1fc8 0fbf
00000120: d320 f03e e773 fd3c 44da a43e 8260 a73e
00000130: 7c52 e0be 8f31 70be 46a0 003e 487d f4bc
00000140: befd c7be a5de c03e b57c d6be 1757 4a3f
00000150: 3d02 5c3e 10b4 59bf a231 bb3d 5a0f 013f
00000160: 8961 9e3e dfba a4be 3a60 a2be 0982 2bbf
00000170: 17ec d3bd 9dd8 193f 1467 943e 054c 983d
00000180: 4c5d 8e3c 20a2 ae3e c437 75be c631 35be
00000190: 1859 c7be 5c29 97be da05 e63e 179c d23e
000001a0: 8cdc 39be 5999 a33d a911 d4be 4408 17bc
000001b0: 5a18 d13e fa9e 433f 7cb1 bd3e 29bf b33e
000001c0: f8ac 3fbf 7b3e 0ebf e154 3abd 2db8 5e3d
000001d0: 1fa4 9c3e a215 633e 604a 78be e193 c4be
000001e0: c98a cdbe 7207 d73d 289f 153f 1bb0 27be
000001f0: 85c0 dc3c 1df2 1a3c 4d94 02bf c1a0 1f3f
00000200: 5412 17bf abf2 8f3e 37df cdbe d83a a2bd
00000210: 8d5b 1a3f a90c 3a3e 66dd 003f f7c5 fb3e
00000220: f5aa 803c 8530 f6be 44c9 70bd 24b6 cb3e
00000230: 528e f3bd d6a9 8abe 7605 0abe 2171 88bd
00000240: ce93 193e 2ea7 04bf 1368 483e dabb d1be
00000250: 3cd7 013f 205e a93e b05a ebbd 4191 223a
00000260: 5b16 113f e661 e4be dec0 18bf aace 10bf
00000270: b25e 1fbf 8a8c 16bf 9848 173f 970f 49ba
00000280: 8b03 833e 479e bbbe fdf4 fcbe 20cc 01bf
00000290: 4d85 adbe 60f2 3d3f ddee d2be 2fe4 0d3f
000002a0: fbe4 2ebe 59cf 91be d62e 8fbe 46ef a23e
000002b0: cc7e aa3e 62de 28bf bacf b43b 75da b5be
000002c0: 1eb8 fbbe d394 ab3e 2f57 0b3f 0d0f 243f
000002d0: dd3a 4abf e251 213e d40f bc3e e99c ccbe
000002e0: f8b2 113f 29a5 263e 3cd2 38bf db40 043f
000002f0: 5a78 00bf aec8 00bf e622 ebbe 83ac 8e3e
00000300: 17a2 96bd b0cc aabe a536 323f 247d a43e
00000310: 393c 8bbe 4ffe a13e 59bc 813d afb8 2d3f
00000320: 5467 1b3d 3c49 86bd f402 3c3f 48ed 0f3f
00000330: fb2a f3be 6da3 e5be a724 36bd a099 b6be
00000340: f0bf 1a3f da04 02bf e9c6 ec3d ede7 05bf
00000350: 6c71 c03d 6cea 1abf 69bd d1be f8d6 cabd
00000360: a375 503e 2748 61bf c54b 00bf 646e 68be
00000370: 197d 96be 5c4a a2bd 84d5 833e b4a1 403e
00000380: 05b1 b2be 32c6 253e 4ac2 22bf dda4 983e
00000390: 625d 3e3f 08c5 0f3f 2fa8 d83e 0141 20bf
000003a0: 5ec3 223f afca c1be 1dd5 1d3f 6a20 2dbd
000003b0: 7756 313e d633 e2be 8040 883e d15b 08bf
000003c0: c123 323f ea81 8c3e 4c69 5b3e 2cec 153f
000003d0: 7cbe b13e 5c14 c5be 9068 893e 2e27 11bf
000003e0: 9541 0ebd a4ff f43e cce2 c33e c5c3 da3e
000003f0: 025e d0be b650 51be e790 59be ee87 003e

net.0.bias f4 [128]
0.8399956 -0.53851706 0.2214066 -0.2994335 0.14244924 -0.16453186 -0.65499175 -0.051377263
-0.5588687 -0.49455497 -0.075180344 -0.71547234 0.39360577 0.4647476 -0.057466205 0.30886438
0.65238106 -0.36640686 -0.37300092 -0.48599845 -0.53923815 0.4162126 -0.49906385 0.86706513
0.4892974 -0.3651631 -0.17369309 -0.78970325 -0.22386834 0.3637855 0.5777714 -0.5616428
-0.6738456 0.5791469 0.7744998 -0.5605655 -0.37491158 -0.20545672 -0.23674431 0.108412005
0.015697476 0.7996801 -0.085075624 0.13367546 -0.5120165 0.52798754 0.6311621 0.21831779
0.26521432 0.47174984 0.159399 0.7293997 0.72357607 0.4795088 0.67235243 0.5320803
0.31927437 -0.02425118 0.023576155 -0.5531302 0.6613296 0.34565204 0.3959205 -0.12856483
-0.29812485 0.21415408 -0.10266743 -0.5286138 -0.25278014 -0.38410115 0.44130537 -0.63732517
-0.31361488 0.24207088 -0.31772733 0.17503746 -0.13715069 0.38122153 -0.6140969 0.39371166
0.53424263 0.06862862 0.26342532 -0.4492867 0.7245186 -0.36036283 -0.6494653 0.8092832
-0.028843269 0.26802167 -0.47310868 0.10958347 -0.787575 -0.22270605 -0.21929185 -0.4656727
-0.6391985 -0.4942101 -0.050386917 -0.03868528 -0.26574945 0.4576928 0.39839977 0.45429733
-0.7766901 0.8070177 -0.72222847 0.576095 -0.61943835 0.0638229 0.9213191 -0.5302579
0.39187503 0.38166797 0.30161744 -0.46466187 0.51335424 -0.6504398 0.30404395 -0.50869024
0.6996885 0.34074733 0.5783914 -0.45334783 0.3792254 0.4000108 -0.49029532 0.41943944
00000000: f409 573f 41dc 09bf 69b8 623e 594f 99be
00000010: 37de 113e 0a7b 28be 8aad 27bf f770 52bd
00000020: 0512 0fbf 4f36 fdbe 27f8 99bd 3229 37bf
00000030: b286 c93e 66f3 ed3e af61 6bbd 7923 9e3e
00000040: 7202 273f ae99 bbbe faf9 bebe cad4 f8be
00000050: 830b 0abf d119 d53e 4c85 ffbe fbf7 5d3f
00000060: 3085 fa3e a8f6 babe 9adc 31be fe29 4abf
00000070: be3d 65be 1842 ba3e d4e8 133f d3c7 0fbf
00000080: 2581 2cbf f942 143f 9e45 463f 3881 0fbf
00000090: 69f4 bfbe 3f63 52be 1a6d 72be 1d07 de3d
000000a0: fe97 803c d6b7 4c3f 213c aebd 38e2 083e
000000b0: 8313 03bf 312a 073f d793 213f b38e 5f3e
000000c0: 2cca 873e 3289 f13e 7e39 233e f0b9 3a3f
000000d0: 483c 393f 2d82 f53e 4a1f 2c3f 6a36 083f
000000e0: ee77 a33e 69aa c6bc c822 c13c f199 0dbf
000000f0: e64c 293f 4ef9 b03e 17b6 ca3e 80a6 03be
00000100: d2a3 98be 354b 5b3e 4d43 d2bd 3c53 07bf
00000110: 666c 81be e8a8 c4be c7f2 e13e be27 23bf
00000120: 2192 a0be 6ee1 773e 28ad a2be 053d 333e
00000130: 3b71 0cbe 782f c33e 7435 1dbf 9394 c93e
00000140: 20c4 083f 298d 8c3d afdf 863e e808 e6be
00000150: 0d7a 393f 7a81 b8be 5c43 26bf 2f2d 4f3f
00000160: b848 ecbc 233a 893e 4d3b f2be 4c6d e03d
00000170: 849e 49bf 0e0d 64be 0b8e 60be a76c eebe
00000180: 83a2 23bf 1b09 fdbe 8362 4ebd 7574 1ebd
00000190: 5010 88be b656 ea3e 0efb cb3e a999 e83e
000001a0: 2ad5 46bf b698 4e3f f7e3 38bf f67a 133f
000001b0: 8393 1ebf 95b5 823d 92db 6b3f fbbe 07bf
000001c0: d8a3 c83e fc69 c33e 9a6d 9a3e 29e8 edbe
000001d0: 2f6b 033f 3983 26bf a6ab 9b3e 8639 02bf
000001e0: c91e 333f 6f76 ae3e 7511 143f 351d e8be
000001f0: d529 c23e 37ce cc3e fd07 fbbe c4c0 d63e

net.2.weight f4 [128, 128]
-0.006922734 0.07457861 0.074536905 -0.042790763 -0.07091954 0.09137243 0.010865362 0.07932055
-0.010491655 0.06391727 0.039439153 0.023302423 -0.035468504 -0.039360154 -0.08569951 0.010980265
0.0641856 0.0016722005 -0.073850706 -0.03383768 0.013808508 0.083021946 -0.048587214 -0.020926084
0.01338352 -0.073240586 0.024711719 -0.028504595 0.022361852 -0.000810526 -0.05968562 0.028099872
0.073880434 -0.06455917 -0.07434158 0.04238128 0.04677432 0.0009194751 -0.066916995 0.08589052
-0.038017787 -0.073232844 -0.03194727 -0.05089179 -0.051251832 0.036282767 0.07769368 -0.036334924
0.0006412955 -0.036903933 -0.089287795 -0.08689345 0.05535702 0.036498703 0.053083748 -0.058154434
-0.02989933 0.05862662 -0.028218873 0.08150178 -0.03615543 -0.025679948 0.07781877 0.006561637
0.08123087 -0.040646352 0.0052303965 -0.013772449 -0.07567862 -0.04158695 0.011183512 -0.070215076
-0.025816282 -0.06326438 -0.042514328 -0.0037668438 0.0073636547 -0.090812586 0.062127225 -0.06682113
0.0495279 -0.0011485121 0.017041065 0.06937693 -0.07227957 0.021436967 -0.057894196 -0.006268834
0.039133996 -0.08493742 -0.070502736 0.054667927 0.008463318 -0.041253466 -0.072683595 0.080784164
-0.08127259 0.054284416 0.016864529 0.07699949 0.005704502 0.024082432 0.016187737 -0.02501621
-0.04739667 -0.05641595 -0.048054308 -0.00981054 0.051457603 0.06647826 -0.059779644 0.064226106
0.0007457493 0.0140539855 0.024457589 0.015243745 0.06252988 -0.05781693 0.019722374 -0.04183395
-0.006157542 -0.069745384 -0.06570832 -0.06775848 0.032941923 -0.02568403 0.016389083 -0.025410226
-0.016849319 0.065118566 -0.10556945 0.030760007 -0.036664225 0.0777983 -0.063058965 -0.10931441
0.0514683 -0.046995785 0.06472736 0.0900129 -0.07359934 0.10351644 0.034782793 -0.0634092
0.06280451 0.029757634 -0.10595694 0.12517399 0.48380134 -0.0013081408 -0.11250506 -0.06755335
0.031269435 -0.009850477 -0.025170788 0.019406412 0.10078911 0.03150197 0.082235776 0.41008136
-0.26227546 -6.3233992e-06 0.025816292 0.073846415 0.08315304 0.09860564 0.022029465 -0.03811753
-0.06454523 -0.075154476 0.0688074 -0.0031595328 -0.22180474 -0.032682925 0.04518481 0.04130774
0.027079167 0.09043473 0.046510674 -0.025715293 0.026937352 0.049581222 -0.012369 0.11064384
0.002416486 -0.038566776 0.024606273 0.14392307 0.0013572973 0.07158962 -0.061519127 -0.086691365
0.023898618 -0.066698544 0.13807955 -0.008772598 0.017554073 0.149487 -0.010893749 0.0065126363
-0.091728136 0.015888406 0.07706485 0.01154052 -0.013238337 -0.12693468 0.16237864 -0.0076415427
0.11128298 -0.03686213 0.03775641 0.0027349142 0.091109075 0.046497256 -0.02335967 -0.106921844
-0.021106038 0.09255639 -0.115143105 -0.09995614 0.1596762 -0.10523858 0.059580944 -0.030579254
0.35147798 -0.015178083 0.032494247 0.07544928 -0.009341332 0.023313377 -0.012535492 0.024488585
-0.15747046 -0.014305166 0.039030213 0.0081552705 -0.13782652 -0.0036789703 0.0770357 0.12062815
0.007283163 -0.009885532 0.031264786 -0.101995766 0.013154948 0.12941746 -0.06167984 -0.07378057
0.0028515535 0.018671691 0.059319895 0.009450755 0.037763074 0.10128625 0.06378653 -0.039297525
00000000: 1ad8 e2bb acbc 983d cea6 983d 5e45 2fbd
00000010: 443e 91bd 7821 bb3d a204 323c d072 a23d
00000020: 31e5 2bbc 0fe7 823d f38a 213d b9e4 be3c
00000030: 6c47 11bd 1d38 21bd 3a83 afbd 92e6 333c
00000040: bd73 833d bd2d db3a 0a3f 97bd 6199 0abd
00000050: 153d 623c 6907 aa3d 6303 47bd 2e6d abbc
00000060: 8d46 5b3c 29ff 95bd 3b70 ca3c 7882 e9bc
00000070: 3430 b73c 7b79 54ba e978 74bd b431 e63c
00000080: a04e 973d 9937 84bd 6640 98bd fe97 2d3d
00000090: 6e96 3f3d ee08 713a c70b 89bd 5ee7 af3d
000000a0: 8ab8 1bbd 1afb 95bd 24db 02bd e973 50bd
000000b0: 71ed 51bd 3d9d 143d dd1d 9f3d eed3 14bd
000000c0: 9d1c 283a 9428 17bd 85dc b6bd 31f5 b1bd
000000d0: 0bbe 623d aa7f 153d 586e 593d 5833 6ebd
000000e0: 71ef f4bc 7722 703d 442b e7bc 68ea a63d
000000f0: b717 14bd c15e d2bc 735f 9f3d 0003 d73b
00000100: 5f5c a63d ca7c 26bd bf63 ab3b d7a5 61bc
00000110: 64fd 9abd 1457 2abd 0d3b 373c eccc 8fbd
00000120: ab7c d3bc c190 81bd 8123 2ebd 27dd 76bb
00000130: d04a f13b f3fb b9bd 1e79 7e3d 84d9 88bd
00000140: c4dd 4a3d ac89 96ba b499 8b3c 7e15 8e3d
00000150: 5007 94bd 949c af3c 7722 6dbd cb6a cdbb
00000160: f84a 203d acf3 adbd bd63 90bd 7aeb 5f3d
00000170: bba9 0a3c 65f9 28bd 23db 94bd 2b72 a53d
00000180: 3e72 a6bd 5659 5e3d 7b27 8a3c e9b1 9d3d
00000190: d5ec ba3b 8548 c53c 259c 843c cbee ccbc
000001a0: 0323 42bd 6914 67bd 98d4 44bd 63bc 20bc
000001b0: 35c5 523d c125 883d 80db 74bd fa88 833d
000001c0: 637e 433a b042 663c 485b c83c e7c0 793c
000001d0: aa0f 803d 72d1 6cbd d190 a13c 135a 2bbd
000001e0: 35c5 c9bb abd6 8ebd 1592 86bd f5c4 8abd
000001f0: 1cee 063d 5167 d2bc 6642 863c 1b29 d0bc
00000200: 9507 8abc e25c 853d cc34 d8bd 69fc fb3c
00000210: 3a2d 16bd b754 9f3d 0f25 81bd 3ce0 dfbd
00000220: 6dd0 523d a77e 40bd c78f 843d af58 b83d
00000230: 40bb 96bd 6d00 d43d 6778 0e3d afdc 81bd
00000240: a79f 803d 48c6 f33c f4ff d8bd 9c2d 003e
00000250: cfb4 f73e ec75 abba 0e69 e6bd 6959 8abd
00000260: 6114 003d e563 21bc f832 cebc 32fa 9e3c
00000270: 856a ce3d 3608 013d 3b6b a83d 2ff6 d13e
00000280: f848 86be 962d d4b6 b07c d33c ca3c 973d
00000290: 244c aa3d c1f1 c93d 2377 b43c 2121 1cbd
000002a0: 4a30 84bd 97ea 99bd e5ea 8c3d 2a10 4fbb
000002b0: c820 63be 88de 05bd b513 393d 4e32 293d
000002c0: 21d5 dd3c d835 b93d fa81 3e3d e1a8 d2bc
000002d0: b9ab dc3c ae15 4b3d 59a7 4abc 3d99 e23d
000002e0: e85d 1e3b 32f8 1dbd 1893 c93c 9260 133e
000002f0: 57e7 b13a 949d 923d 7bfb 7bbd 3e8b b1bd
00000300: 09c7 c33c 3f99 88bd ba64 0d3e f1ba 0fbc
00000310: 8fcd 8f3c 1f13 193e b27b 32bc f467 d53b
00000320: f6db bbbd 6728 823c 2dd4 9d3d 7314 3d3c
00000330: 9ce5 58bc 2afb 01be 9646 263e e865 fabb
00000340: 55e8 e33d bffc 16bd 77a6 1a3d 3f3c 333b
00000350: 6597 ba3d e873 3e3d c75c bfbc d7f9 dabd
00000360: 92e6 acbc 348e bd3d 26d0 ebbd ceb5 ccbd
00000370: 2882 233e 5387 d7bd 260b 743d 5881 fabc
00000380: ecf4 b33e 7fad 78bc b018 053d 2785 9a3d
00000390: 630c 19bc b2fb be3c aa61 4dbc 499c c83c
000003a0: f03f 21be 3760 6abc 25de 1f3d af9d 053c
000003b0: 6522 0dbe e11a 71bb e5c4 9d3d e40b f73d
000003c0: 99a7 ee3b edf6 21bc 810f 003d 28e3 d0bd
000003d0: da87 573c 0386 043e 00a4 7cbd 441a 97bd
000003e0: 21e1 3a3b 60f5 983c 6bf9 723d 57d7 1a3c
000003f0: 74ad 1a3d 2a6f cf3d 83a2 823d 71f6 20bd

net.2.bias f4 [128]
-0.013175386 0.032108333 0.02362679 -0.022960704 -0.06831509 -0.1802556 -0.016777197 -0.04153431
0.047725283 0.10528426 0.1530489 0.106257126 0.01405962 -0.09288358 -0.08473937 0.21116942
-0.0037697533 -0.058275457 -0.11235709 0.2067561 -0.026132872 -0.058023617 -0.09543175 0.089015104
0.014191995 0.039826654 -0.021657577 -0.15968189 -0.1927775 0.029573327 0.15539151 0.053607684
0.015903348 -0.1777165 0.18353201 0.15663557 0.03978523 -0.049173433 0.036338817 -0.0595602
0.03192047 0.02448384 -0.0026643719 0.031424608 -0.093319714 0.026551716 0.085626654 0.4797331
0.055813998 -0.083033554 -0.008435321 0.026442023 -0.12618443 -0.109089166 -0.153487 0.053564936
-0.061602652 -0.08068006 0.12814651 0.09894802 0.113542154 -0.23899698 -0.05192673 0.08745075
-0.17089908 -0.056036443 -0.06462786 -0.019997716 -0.019985931 -0.10878356 -0.13433233 0.06571237
0.0712857 0.022344027 0.12288142 0.03201518 0.06490155 0.00493103 -0.045441415 -0.0653625
0.2629411 -0.009454126 -0.0756459 0.27183366 -0.16912247 0.1188057 0.05372025 0.08506065
0.09817791 0.113948084 -0.09261233 -0.06705761 -0.01787339 0.084046245 0.15010966 -0.13118085
-0.007647941 0.036530633 -0.010157626 0.08352481 -0.169983 -0.11296426 0.010874429 0.04713278
0.15483728 -0.18502273 0.035970557 -0.025271226 0.063421026 -0.04139643 -0.08357935 -0.13788141
-0.23860595 0.10636821 0.0331521 0.067313135 0.25083175 -0.06355274 -0.04708721 0.2521459
-0.01508977 0.13416447 -0.06722253 0.013489037 -0.13572529 0.18521507 0.059510432 0.072321296
00000000: 93dd 57bc 0784 033d f88c c13c 1618 bcbc
00000010: c8e8 8bbd ed94 38be 5570 89bc e11f 2abd
00000020: 967b 433d 469f d73d dab8 1c3e 569d d93d
00000030: 525a 663c bf39 bebd d68b adbd cc3c 583e
00000040: f70d 77bb 3fb2 6ebd 791b e6bd dfb7 533e
00000050: 9b14 d6bc 2caa 6dbd b971 c3bd 8d4d b63d
00000060: 8b85 683c 4621 233d 3b6b b1bc a683 23be
00000070: 7767 45be c343 f23c f41e 1f3e bb93 5b3d
00000080: bd47 823c 50fb 35be d1ef 3b3e 1365 203e
00000090: d6f5 223d 156a 49bd 03d8 143d 65f5 73bd
000000a0: 0abf 023d 5692 c83c be9c 2ebb 17b7 003d
000000b0: 681e bfbd fc82 d93c 075d af3d 949f f53e
000000c0: 389d 643d 7f0d aabd 4d34 0abc f19c d83c
000000d0: 7e36 01be 246a dfbd b22b 1dbe e866 5b3d
000000e0: 1053 7cbd 963b a5bd d738 033e 42a5 ca3d
000000f0: ca88 e83d a0bb 74be 1fb1 54bd 6119 b33d
00000100: 2b00 2fbe 7886 65bd 9d5b 84bd 40d2 a3bc
00000110: 89b9 a3bc eac9 debd 6a8e 09be 3594 863d
00000120: 3dfe 913d d20a b73c 41a9 fb3d 5922 033d
00000130: 1beb 843d 7a94 a13b c720 3abd c6dc 85bd
00000140: 37a0 863e 7ae5 1abc 3dec 9abd c82d 8b3e
00000150: 712e 2dbe 6750 f33d c409 5c3d 4734 ae3d
00000160: 8011 c93d 9d5d e93d 89ab bdbd 8055 89bd
00000170: 376b 92bc 7020 ac3d 59b6 193e 4654 06be
00000180: 949b fabb 25a1 153d 2c6c 26bc 0e0f ab3d
00000190: 0610 2ebe ce59 e7bd a92a 323c 4d0e 413d
000001a0: aa8d 1e3e 9976 3dbe dd55 133d 9a05 cfbc
000001b0: e2e2 813d 4e8f 29bd a62b abbd c930 0dbe
000001c0: 1e55 74be 93d7 d93d 7fca 073d 78db 893d
000001d0: 056d 803e f027 82bd 85de 40bd 4419 813e
000001e0: 153b 77bc 6962 093e f7ab 89bd 1f01 5d3c
000001f0: 92fb 0abe 05a9 3d3e 36c1 733d 301d 943d

net.4.weight f4 [1, 128]
-0.057512626 -0.11814654 0.1895126 -0.076178804 -0.0614081 -0.12757637 0.12531057 -0.065107115
-0.14896123 0.24640058 0.036274474 0.09930752 0.13667096 -0.16544728 0.13073117 0.11680399
0.075110756 -0.08998138 -0.4033658 0.060656395 -0.17655054 -0.017578334 -0.033645846 -0.25055227
-0.23449187 0.000424601 -0.14129719 -0.09404346 -0.09896097 0.06770649 0.024568826 0.12035409
0.04665795 0.014472783 0.20930275 0.09176411 0.11856311 -0.076919444 -0.048364144 0.05792162
-0.15460654 0.00039840073 -0.0004691828 -0.17657658 -0.121279664 0.18881203 0.11583868 0.06735559
-0.35926452 -0.00045283287 0.12838939 -0.051143426 -0.08878581 0.02280613 0.46709296 -0.034009222
0.00019529548 0.0817968 0.042407937 0.16565128 0.13514422 0.42091134 0.07272212 -0.26856536
-0.05449606 -3.7476188e-05 0.3301182 -0.12197923 0.16990915 0.110413596 -0.07439431 0.13852015
-0.019924266 0.07426422 0.07283993 0.1311774 0.25181985 0.11151344 0.00010161593 -0.032719705
0.09017666 0.104925774 0.05544888 0.066695705 -0.1523837 -0.18799557 0.07946635 0.15173228
0.06404732 -2.545779e-05 -0.9372131 -0.066850774 0.08906852 0.19808973 0.055641863 -0.16984588
-0.0002572276 -0.33797976 -0.0001021139 0.13519564 -0.109286495 0.22152711 0.1973724 0.024800934
0.121883884 -0.16066569 0.26670668 -0.09368008 0.07527598 -0.0022237066 -0.07651008 -0.031568136
-0.65430117 0.15158169 0.14937565 0.06751784 0.057659343 -0.1829214 0.025456484 0.092002906
0.16549048 0.052380573 0.008503635 -0.11370057 0.19906455 0.09185463 0.089538105 0.09664707
00000000: 5c92 6bbd d0f6 f1bd 970f 423e a203 9cbd
00000010: 0f87 7bbd 61a3 02be 6a51 003e e156 85bd
00000020: 4b89 18be 6f50 7c3e 8b94 143d be61 cb3d
00000030: 79f3 0b3e 036b 29be 64de 053e ee36 ef3d
00000040: abd3 993d 2848 b8bd f685 cebe d772 783d
00000050: aac9 34be 7000 90bc 3ad0 09bd 6348 80be
00000060: a31e 70be fb9c de39 36b0 10be dc99 c0bd
00000070: 0dac cabd b3a9 8a3d 9044 c93c 357c f63d
00000080: 681c 3f3d 401f 6d3c 7653 563e d2ee bb3d
00000090: 37d1 f23d f187 9dbd 7b19 46bd 383f 6d3d
000000a0: 2d51 1ebe 71e0 d039 a6fc f5b9 7ed0 34be
000000b0: 7961 f8bd f157 413e d43c ed3d baf1 893d
000000c0: 85f1 b7be 336a edb9 8278 033e c57b 51bd
000000d0: 56d5 b5bd ecd3 ba3c cf26 ef3e 414d 0bbd
000000e0: 3bc8 4c39 1585 a73d f2b3 2d3d 7da0 293e
000000f0: 3f63 0a3e b181 d73e 56ef 943d 6681 89be
00000100: 4337 5fbd c02f 1db8 4105 a93e 3fd0 f9bd
00000110: aafc 2d3e 8620 e23d 0b5c 98bd 3ad8 0d3e
00000120: 3738 a3bc d717 983d 1a2d 953d 5e53 063e
00000130: 88ee 803e 2961 e43d a31a d538 1905 06bd
00000140: 8aae b83d 53e3 d63d 5d1e 633d c297 883d
00000150: 790a 1cbe e981 40be 41bf a23d b55f 1b3e
00000160: 3e2b 833d 308e d5b7 33ed 6fbf 0fe9 88bd
00000170: 8e69 b63d 09d8 4a3e b9e8 633d 14ec 2dbe
00000180: 81dc 86b9 af0b adbe fc25 d6b8 ba70 0a3e
00000190: 99d1 dfbd 01d8 623e fe1b 4a3e 542b cb3c
000001a0: 429e f93d 8c85 24be c78d 883e 57db bfbd
000001b0: 4b2a 9a3d 9bbb 11bb 51b1 9cbd 974d 01bd
000001c0: 4880 27bf 3b38 1b3e eef5 183e cb46 8a3d
000001d0: 342c 6c3d bf4f 3bbe 1e8a d03c 056c bc3d
000001e0: 5676 293e 038d 563d d552 0b3c d8db e8bd
000001f0: 94d7 4b3e 481e bc3d c15f b73d e6ee c53d
