checkpoints/nd/dim_2/width_16/method_wgan-lp.pt (torch, 69975 bytes, 5 tensors)

net.0.weight f4 [128, 2]
0	0xbf39f539	-0.72639805
1	0xbe730b68	-0.2373482
2	0x3daea686	0.085278556
3	0x3c6ee5d8	0.014581166
4	0x3ed87b01	0.42281345
5	0xbe608880	-0.2192707
6	0xbe4ec96d	-0.20194025
7	0xbd521fab	-0.051299732
8	0xbefbbc30	-0.49167013
9	0x3ec82de9	0.39097527
10	0x3cf9633c	0.030442826
11	0xbe237c2f	-0.15965341
12	0x3ed6f128	0.41980863
13	0xbe1157a3	-0.14193587
14	0xbecdd459	-0.4020107
15	0x3b6ee0b6	0.0036449856
16	0xbf356dc7	-0.7087063
17	0xbe0a67ab	-0.13516109
18	0xbf20e35e	-0.62846935
19	0xbe49e948	-0.19717896
20	0xbe67f845	-0.22653301
21	0xbe5b96ea	-0.21444288
22	0x3f0123a2	0.50444996
23	0xbd0be176	-0.034150563
24	0xbe4206b8	-0.18947875
25	0xbf4d9758	-0.8030906
26	0x3f3e4c79	0.7433544
27	0xbeb33708	-0.35002923
28	0xbd941a42	-0.07231571
29	0xbf140b2e	-0.5782956
30	0xbd3a3905	-0.045464534
31	0xbcfd835e	-0.03094643
32	0xbed15037	-0.40881512
33	0x3e8672ce	0.26259464
34	0x3eb4f9cb	0.35346827
35	0xbc40bbc9	-0.0117635215
36	0x3f0a0966	0.5392059
37	0x3f4ae65c	0.7925775
38	0xbf40474a	-0.7510878
39	0xbf171e50	-0.5903063
40	0xbd107028	-0.03526321
41	0x3ec9bbda	0.39401132
42	0x3e17e293	0.14832525
43	0x3e39c881	0.18142892
44	0xbd5cf712	-0.053946562
45	0xbdf1227a	-0.11774154
46	0x3d872048	0.06597954
47	0xbc8b280a	-0.016986866
48	0x3dbc408f	0.09192001
49	0x3ef825ec	0.48466432
50	0x3f0ef487	0.5584187
51	0xbd1434ea	-0.036183275
52	0x3dd544f0	0.104135394
53	0x3e921a5c	0.28535736
54	0x3eb629dd	0.35578814
55	0xbdeae084	-0.11468604
56	0xbe12269e	-0.14272544
57	0xbf3e6ca0	-0.743845
58	0xbed52a3a	-0.4163378
59	0xbe9cc8e0	-0.30622005
60	0xbf14d050	-0.5813036
61	0x3f06f4d1	0.5271731
62	0x3e06d1aa	0.13165918
63	0x3eaf3ec2	0.34227568
64	0x3edf0733	0.4356018
65	0xbe909a43	-0.28242692
66	0xbebe9e4b	-0.37230143
67	0xbec0c161	-0.37647536
68	0x3e5d25b9	0.21596421
69	0x3f1a482b	0.6026637
70	0xbf03b3d2	-0.5144626
71	0x3f211851	0.6292773
72	0xbd3fa388	-0.046786815
73	0xbf1f78a4	-0.6229346
74	0x3f2f8a35	0.6857026
75	0x3e008afd	0.1255302
76	0xbe99a476	-0.30008286
77	0x3ed06392	0.40700966
78	0xbb9e0fa8	-0.0048236437
79	0xbe059ad5	-0.13047345
80	0x3e713c9f	0.23558281
81	0x3e13b35f	0.14423893
82	0x3ed264e0	0.41092587
83	0xbef454c9	-0.47720936
84	0xbc0676be	-0.008207021
85	0xbc21bf73	-0.009872305
86	0x3e460d5a	0.1934103
87	0xbe9de5b5	-0.30839315
88	0x3f2a04db	0.6641366
89	0x3f795b5d	0.97405034
90	0x3eba9419	0.36441115
91	0xbee40977	-0.4453847
92	0x3f0a20e9	0.53956467
93	0x3f07a3ad	0.52984124
94	0xbf39e4f3	-0.72614974
95	0xbf2fb64a	-0.68637526
96	0xbe760025	-0.24023493
97	0xbf06e145	-0.52687484
98	0xbf420895	-0.75794345
99	0xbf370895	-0.7149747
100	0xbe3f0cd9	-0.18657245
101	0xbed86404	-0.42263806
102	0xbf0354a1	-0.5130101
103	0xbf061b76	-0.5238565
104	0x3f20e679	0.62851673
105	0x3f2ace6d	0.6672123
106	0x3d8c7a86	0.06859307
107	0x3d2a894d	0.041634846
108	0xbe7076c2	-0.23482803
109	0x3ec7bc27	0.39010736
110	0xbf22ed2f	-0.63643163
111	0x3ef62dc8	0.48081803
112	0x3f11470e	0.56749046
113	0x3c44bb76	0.012007585
114	0x3d09e598	0.033666223
115	0xbe044906	-0.12918481
116	0xbd8d4a54	-0.068989426
117	0x3e85c07f	0.26123425
118	0xbe36ea1b	-0.17862742
119	0xbecf221f	-0.4045572
120	0x3e806c87	0.250828
121	0xbe3a91d7	-0.18219696
122	0x3dc07a45	0.09398321
123	0xbe17e53b	-0.14833538
124	0x3e5333a9	0.20625176
125	0x3e72dd2b	0.23717181
126	0xbf2592c5	-0.6467708
127	0x3e32abb5	0.17448314
128	0x3e806851	0.25079587
129	0xbd5d0a59	-0.053964946
130	0x3e61ed28	0.22063124
131	0xbf40609e	-0.75147426
132	0xbf462ecc	-0.77415156
133	0xbebfbedf	-0.3745031
134	0x3f49d792	0.7884456
135	0x3dc93f89	0.098265715
136	0x3ec2d7cd	0.38055268
137	0xbbd7ca7e	-0.0065854182
138	0x3f056afc	0.5211637
139	0xbe88fcee	-0.2675547
140	0x3ec1a07d	0.37817755
141	0xbe8d83a1	-0.27639487
142	0x3eb055db	0.34440503
143	0xbebb8e76	-0.36632127
144	0xbecd9d9d	-0.40159312
145	0xbed70989	-0.41999462
146	0x3e950fc2	0.29113585
147	0x3f0d4b2a	0.55192816
148	0x3d303b9a	0.04302559
149	0xbec0f6d9	-0.3768833
150	0xbf1da1f0	-0.6157522
151	0xbf79caa3	-0.97574824
152	0x3db537f0	0.0884856
153	0x3e8cabc7	0.27474806
154	0x3c8d7293	0.017266547
155	0x3ef1783d	0.47162047
156	0x3e361c29	0.1778418
157	0xbf123f38	-0.57127714
158	0x3dea0c63	0.11428144
159	0x3e1c00d1	0.15234686
160	0x3c2967d7	0.010339699
161	0xbe9f2d31	-0.31089166
162	0x3e1545f6	0.14577469
163	0x3ecf6018	0.40503
164	0xbf2e6f4d	-0.6813858
165	0x3ed3ac35	0.4134232
166	0x3ed71d35	0.4201447
167	0xbf44d31b	-0.7688462
168	0x3eaf428c	0.3423046
169	0x3c83a260	0.016068637
170	0xbe8a13a8	-0.26968122
171	0x3ee3fa33	0.44526824
172	0xbdb14f1b	-0.08657666
173	0xbe28ad16	-0.16472277
174	0x3f3b7fcf	0.73241895
175	0xbe7087cf	-0.23489307
176	0xbe91c457	-0.28470108
177	0x3f167339	0.58769566
178	0x3ea2e6bb	0.31816658
179	0xbc176366	-0.009240007
180	0x3ec933a5	0.39297214
181	0xbe9eb0ee	-0.30994362
182	0xbf571c9f	-0.8402805
183	0x3d96a827	0.07356291
184	0x3dbf8d13	0.0935308
185	0x3eda3452	0.42618042
186	0x3c94f4dc	0.018183164
187	0xbbe4decb	-0.006984567
188	0x3db04558	0.08606976
189	0xbdff799c	-0.12474367
190	0x3d481ba6	0.048854493
191	0x3eb50db8	0.3536203
192	0x3d766062	0.06015051
193	0x3f184506	0.5948032
194	0xbeb49b8b	-0.3527492
195	0x3e8ed61b	0.27897725
196	0xbd839ae9	-0.06426031
197	0xbf5b66f6	-0.8570398
198	0x3dc6587e	0.09684847
199	0x3f042a4d	0.51627046
200	0x3f0457b3	0.5169632
201	0x3f01a9a2	0.50649464
202	0xbecacb92	-0.39608437
203	0xbd9e2c98	-0.07723349
204	0x3ef4e651	0.47831967
205	0x3f862567	1.0480164
206	0xbec74e20	-0.38926792
207	0x3eb9a86e	0.36261314
208	0xbf00f4b1	-0.5037337
209	0xbf16701c	-0.58764815
210	0xbe558aba	-0.20853701
211	0x3f4b0566	0.7930511
212	0x3e3e61b9	0.18591966
213	0xbd2a370c	-0.041556403
214	0x3d44c447	0.048038747
215	0x3ef272b3	0.47353134
216	0xbf3b12af	-0.73075384
217	0xbe89044b	-0.26761088
218	0xbeeff919	-0.46869734
219	0x3e8048ca	0.25055534
220	0xbeadf3c9	-0.33975056
221	0xbd961029	-0.07327301
222	0xbec5a8a6	-0.3860523
223	0xbecb4594	-0.3970152
224	0x3ea48d74	0.3213917
225	0xbf0ad0a0	-0.54224586
226	0x3e926db8	0.28599334
227	0xbeae150f	-0.3400044
228	0x3ef3067e	0.4746589
229	0x3de973a6	0.11399011
230	0x3e9c45aa	0.305219
231	0xbf43422f	-0.76272863
232	0xbed8f8fb	-0.42377457
233	0xbda7aa08	-0.08186728
234	0xbd8b68f5	-0.06807128
235	0xbe95e279	-0.29274347
236	0xbced8552	-0.028994236
237	0xbd80dc31	-0.06291998
238	0xbe3a8b36	-0.18217167
239	0x3e99887f	0.2998695
240	0x3e2e63a2	0.17030194
241	0x3e54bcbe	0.20775124
242	0x3eedcf76	0.46447343
243	0xbd122ac7	-0.035685327
244	0xbf1982ea	-0.59965384
245	0xbdb14424	-0.08655575
246	0xbefa25a8	-0.48856854
247	0x3f11559b	0.5677125
248	0x3e4a7c5d	0.19774003
249	0xbe231d11	-0.15929057
250	0xbbd4c30b	-0.0064929775
251	0x3b4e8cab	0.003151695
252	0x3d8914ad	0.06693397
253	0x3e4fda80	0.20298195
254	0xbe7aa9d5	-0.24478848
255	0x3e56c0a5	0.20971926

net.0.bias f4 [128]
0	0xbe8d7771	-0.2763019
1	0x3eb05f1f	0.34447572
2	0x3e54d1f4	0.20783216
3	0x3ec72d90	0.3890195
4	0x3de86114	0.11346641
5	0x3e15b7ec	0.14620942
6	0xbf2363d1	-0.6382418
7	0x3e3f01f6	0.18653092
8	0x3c931f58	0.017959282
9	0xbe7cdd57	-0.2469381
10	0x3e1d9e24	0.15392357
11	0xbf0850f1	-0.53248507
12	0xbf16f7dd	-0.5897196
13	0xbee43ec5	-0.4457914
14	0x3f3cbf91	0.7372981
15	0x3c69179b	0.014226819
16	0x3f3f2376	0.74663484
17	0x3f2e8146	0.68166006
18	0xbe338e19	-0.17534675
19	0xbeff1a1a	-0.498246
20	0xbe8a5fe3	-0.2702628
21	0x3ec0e582	0.376751
22	0x3ccf3fa0	0.025298893
23	0xbf1fb94e	-0.6239213
24	0x3f661a80	0.89884186
25	0xbf172363	-0.5903837
26	0x3e29d360	0.1658454
27	0x3f2d0749	0.6758924
28	0xbda6249b	-0.08112451
29	0x3f516547	0.8179516
30	0xbf10beb3	-0.56540984
31	0x3e44023d	0.19141479
32	0x3f0c633f	0.5483894
33	0x3e8c6dce	0.27427524
34	0x3f3d03f4	0.73834157
35	0xbe0464ad	-0.1292903
36	0xbe786f0c	-0.24261111
37	0xbc2b5f1b	-0.010459687
38	0xbdf8bd00	-0.12145424
39	0x3f2e0ffe	0.6799315
40	0x3f045038	0.51684904
41	0xbee45d59	-0.4460247
42	0x3dd92a91	0.10603822
43	0x3f4ed818	0.8079848
44	0xbe5e0906	-0.2168313
45	0x3dbbb633	0.09165611
46	0xbec36685	-0.38164154
47	0xbf37668b	-0.71640843
48	0x3de71785	0.11283783
49	0xbf3ef4c9	-0.7459226
50	0x3f3083a2	0.68950856
51	0xbe0033e4	-0.12519795
52	0x3e0d35dc	0.13790077
53	0xbe993008	-0.29919457
54	0xbe3417fe	-0.17587277
55	0xbf444ef8	-0.76682997
56	0xbf280647	-0.6563458
57	0x3ddd49b3	0.10805073
58	0xbe5f2a9b	-0.21793596
59	0x3f28fe62	0.6601316
60	0x3e5732c7	0.21015464
61	0x3ec8fb06	0.39254016
62	0x3f3f92de	0.74833477
63	0xbebe27b8	-0.37139678
64	0x3f186e52	0.59543335
65	0xbf3209f5	-0.69546443
66	0xbd1ed750	-0.038779557
67	0x3d4443a0	0.047916055
68	0x3f38285b	0.7193658
69	0x3e842073	0.25806007
70	0x3ea0ca67	0.3140442
71	0x3f0de49f	0.55426973
72	0xbdb61c3c	-0.08892104
73	0x3f059a1c	0.5218828
74	0x3e889713	0.2667776
75	0xbf3d6f2e	-0.7399777
76	0x3ea30cd6	0.3184573
77	0xbf0dcb98	-0.55388784
78	0xbf024a25	-0.50894386
79	0x3e980e72	0.2969852
80	0x3e4b2ff8	0.19842517
81	0x3efeb137	0.4974458
82	0xbf30987c	-0.6898267
83	0xbead35e1	-0.3383017
84	0xbe92f0f3	-0.28699455
85	0x3f1f75d6	0.6228918
86	0x3e7af808	0.24508679
87	0xbf104ad0	-0.56364155
88	0x3f81b335	1.0132815
89	0x3f1c4077	0.61035866
90	0x3e95a135	0.29224554
91	0x3eb6cd35	0.35703436
92	0x3f2a3af0	0.6649618
93	0x3c60cf09	0.013721236
94	0x3e1a63d2	0.15077141
95	0x3ef73863	0.48285207
96	0xbf11a785	-0.5689624
97	0x3da98be8	0.08278638
98	0xbeaab008	-0.33337426
99	0xbf105ec6	-0.5639461
100	0xbf0b0756	-0.5430807
101	0x3c4a3ade	0.012343137
102	0xbe64b60c	-0.2233507
103	0xbebf46b4	-0.3735863
104	0xbafdd2a3	-0.0019365143
105	0xbf29787d	-0.66199476
106	0x3ea3c90e	0.3198933
107	0x3f2d6fe9	0.67748886
108	0xbf323048	-0.6960492
109	0xbe686cec	-0.226978
110	0x3f247265	0.6423705
111	0x3e930a7e	0.28718942
112	0xbf3f7796	-0.7479185
113	0xbea2281c	-0.31671226
114	0xbf2abecf	-0.666974
115	0xbd61d186	-0.055131458
116	0x3ed50965	0.4160873
117	0x3eab7e5c	0.33494842
118	0x3c60f90b	0.0137312515
119	0x3ed780c8	0.4209044
120	0x3edd510b	0.43225893
121	0x3f568824	0.83801484
122	0xbea571e4	-0.32313454
123	0xbdb7f0b5	-0.08981458
124	0x3e3d6ef0	0.1849935
125	0x3c332ae6	0.010935521
126	0x3e73baf1	0.23801781
127	0xbe52f5be	-0.20601556

net.2.weight f4 [128, 128]
0	0xbe0d9687	-0.13826953
1	0x3cd094cd	0.025461579
2	0x3d6e4d41	0.058179144
3	0x3cb145da	0.021639753
4	0x3e236dba	0.15959826
5	0xbd9b6a91	-0.07588685
6	0xbe459ac2	-0.19297317
7	0x3e08b60d	0.13350697
8	0x3b37717c	0.0027991226
9	0xbd85782d	-0.06517062
10	0x3d043a8a	0.03228239
11	0x3dbfda78	0.093678415
12	0xbe053f8a	-0.1301252
13	0xbd294567	-0.041325953
14	0x3d8bc56d	0.06824765
15	0xbce323f1	-0.0277271
16	0x3d21c413	0.03949363
17	0x3d945550	0.072428346
18	0x3da396a7	0.07987719
19	0x3c46af20	0.012126714
20	0xbec1c438	-0.37845016
21	0xbdf6d1a6	-0.12051706
22	0xbe27b0df	-0.16376065
23	0x3dafe729	0.08589012
24	0xbd9a12d1	-0.0752312
25	0x3b9d71d3	0.0048048287
26	0x3dd9776d	0.10618482
27	0xbdcee6aa	-0.101025894
28	0x3d4f553a	0.050618388
29	0x3d623c22	0.05523313
30	0xba4ca7d0	-0.00078069884
31	0xbc48a6de	-0.0122468155
32	0x3d10f397	0.035388555
33	0xbdfbd278	-0.12296003
34	0x3c8b3071	0.016990872
35	0xbda7404e	-0.08166562
36	0x3e0d56e4	0.13802677
37	0x3c15ff55	0.009155114
38	0xbdb30c99	-0.08742637
39	0x3d1b9690	0.037985384
40	0xbbf27912	-0.0073996866
41	0xbd034e26	-0.03205695
42	0x3c574eb8	0.013141327
43	0xbd3538ef	-0.04424375
44	0x3d52d862	0.05147589
45	0x3d7a5a84	0.06112148
46	0xbe2a9c9c	-0.16661304
47	0x3d6cf76a	0.05785314
48	0xbe0547f6	-0.13015732
49	0x3dfef49a	0.12448998
50	0xbd859d03	-0.06524088
51	0x3c0b7e3c	0.008513983
52	0xbc16b9d4	-0.009199578
53	0x3d06f356	0.032946907
54	0xbdea46d3	-0.1143929
55	0xbe3e76cd	-0.18600006
56	0x3ce88191	0.028382095
57	0xbd9bd501	-0.07608987
58	0xbe02c3bb	-0.12769978
59	0x3d8e8d73	0.06960573
60	0xbba7a606	-0.005116227
61	0xbd2227c8	-0.03958872
62	0xbe265958	-0.1624502
63	0x3e7cee94	0.24700385
64	0x3dd4e370	0.10394943
65	0xbc0774ce	-0.0082675945
66	0xbe0a4ba3	-0.13505416
67	0x3da7fbd6	0.08202331
68	0x3cb6e6dd	0.022326881
69	0x3e02e24a	0.12781635
70	0x3e2e050b	0.16994111
71	0x3d96c50b	0.07361802
72	0xbd54de5c	-0.05196987
73	0x3e410785	0.18850525
74	0xbdbc2e5e	-0.09188531
75	0x3e074246	0.13208875
76	0xbc9ec254	-0.019379772
77	0x3eb9c552	0.36283356
78	0xbda01f7e	-0.07818507
79	0x3e6019ca	0.21884838
80	0xbde0132c	-0.10941157
81	0xbcc71593	-0.02430228
82	0xbdaf6d15	-0.085657276
83	0xbd544008	-0.051818877
84	0x3b97cdeb	0.0046327016
85	0xbcc27804	-0.023738869
86	0xbd0bab4e	-0.034098916
87	0x3e30d164	0.17267376
88	0xbe76bfdb	-0.24096625
89	0xbccac203	-0.024750715
90	0x3c2c04fe	0.010499237
91	0x3d93dac4	0.072194606
92	0xbd40e421	-0.04709256
93	0xbdee3cd9	-0.116326995
94	0xbd94da7a	-0.072682336
95	0xbcc43b91	-0.023954185
96	0xbe5de04a	-0.2166759
97	0x3e7595a8	0.2398287
98	0x3d6e8e5e	0.05824124
99	0xbd5004ea	-0.050785936
100	0xbeba943e	-0.36441225
101	0x3dc0d7d0	0.09416163
102	0xbe263f48	-0.16235077
103	0xbbf2cfef	-0.0074100415
104	0xbd7d7b22	-0.061885007
105	0x3cabbbc5	0.020963559
106	0xbe1349b3	-0.14383583
107	0x3dbaed43	0.09127285
108	0xbd9f71a1	-0.07785345
109	0x3d850709	0.064954825
110	0x3dd56beb	0.10420974
111	0xbb7723e0	-0.0037710592
112	0xbd2c2441	-0.042026762
113	0x3e00f45b	0.12593214
114	0x3d36a37a	0.044589497
115	0x3dd59022	0.10427882
116	0x3de34bfe	0.11098479
117	0xbd3f0d37	-0.046643462
118	0xbd07f173	-0.03318925
119	0x3e6a2d99	0.22868957
120	0x3def419c	0.11682436
121	0xbda46e06	-0.08028798
122	0xbd9e5f89	-0.07733066
123	0x3d3dd79b	0.046348196
124	0x3cd235e9	0.025660472
125	0x3db871ed	0.090061046
126	0xbda6c65c	-0.08143303
127	0xbd89d24d	-0.06729565
128	0x3cee5182	0.0290916
129	0x3ebab344	0.36464894
130	0xbd455040	-0.048172235
131	0x3e03db4e	0.12876627
132	0xbe0ad15f	-0.13556431
133	0x3cb80cb7	0.022467
134	0xbc9718ff	-0.018444536
135	0xbbcc4047	-0.0062332484
136	0x3ca79879	0.020458447
137	0x3dc05074	0.09390345
138	0xbc9b0298	-0.018922135
139	0xbdfe6684	-0.12421897
140	0x3dbc61d4	0.09198347
141	0xbc18bba8	-0.0093220845
142	0x3e0fba51	0.14035918
143	0x3de84746	0.11341719
144	0x3d559737	0.052146163
145	0xbd81d784	-0.063399345
146	0x3da1c051	0.078980096
147	0x3d1b7d1f	0.03796112
148	0xbdd80b20	-0.10548997
149	0x3ea64907	0.3247759
150	0x3d8d2492	0.06891741
151	0x3d427f1a	0.047484495
152	0x3e3ed2d8	0.18635118
153	0xba36ba77	-0.00069705345
154	0x3ddcc23e	0.10779236
155	0x3da85004	0.08218387
156	0x3d8a3fd0	0.067504525
157	0x3e9f436f	0.31106135
158	0xbe34ee1a	-0.17668954
159	0x3e18ce6b	0.14922492
160	0x3d35771e	0.044303052
161	0x3d95a8b7	0.073075704
162	0x3e569060	0.20953512
163	0xbe1a17d3	-0.1504815
164	0x3b1a050c	0.0023501543
165	0x3d4da1ec	0.05020325
166	0xbea715d5	-0.32633844
167	0x3f018b0e	0.50602806
168	0x3e5576b1	0.20846058
169	0x3cb0e04b	0.021591326
170	0x3e69447e	0.22780034
171	0x3da55881	0.080735214
172	0x3d87bd46	0.06627898
173	0x3d933a18	0.07188815
174	0xbd880b01	-0.06642724
175	0xbd8e9e5a	-0.06963797
176	0x3d2e40b1	0.042542163
177	0xbdb57015	-0.088592686
178	0x3e8141c5	0.2524549
179	0x3d3d0ee8	0.046156794
180	0x3dcf6100	0.10125923
181	0xbd067b5c	-0.03283249
182	0xbe832fe4	-0.25622475
183	0xbea2c024	-0.31787217
184	0xbdeb2740	-0.11482096
185	0x3d410972	0.04712815
186	0xbe1855d9	-0.14876498
187	0x3e903509	0.28165463
188	0xbd474b61	-0.04865587
189	0x3d849695	0.06474034
190	0x3edc748b	0.43057665
191	0xbd862a23	-0.06551006
192	0x3dc9ff43	0.098631404
193	0x3d875c11	0.06609357
194	0x3dd9c49e	0.10633205
195	0xbd5e2e15	-0.054243166
196	0x3db087df	0.08619665
197	0xbb70d8b9	-0.003675027
198	0x3c1060dc	0.008812156
199	0x3dfcfd30	0.12352979
200	0x3b0faf63	0.0021924607
201	0x3e095b1e	0.13413665
202	0x3dc6f340	0.09714365
203	0x3cd82b60	0.02638787
204	0x3d751698	0.059836
205	0xbe6aa44d	-0.22914238
206	0x3d4ceba8	0.050029427
207	0x3e6cc72e	0.23122856
208	0x3e01a838	0.12661827
209	0x3e0c6acf	0.13712619
210	0xbe374ad7	-0.17899643
211	0xbcb9a438	-0.022661313
212	0xbc86dac5	-0.01646174
213	0xbdb5939f	-0.08866047
214	0x3f0d7ed9	0.5527168
215	0xbda747ac	-0.08167967
216	0x3e2996da	0.16561452
217	0xbc29bb75	-0.010359635
218	0x3aefd7d0	0.001829857
219	0x3b1ea24b	0.002420562
220	0x3e5e56ca	0.21712795
221	0xbca5fd48	-0.020262375
222	0x3dd97984	0.106188804
223	0x3e05e6fc	0.13076395
224	0xbe901f30	-0.28148794
225	0xbdfc761e	-0.123272166
226	0x3d942d35	0.07235185
227	0xbe4210ae	-0.18951675
228	0xbd7d8958	-0.06189856
229	0x3db8717b	0.0900602
230	0x3c698d1b	0.014254834
231	0xbe55ebd9	-0.2089075
232	0x3d4c9ee8	0.049956232
233	0xbe111854	-0.14169437
234	0x3b276642	0.0025543128
235	0xbc044b1f	-0.008074551
236	0xbe9b47d5	-0.3032824
237	0xbe5f1cc1	-0.21788312
238	0x3e7ae19c	0.24500126
239	0x3cf6ff95	0.030151168
240	0x3d86c3de	0.065803275
241	0xbc612608	-0.0137419775
242	0x3bf2e80a	0.007412915
243	0x3c9fa692	0.019488607
244	0x3e31a5fd	0.17348476
245	0x3dbbbadd	0.09166501
246	0x3d3582f6	0.044314347
247	0xbdb0dafe	-0.086355194
248	0x3e24dad1	0.16099097
249	0x3d01ffd2	0.03173811
250	0x3d8adf03	0.06780817
251	0xbe5e3dff	-0.21703337
252	0xbd75f08f	-0.060043868
253	0xbcde3943	-0.027126914
254	0x3e05a6b1	0.13051869
255	0xbe06d51f	-0.13167237

net.2.bias f4 [128]
0	0xbe00e8b5	-0.1258877
1	0x3e337e16	0.17528567
2	0xbc89c581	-0.01681781
3	0x3d098d1a	0.03358183
4	0xbdbb3eb0	-0.09142816
5	0xbd39a58d	-0.045323897
6	0xbdcd10ce	-0.10012971
7	0x3c88532b	0.01664122
8	0xbd664ec9	-0.05622748
9	0x3d64cdf5	0.05586048
10	0xbd7c9776	-0.061667882
11	0xbd98841e	-0.07447074
12	0xbd8db808	-0.06919867
13	0xbdda9dff	-0.106746666
14	0x3ca30d71	0.01990387
15	0xbdb156e9	-0.08659155
16	0x3d014c51	0.03156692
17	0x3d0031aa	0.031297363
18	0xbc6f967c	-0.014623281
19	0x3d71d5bd	0.059041727
20	0x3c88b621	0.016688408
21	0x3cf9586b	0.030437669
22	0xbd538bf3	-0.051647138
23	0x3d9f1c40	0.0776906
24	0x3d02de53	0.031950306
25	0xbd08af00	-0.033370018
26	0xbcf88e60	-0.030341327
27	0xbd64e620	-0.055883527
28	0x3dd60c35	0.10451547
29	0xbe38a850	-0.18032956
30	0x3d958c1c	0.07302114
31	0x3dadd3f7	0.08487695
32	0xbc14a0db	-0.009071554
33	0xbd24b6d1	-0.04021341
34	0x3cb267ac	0.02177795
35	0xbd8cfad0	-0.06883776
36	0xbdb031e4	-0.08603266
37	0xbd818dd7	-0.06325882
38	0xbd3e9486	-0.04652836
39	0x3d9cdb25	0.07658986
40	0x39943a37	0.00028272133
41	0x3d8c265e	0.068432555
42	0xbe045658	-0.12923563
43	0x3dbc15d9	0.091838546
44	0xbd265a40	-0.040613413
45	0x3ca94d1b	0.02066665
46	0x3b7fbc3d	0.003902211
47	0xbca0f1ca	-0.019646544
48	0x3c75e86f	0.01500903
49	0xbc46cce9	-0.012133815
50	0x3d6686fd	0.05628108
51	0xbde9aa08	-0.11409384
52	0xbdcf02a3	-0.10107925
53	0xbd2bdfc9	-0.041961465
54	0x3d168cb6	0.036755286
55	0xbcfa73bc	-0.030572765
56	0x3dd94c8d	0.10610304
57	0x3c21b52b	0.009869854
58	0xbbb94991	-0.0056545218
59	0xbd7de9fc	-0.061990723
60	0x3d9b53cf	0.075843446
61	0x3c069635	0.008214523
62	0xbdac8c90	-0.08425248
63	0xbd3e81ef	-0.046510633
64	0xbd2171c4	-0.039415136
65	0x3b0ddbac	0.0021645827
66	0x3d46ca20	0.048532605
67	0xbce010ff	-0.027351854
68	0x3d190bda	0.03736482
69	0xbd005964	-0.03133525
70	0xbd81b19c	-0.063327044
71	0x3c21958c	0.009862315
72	0x3c7835bd	0.015149531
73	0x3dec4293	0.115361355
74	0x3cfe1238	0.031014547
75	0xbd2ae47f	-0.041721817
76	0xbd5eac0f	-0.054363307
77	0x3db8d9a6	0.09025888
78	0x3d5b2ea7	0.053511288
79	0xb9e8713e	-0.0004433486
80	0xbdeeafcf	-0.116546266
81	0xbc96cf64	-0.018409438
82	0x3cac58a5	0.021038363
83	0x3cd130b8	0.025535926
84	0xbea29b5e	-0.3175916
85	0xbd7808f7	-0.060555425
86	0xbd763acb	-0.060114663
87	0x3b98d47d	0.0046640025
88	0x3d0cd29a	0.034380533
89	0xbc3fe7f3	-0.011713016
90	0xbd25fb3a	-0.04052279
91	0x3d01b4eb	0.031666677
92	0xbdaffe6a	-0.085934475
93	0xbb73e85e	-0.003721736
94	0x3c257060	0.010097593
95	0xbd95fcca	-0.07323606
96	0xbd7d3485	-0.061817665
97	0xb9d62c1d	-0.00040850128
98	0xbeb4e529	-0.35331085
99	0xbdb802a7	-0.08984881
100	0xbe4f0966	-0.20218429
101	0x3d904a55	0.07045428
102	0x3dd9cfe2	0.106353536
103	0xbd10306b	-0.035202425
104	0x3c802c1a	0.01564603
105	0x3c5e9efe	0.013587711
106	0x3da8174f	0.08207571
107	0xbc68f673	-0.014218914
108	0x3d509028	0.050918728
109	0x3b0ef5d4	0.0021814005
110	0xbd3afa39	-0.045648787
111	0xbe4d4d73	-0.20049076
112	0xbd0250b8	-0.03181526
113	0xbda87222	-0.08224894
114	0xbc8daf45	-0.01729549
115	0xbd997002	-0.07492067
116	0x3cad3804	0.021144874
117	0xbe2cfcc4	-0.16893297
118	0xbd732a5d	-0.059366573
119	0xbd6a621f	-0.05722248
120	0x3ce6d2a5	0.028176615
121	0x39cb864d	0.0003881924
122	0x3db55c42	0.088554874
123	0xbdf5344a	-0.11972864
124	0x3c86e67e	0.01646733
125	0x3d05c0d0	0.032654583
126	0x3c823d3e	0.015898343
127	0xbd7abd85	-0.061215896

net.4.weight f4 [1, 128]
0	0x3d42d7d7	0.047569122
1	0xbec5b08b	-0.38611254
2	0xbcd267cf	-0.025684265
3	0xbde871e9	-0.11349852
4	0xbe92d8d9	-0.28681067
5	0x3d0e4514	0.034733847
6	0xbec02cdd	-0.37534228
7	0x39b7e90f	0.00035078122
8	0x3a8e02f8	0.0010834625
9	0x3d71e8e9	0.05906001
10	0x3c4328cc	0.011911582
11	0xbda20b59	-0.07912321
12	0x3d823976	0.06358616
13	0xbb3051f2	-0.0026904312
14	0xba2d7c22	-0.00066179235
15	0xba32d80f	-0.00068223564
16	0xbe29b1f7	-0.16571794
17	0x3de33e75	0.11095897
18	0x3dba7ee8	0.09106237
19	0x3e0810d1	0.13287665
20	0x3e3af7fc	0.18258661
21	0x3d94889d	0.072526194
22	0x39fcad37	0.0004819424
23	0xbe271007	-0.16314708
24	0x3db4d428	0.08829528
25	0xb97f5bbf	-0.00024352873
26	0x3e993cf8	0.29929328
27	0x3d8cda45	0.06877569
28	0x3eed79db	0.4638203
29	0x3e4b0319	0.198254
30	0xbb22a6c0	-0.002481863
31	0x3ae2b041	0.0017294959
32	0x39625860	0.00021585962
33	0xb9f5dad6	-0.00046893087
34	0xbd9649c5	-0.07338289
35	0xbe18a5d1	-0.14907004
36	0x3a12577a	0.0005582493
37	0xbe73cc30	-0.2380836
38	0xbda40704	-0.080091506
39	0xbb566f22	-0.003272005
40	0xbd49f5b2	-0.04930658
41	0x3e78fc4b	0.24314992
42	0xb9ec0f22	-0.00045024703
43	0x3e25169a	0.16121903
44	0xbe0413f5	-0.12898238
45	0x3e0b859b	0.13625185
46	0x3e5b384e	0.21408197
47	0x3e6258f4	0.22104245
48	0x3a0bb09b	0.00053287455
49	0xbd68df44	-0.056853548
50	0x3ea8dfb7	0.3298318
51	0x3a9e256a	0.0012065594
52	0x3e4b0e0b	0.19829576
53	0xbd9bde39	-0.07610745
54	0x3e3093fd	0.17243953
55	0xbb888504	-0.0041662473
56	0x3d4aa358	0.049472183
57	0x3e1c985f	0.152925
58	0x3e6b7a4c	0.22995871
59	0x3a65daec	0.00087682786
60	0xbe9dd6c5	-0.3082792
61	0x3e948c95	0.29013506
62	0x3da752ad	0.08170066
63	0x3b2bb05e	0.0026197652
64	0xbe017712	-0.12643078
65	0xbe1a5549	-0.15071596
66	0xbd9cf74b	-0.07664355
67	0x3e70b156	0.23505148
68	0x3df05c49	0.11736352
69	0xbd472154	-0.04861577
70	0x3a26fd3a	0.0006370131
71	0xbd5155b4	-0.051107123
72	0xbe24a7dc	-0.16079658
73	0x3e8d04dc	0.2754277
74	0x3c2b6086	0.010460025
75	0x3e45a4df	0.19301175
76	0xbe1421a4	-0.14465958
77	0x3e5f718b	0.21820657
78	0x391fccc9	0.0001523971
79	0x3e6cb575	0.23116095
80	0x3b3b2060	0.0028553233
81	0x3a7787e9	0.00094425544
82	0xbdc6becd	-0.09704361
83	0xb9c50798	-0.00037580426
84	0xbd007eff	-0.031371113
85	0x3c10910b	0.008823643
86	0xbd8fb68a	-0.070172384
87	0x391c9299	0.00014931931
88	0xbd4554f8	-0.048176736
89	0x3e3bef0c	0.18352908
90	0x3cc0b07c	0.023521654
91	0x3e8f405d	0.27978793
92	0x3e32e236	0.17469105
93	0x392a1340	0.00016219635
94	0xbc860e3d	-0.016364211
95	0x3f043bd3	0.51653785
96	0x3d86a6ba	0.06574769
97	0x3ed529cd	0.41633454
98	0xbdb54b9d	-0.08852313
99	0x3daf9f64	0.08575323
100	0x39b3b882	0.0003427901
101	0xbd2b64a7	-0.041844036
102	0xba319e0b	-0.00067755644
103	0x3d8de9bd	0.06929348
104	0xbdd4d50b	-0.10392197
105	0xb9822ec6	-0.0002483038
106	0xb981603e	-0.00024676503
107	0xb9937fcd	-0.00028133244
108	0xbe098a8f	-0.13431762
109	0x3e22b87c	0.15890688
110	0xbdeba1ef	-0.11505496
111	0x3a094817	0.00052368775
112	0xbdce0ce6	-0.10061054
113	0x3d292abb	0.041300517
114	0x3993b2e7	0.00028171318
115	0x3d2a8b5b	0.041636806
116	0x3f0e07b4	0.55480504
117	0xbbeb8000	-0.0071868896
118	0x3e8b781b	0.2724007
119	0xbd1d34ce	-0.038380437
120	0x3d8f7b10	0.07005894
121	0xbe086678	-0.13320339
122	0xbcccf3fc	-0.025018685
123	0xbce0a835	-0.027423957
124	0x3868a26d	5.546438e-05
125	0x3df3708c	0.11886701
126	0x38db91d6	0.00010469898
127	0xbe76a001	-0.24084474
