benchmarks/nd/dim_64/width_4/deg_8_seed_987.pt (torch, 2023 bytes, 2 tensors)

net.centers f4 [4, 64]
000000 90 6a e6 3f 20 6b 3f bd cc 9a 6d be 46 40 0d c0
       1.800127 -0.04673302 -0.23203582 -2.207048
000010 92 f5 79 3f 1d c9 07 3f 18 00 db 3f 54 cd 88 bf
       0.97640336 0.5304125 1.7109404 -1.0687661
000020 2c ac ea bf 38 b8 d5 3f fa 2d e3 bf 53 bd 32 3f
       -1.8333793 1.6696844 -1.7748406 0.69820136
000030 86 10 9b bf e1 8c eb bf e0 a3 f8 3c 32 87 cd be
       -1.2114418 -1.8402368 0.03035158 -0.40142208
000040 e0 0e 18 be 1f d1 1f c0 0c 91 fd be 4c db 9b 3e
       -0.14849424 -2.4971387 -0.49524724 0.30440748
000050 97 1e 01 bf 55 d6 a6 3f ec bd e6 3e 3e e9 9e 3f
       -0.504373 1.3034159 0.45066774 1.241493
000060 0e 8c 97 3f 18 ce 16 c0 2a 73 69 bf 1a 31 82 be
       1.1839616 -2.356329 -0.9119135 -0.25428087
000070 18 6f dc 3e 54 fb 57 3e e0 6e ec 3c dc 8e ad 3f
       0.43053508 0.21091968 0.028861463 1.3559222
000080 ec 5b 94 3f 74 5b d7 bf b8 84 8e 3f bd 2f 24 bf
       1.1590552 -1.6824784 1.1134253 -0.6413534
000090 77 63 04 40 ce 7d f9 3e a2 04 e5 be c8 dc f0 bd
       2.0685709 0.48728794 -0.44730097 -0.11760861
0000a0 ea 3d 8c bf d3 d2 60 bf 27 f9 0f c0 a0 03 e0 bf
       -1.0956395 -0.8782169 -2.249582 -1.7501106
0000b0 df 32 1d 40 84 dc 14 bf a2 55 0a c0 d2 0a ee bf
       2.45623 -0.5814898 -2.1614766 -1.8597052
0000c0 5a 5a e6 be b8 4e 28 be e8 e1 0a 40 aa 12 cc 3f
       -0.44990808 -0.16436279 2.1700382 1.5943196
0000d0 f8 25 02 3f 2b ff 04 3f 96 08 be 3f 1c b2 8b bf
       0.50839186 0.51951855 1.484637 -1.091373
0000e0 af 3b ba 3f f6 90 1b c0 06 d3 9e 3e 14 5a c0 bf
       1.4549464 -2.4307227 0.31020373 -1.502749
0000f0 2a 74 f5 bf dc cb 54 3f 4a e3 c5 bf 2d 0d 84 bf
       -1.9176075 0.83123565 -1.5459988 -1.0316521
000100 f2 ae 14 40 6e cc 88 bf 06 df 07 40 c0 e7 ca bc
       2.3231778 -1.0687387 2.1229873 -0.02476871
000110 f5 d4 0f bf 30 2a b4 3f 00 cd c3 bf 6d 80 b7 bf
       -0.5618432 1.4075375 -1.5296936 -1.4336067
000120 7c 4f ef bf d4 0a 46 be ad be 6d 3f 00 64 7f be
       -1.8696132 -0.19340068 0.92869073 -0.2494049
000130 90 4f 9d 3d d4 69 00 be ae 29 ad 3f df 51 17 bf
       0.07681191 -0.1254037 1.3528345 -0.591093
000140 ad d9 52 bf 44 be e5 3f 53 95 06 c0 40 73 dd 3f
       -0.82363397 1.794869 -2.102864 1.7300797
000150 37 ca 2d 3f b0 56 94 be de f5 8c bf a0 30 f4 bf
       0.6788668 -0.28972387 -1.1012533 -1.9077339
000160 9c 9e 35 bf c0 89 ec bf 76 f8 01 c0 da 25 e9 3f
       -0.70945144 -1.8479538 -2.0307899 1.8214676
000170 18 77 2c be c9 2c 1b c0 c9 9e 58 bf b0 4d 84 bd
       -0.16842306 -2.4246085 -0.84617287 -0.0646013
000180 e3 d0 8c bf 40 41 a1 3d aa 86 15 c0 e2 68 e4 bf
       -1.1001247 0.078737736 -2.3363442 -1.7844508
000190 29 f5 c2 3f 9f 81 68 bf 7a df 16 bf de 45 60 bf
       1.5231067 -0.90822786 -0.5893475 -0.8760661
0001a0 df d5 79 3f c1 00 d4 bf c8 31 76 be c5 a4 1b c0
       0.97591966 -1.656273 -0.24042428 -2.4319317
0001b0 03 09 a3 3f 82 c3 15 c0 36 73 c4 bf d4 57 85 3f
       1.2737125 -2.3400578 -1.534766 1.0417428
0001c0 71 68 0b 40 cf e1 78 bf ba 39 03 40 88 6e 9a bd
       2.1782496 -0.97219557 2.0503983 -0.075406134
0001d0 1c 50 9b 3f ee 86 06 40 98 56 2c 3f 66 7d e6 bf
       1.2133822 2.1019855 0.6731963 -1.8007019
0001e0 c3 4e fc bf 42 7b 76 bf d0 1b 57 be 8b e8 ae bf
       -1.9711536 -0.96281826 -0.21006703 -1.3664716
0001f0 61 c7 0a c0 65 8b 3e 3f cc 86 7c be b7 a2 a5 bf
       -2.1684191 0.7443145 -0.24660796 -1.2940282
000200 65 43 0d 40 b0 8a 0b 40 dc 5b c4 3f d2 67 b8 bf
       2.2072384 2.1803398 1.5340533 -1.4406683
000210 08 65 df 3f 30 73 63 3e 08 fa d9 3d c2 ad 14 c0
       1.7452707 0.2221191 0.10643393 -2.3231053
000220 2c 84 ac 3f 9e 93 af be 36 6e 26 3f 40 23 10 c0
       1.3477836 -0.3429231 0.6501192 -2.2521515
000230 98 79 22 bf ab 64 90 3f a5 df f2 3f 7e 87 29 3f
       -0.6346679 1.1280721 1.8974501 0.6622237
000240 91 66 a3 3f 81 d4 fe 3f 1a 2f c7 3f 09 13 00 40
       1.2765676 1.9908601 1.5561249 2.0011618
000250 a0 36 18 40 f8 23 c5 3e 73 b8 c9 bf 08 09 e9 bd
       2.378334 0.38504004 -1.5759414 -0.11378676
000260 76 20 1d c0 fd 9a ad bf eb 63 ba bf 2b 36 0f c0
       -2.4551063 -1.3562924 -1.4561743 -2.2376812
000270 04 b8 17 c0 36 70 2e 3f 3a e8 aa be 41 de 15 c0
       -2.3706064 0.6813997 -0.333803 -2.3416903
000280 a9 86 04 bf f0 7d b4 3d f8 4e f2 bf 6a 95 da 3f
       -0.51767975 0.08813083 -1.8930349 1.7076848
000290 da e6 ac 3e 68 3e a4 3d 59 f4 a7 3f 66 fb 09 3f
       0.33769876 0.080197155 1.3121444 0.5389923
0002a0 ac 56 fa bf 6f fa 11 40 68 b1 cc 3f 8a f7 af 3e
       -1.95577 2.2809103 1.599164 0.34368545
0002b0 bf ac f7 bf 69 21 00 c0 8c 07 92 bf b2 54 55 3f
       -1.9349593 -2.0020392 -1.1408553 0.8333236
0002c0 52 2d da 3e 80 d2 15 40 74 19 b6 3f 7c 25 07 c0
       0.42612702 2.340973 1.4226518 -2.1116629
0002d0 03 08 1f 40 48 3f 02 c0 96 ca 23 3f 15 66 c0 bf
       2.484864 -2.0351124 0.63980997 -1.5031153
0002e0 5b 6d 15 c0 a2 6c f0 bf 52 0e a9 3e 48 0e 83 bf
       -2.3347995 -1.8783152 0.33018738 -1.0238733
0002f0 03 c5 b4 bf 0a 5f a0 bf 6c 91 89 3e 12 3d ea 3f
       -1.4122623 -1.2529004 0.2686876 1.8299887
000300 80 cb de bf 08 d1 cb 3e c9 ec 19 bf 44 26 c2 be
       -1.7405853 0.39807916 -0.6012693 -0.3791982
000310 eb 32 1b c0 a8 18 cb 3f 68 5e 22 bf df 31 05 3f
       -2.4249828 1.58669 -0.634253 0.5202922
000320 70 d0 fa bd 72 d1 bd 3f 6a a0 05 40 e0 e9 8c bf
       -0.122467875 1.4829543 2.087916 -1.1008873
000330 98 bf 54 3f 60 95 b9 be 30 0b b2 bf ad 63 00 40
       0.8310485 -0.36246777 -1.3909664 2.0060837
000340 a0 04 92 bd aa e4 d4 bf 0c 7c 38 be 1e bb 10 c0
       -0.071297884 -1.6632283 -0.1801607 -2.2614207
000350 b4 45 c1 bf ee 5f 1d 3f c1 9e c2 3f a9 f6 dc bf
       -1.5099397 0.614745 1.5204698 -1.7262775
000360 f8 07 d2 be b8 3b 77 3f d0 59 06 c0 c8 3d 74 3e
       -0.41021705 0.965755 -2.0992317 0.23851693
000370 8e 51 68 bf 1c a6 c9 bf be 2d d2 3f e1 45 58 3f
       -0.9074944 -1.5753818 1.642021 0.84481627
000380 8c d3 db be f9 30 80 3f 68 21 b7 bd 5e 47 87 3f
       -0.42934835 1.0014945 -0.089419186 1.0568655
000390 30 da d1 be 80 cb 81 bb 40 df 9e bf 20 fd 20 bf
       -0.40986776 -0.0039610267 -1.241188 -0.6288624
0003a0 10 44 ef bf e2 89 a5 bf 9c 40 43 3e 07 f4 a9 bf
       -1.8692646 -1.2932703 0.19067615 -1.3277596
0003b0 24 f6 dc bf b8 c3 95 bf d0 44 ef bf 48 4e 04 c0
       -1.7262616 -1.1700354 -1.8692875 -2.067278
0003c0 8a 4d 03 40 9a 32 e7 bf 2e 20 13 bf a0 eb e9 3f
       2.0516076 -1.8062317 -0.5747098 1.8275032
0003d0 dc 6c a2 3f c1 ef 9e 3f cd 21 ac bf f9 1f 2a bf
       1.2689471 1.2416917 -1.3447815 -0.66455036
0003e0 e4 53 47 bf 04 53 64 3f 6c dd e2 3e 24 e0 0e c0
       -0.7786238 0.8918917 0.44309556 -2.2324305
0003f0 3c 75 0a be 74 17 01 40 03 0a 89 3f 3e f1 98 bf
       -0.13521284 2.0170565 1.070618 -1.1948621

net.bias f4 [4]
000000 37 6a c1 bd 72 a4 80 3d 15 3c 37 3e 5d c1 fb 3d
       -0.09444087 0.062813655 0.17894013 0.122927405
